dr_saved_models/LinearModel/LinearModel3/LinearModel3-v2.ckpt (torch, 7271 bytes, 2 tensors)

model.weight f4 [2, 512]
0.03455989 0.04025207 -0.011503526 0.041855942 -0.007810523 0.011263359 -0.018612456 0.025749492
0.038509257 -0.03146431 0.045644704 0.012098657 0.03548512 0.0070607252 0.018310387 -0.008772634
0.03732076 0.0029785663 -0.018691089 0.01015755 -0.022139104 0.00045730436 -0.016921993 0.03160396
-0.03504386 -0.018264512 -0.009568734 -0.022480197 0.008517679 -0.042663883 0.044799678 -0.03278819
0.035115678 0.008194895 -0.018094452 0.03268962 0.008223732 0.034340043 0.0060388395 -0.009629858
0.015702592 -0.010514685 0.021307776 0.039194334 0.028536443 -0.0143152755 0.024958627 0.007302084
0.02740315 -0.027990071 -0.04397345 -0.01614535 -0.03402956 0.035498742 0.01758174 0.023946548
0.013776214 -0.0020975168 0.03521421 -0.028436689 0.002422614 -0.029359125 0.014251914 -0.014258815
0.0162609 -0.013117128 0.038189206 -0.025500042 -0.024738548 -0.02316192 0.037144385 0.01474114
0.043394823 -0.033770956 -0.045074772 -0.034796413 -0.026944583 0.02107314 0.01970534 0.035087593
-0.021086216 -0.029812034 0.02263661 -0.01975882 0.024523757 -0.008839265 0.02519983 -0.03153844
-0.023471896 0.014578252 0.007648338 -0.008057283 0.03018788 0.03231428 -0.033209126 -0.020226726
0.03762967 -0.01276245 -0.012804208 -0.040164422 -0.026205186 0.010799024 -0.006734772 -0.032692686
-0.00028650998 -0.029362293 -0.038167316 -0.022440288 -0.037413042 -0.027195541 0.042680133 0.005358308
0.0107209 -0.040395893 -0.033060044 -0.012540506 0.0109971985 -0.04005016 -0.02042883 -0.02659632
0.0036132883 -0.014348596 0.003011449 -0.029488267 -0.030016487 -0.020771984 -0.014702927 -0.033810135
0.034457367 -0.008790913 0.039670523 0.013373797 -0.035111737 0.033317447 -0.011294332 -0.017958915
-0.037295517 -0.043427724 0.010656189 -0.011754597 0.023088042 -0.034706492 0.034409225 -0.029317664
-0.0075513367 0.012844304 0.024152108 0.039892446 0.037581753 -0.03321002 0.012319166 -0.015293988
-0.0059200223 -0.028906066 0.037434384 -0.03292443 0.024291899 0.017808335 0.016437499 -0.024317583
0.040721517 0.010241787 0.004660954 -0.035640474 0.01833037 -0.0037023444 -0.015948853 0.038769837
0.0116814915 -0.025874656 -0.020415708 -0.0017445539 0.022199439 -0.01057787 -0.024950085 -0.011527237
-0.03305369 0.014956663 0.034120783 -0.037004523 0.0076262774 0.02448454 0.0078029064 -0.015292756
0.023988646 0.026243465 0.021319706 -0.008258661 -0.0062884875 0.004944897 -0.009239626 -0.014721552
0.02515865 0.036416315 -0.003739598 -0.0121552935 0.0013762669 -0.004405196 0.011671272 0.016539022
-0.04178449 -0.014996752 0.034161415 0.018492632 -0.003686461 -0.022378141 -0.024461081 -0.03530639
-0.013750874 0.015483225 0.03163594 0.019338612 -0.04126461 -0.024472652 -0.003021722 0.039670814
0.0072146165 -0.013500585 0.016247243 -0.016183415 -0.029438391 0.03403679 -0.018423403 -0.0053564
-0.043585237 0.02875901 0.030500453 0.019830659 -0.030677272 -0.043408398 -0.033555225 0.032370266
0.020295067 0.03886185 0.024536064 0.011043213 0.003826537 -0.032079674 -0.04356381 -0.037683018
0.018529804 -0.020675149 -0.007995574 -0.025143262 -0.01063042 -0.029155647 -0.030502655 0.018189764
-0.009481203 0.030520786 -0.01544374 -0.030885734 -0.00884075 -0.019494172 -0.00977906 -0.04037926
00000000: ac8e 0d3d 5bdf 243d 4979 3cbc 2371 2b3d
00000010: 6aef ffbb f489 383c 2679 98bc 99f0 d23c
00000020: e2bb 1d3d b8e0 00bd f1f5 3a3d 7239 463c
00000030: d858 113d a85d e73b aaff 953c 18bb 0fbc
00000040: a7dd 183d 0d34 433b 0e1e 99bc da6b 263c
00000050: 115d b5bc 5ac2 ef39 fe9f 8abc 2773 013d
00000060: 278a 0fbd 759f 95bc 2ec6 1cbc 6428 b8bc
00000070: bc8d 0b3c 53c0 2ebd de7f 373d e94c 06bd
00000080: 75d5 0f3d e243 063c d13a 94bc 8de5 053d
00000090: d5bc 063c 25a8 0c3d 75e1 c53b 8dc6 1dbc
000000a0: b9a2 803c c945 2cbc a58d ae3c 3d8a 203d
000000b0: 42c5 e93c 9e8a 6abc 0976 cc3c 5246 ef3b
000000c0: 927c e03c 6f4b e5bc 811d 34bd 4143 84bc
000000d0: 9462 0bbd 2167 113d 9507 903c 8d2b c43c
000000e0: a1b5 613c 7e76 09bb c73c 103d 0ff4 e8bc
000000f0: b8c4 1e3b 8c82 f0bc dc80 693c ce9d 69bc
00000100: 9435 853c 39e9 56bc 496c 1c3d 77e5 d0bc
00000110: 7fa8 cabc 11be bdbc b624 183d d384 713c
00000120: c5be 313d 6a53 0abd 53a0 38bd af86 0ebd
00000130: e3ba dcbc 94a1 ac3c 186d a13c 02b8 0f3d
00000140: 00bd acbc 5e38 f4bc 6970 b93c 40dd a1bc
00000150: 0ce6 c83c 91d2 10bc e06f ce3c 742e 01bd
00000160: 2248 c0bc 9fd9 6e3c e99e fa3b b202 04bc
00000170: 934c f73c fa5b 043d 4b06 08bd 85b2 a5bc
00000180: 9221 1a3d 9819 51bc bec8 51bc 7383 24bd
00000190: 42ac d6bc 64ee 303c 5daf dcbb c4e8 05bd
000001a0: b836 96b9 3189 f0bc 5555 1cbd b2d4 b7bc
000001b0: 6b3e 19bd 2fc9 debc 5dd1 2e3d bf94 af3b
000001c0: b7a6 2f3c 2a76 25bd f869 07bd b276 4dbc
000001d0: 982d 343c a30b 24bd 5d5a a7bc 87e0 d9bc
000001e0: ebcc 6c3b 6016 6bbc bb5b 453b 6191 f1bc
000001f0: 23e5 f5bc 022a aabc 8ce4 70bc 7f7c 0abd
00000200: 2b23 0d3d c307 10bc 8f7d 223d c51d 5b3c
00000210: 53d1 0fbd e077 083d dd0b 39bc 931e 93bc
00000220: 2fc3 18bd 45e1 31bd 4c97 2e3c 5a96 40bc
00000230: 2223 bd3c 6528 0ebd b0f0 0c3d 992b f0bc
00000240: 3471 f7bb ea70 523c a4da c53c 4366 233d
00000250: 53ef 193d 3b07 08bd 54d6 493c a393 7abc
00000260: bffc c1bb 6acc ecbc cc54 193d c4db 06bd
00000270: ceff c63c c9e2 913c efa7 863c ab35 c7bc
00000280: 9bcb 263d 2bcd 273c eaba 983b bffb 11bd
00000290: 9229 963c 08a3 72bb 2ba7 82bc 1fcd 1e3d
000002a0: ba63 3f3c 16f7 d3bc d83e a7bc 84a9 e4ba
000002b0: 99db b53c cd4e 2dbc 1f64 ccbc bcdc 3cbc
000002c0: 4e63 07bd cb0c 753c 3cc2 0b3d 0e92 17bd
000002d0: dae5 f93b cd93 c83c 86af ff3b 788e 7abc
000002e0: d683 c43c 89fc d63c aaa6 ae3c 564f 07bc
000002f0: a80f cebb cd08 a23b cd61 17bc aa32 71bc
00000300: 8319 ce3c 4629 153d 0b14 75bb ff26 47bc
00000310: db63 b43a 7659 90bb dd38 3f3c d87c 873c
00000320: 3726 2bbd f0b4 75bc d7ec 0b3d dc7d 973c
00000330: 8d98 71bb 5d52 b7bc 9b62 c8bc 6f9d 10bd
00000340: 594b 61bc 5aad 7d3c b094 013d 026c 9e3c
00000350: 1405 29bd df7a c8bc 1508 46bb dd7d 223d
00000360: 9768 ec3b 8f31 5dbc f018 853c 1593 84bc
00000370: c828 f1bc 296a 0b3d adec 96bc bd84 afbb
00000380: 6f86 32bd 0498 eb3c 16dc f93c e873 a23c
00000390: e74e fbbc 01cd 31bd 3471 09bd af96 043d
000003a0: d741 a63c 9a2d 1f3d dbff c83c 98ee 343c
000003b0: a3c6 7a3b fa65 03bd f76f 32bd 8259 1abd
000003c0: d1cb 973c ee5e a9bc deff 02bc 3ef9 cdbc
000003d0: 372b 2ebc d3d7 eebc b4e0 f9bc b302 953c
000003e0: 0c57 1bbc ba06 fa3c be07 7dbc 1404 fdbc
000003f0: cbd8 10bc 3eb2 9fbc 5a38 20bc b964 25bd

model.bias f4 [2]
0.026479108 -0.008463566
00000000: b7ea d83c c5aa 0abc
