dr_saved_models/LinearModel/LinearModel3/LinearModel3-v4.ckpt (torch, 7271 bytes, 2 tensors)

model.weight f4 [2, 512]
0.0371937 0.043471616 -0.014859261 0.046210438 -0.0058510625 0.016539656 -0.016401833 0.020836046
0.03393584 -0.02913665 0.05425873 0.018789522 0.043227922 0.0040192767 0.012096421 -0.01650739
0.04598525 -0.0007687229 -0.017505195 0.00718626 -0.025353514 0.005381099 -0.016564794 0.03480101
-0.03890572 -0.014947482 -0.009488936 -0.014423425 0.014340761 -0.041455764 0.052418035 -0.024108259
0.039743774 0.008347655 -0.029412689 0.045078896 0.009420005 0.027173953 0.008771357 -0.00738149
0.018373819 -0.0072405864 0.023735613 0.039765213 0.033165812 -0.012504972 0.022156589 0.004656517
0.033112347 -0.029728556 -0.06595246 -0.015591437 -0.035279743 0.034058604 0.022625783 0.03505991
0.016343841 -0.0077673728 0.029314307 -0.02151274 0.0013664201 -0.02596875 0.015859524 -0.014346163
0.0144507205 -0.028533459 0.041423682 -0.023809778 -0.022027353 -0.018658813 0.029187478 0.01004889
0.043987665 -0.027613824 -0.04718805 -0.035762835 -0.021583088 0.021444138 0.026231397 0.03168279
-0.01610072 -0.030587856 0.019286187 -0.022656044 0.02002387 -0.020394672 0.027025282 -0.028545998
-0.027628487 0.015545356 0.0038530896 -0.0044910735 0.031933364 0.026858732 -0.034884922 -0.01626725
0.02357534 -0.012001675 -0.013498471 -0.039511535 -0.022754673 0.0011582508 -0.010727871 -0.03198188
-0.008567308 -0.03133155 -0.0384372 -0.022320157 -0.037399795 -0.028434444 0.03929087 -0.0061876867
-0.0063072187 -0.044851515 -0.049243167 -0.013385803 0.013930881 -0.043962236 -0.021114828 -0.046753947
0.0049180794 -0.013900022 0.0156240035 -0.030845957 -0.03301946 -0.016973285 -0.015598573 -0.034366198
0.053325556 -0.0068943407 0.041589517 0.014125814 -0.0349163 0.038550623 -0.009460746 -0.016686548
-0.036744304 -0.041709453 0.004664815 -0.017880952 0.029648295 -0.049278617 0.032529816 -0.02329726
-0.0044774855 0.014227673 0.022845235 0.044318836 0.025411518 -0.032369275 0.012608766 -0.01294381
-0.007706376 -0.03234975 0.037739575 -0.03347752 0.026788926 0.02185637 0.019202586 -0.026178516
0.037397545 0.013365569 -0.013150328 -0.028952073 0.019011497 -0.006802761 -0.011914408 0.032583527
0.0003048946 -0.028600492 -0.01562307 0.0022449058 0.015017656 -0.0093922485 -0.022685265 -0.007463397
-0.036575604 0.011352346 0.03276689 -0.03357035 0.0036182585 0.026764935 0.00362701 -0.014634038
0.025524952 0.012058821 0.02384847 -0.008977502 -0.0021564208 0.0019497842 -0.0101267295 -0.03147757
0.0073332414 0.03370369 -0.014970653 -0.019213792 0.0025945604 -0.0019358591 0.016133497 0.021013223
-0.048069406 -0.012464443 0.028549584 0.02035822 -0.008482608 -0.019940447 -0.02546514 -0.034429815
-0.012397245 0.022395475 0.037909187 0.015963323 -0.047542546 -0.022912014 0.0030735554 0.033649005
-0.0052753794 -0.020471144 -0.001489203 -0.03643767 -0.03249912 0.028994063 -0.01530137 -0.0022206127
-0.042041037 0.025827361 0.022503715 0.025479056 -0.032753278 -0.04314952 -0.033385623 0.012531692
0.017118491 0.033030745 0.01390825 0.010846803 0.0060539 -0.0323253 -0.0555478 -0.032933153
0.018292785 -0.017094856 -0.018037528 -0.02574404 -0.02165395 -0.026931476 -0.030435957 0.017231574
-0.0032718345 0.03113065 -0.017636482 -0.034560226 -0.008674372 -0.020095391 -0.004275717 -0.04255174
00000000: 6c58 183d 4b0f 323d 4274 73bc 2847 3d3d
00000010: 45ba bfbb 2c7e 873c 235d 86bc 5bb0 aa3c
00000020: 4f00 0b3d fcaf eebc 673e 5e3d 7cec 993c
00000030: c30f 313d 23b4 833b 1130 463c 823a 87bc
00000040: 085b 3c3d 1f84 49ba 0e67 8fbc b87a eb3b
00000050: 2cb2 cfbc ee53 b03b e4b2 87bc 818b 0e3d
00000060: 9b5b 1fbd 49e6 74bc 7b77 1bbc 3b50 6cbc
00000070: 83f5 6a3c 85cd 29bd 4bb4 563d af7e c5bc
00000080: 5eca 223d 9ac4 083c e1f2 f0bc a6a4 383d
00000090: 5d56 1a3c e99b de3c bdb5 0f3c 6de0 f1bb
000000a0: b184 963c 7142 edbb 3071 c23c d9e0 223d
000000b0: e0d8 073d a7e1 4cbc bc81 b53c b295 983b
000000c0: d0a0 073d 4d89 f3bc 1512 87bd 3a73 7fbc
000000d0: 7e81 10bd 0981 0b3d b559 b93c fb9a 0f3d
000000e0: 85e3 853c 7285 febb 8f24 f03c 7c3b b0bc
000000f0: 7319 b33a 6abc d4bc d5eb 813c 2b0c 6bbc
00000100: b7c2 6c3c 00bf e9bc e1ab 293d b90c c3bc
00000110: b572 b4bc 5eda 98bc 941a ef3c 19a4 243c
00000120: 692c 343d 6336 e2bc 4248 41bd 0d7c 12bd
00000130: 04cf b0bc 9eab af3c 3ae3 d63c d0c5 013d
00000140: a8e5 83bc 6293 fabc 11fe 9d3c 2b99 b9bc
00000150: 1909 a43c ba12 a7bc 2064 dd3c 4cd9 e9bc
00000160: 2355 e2bc f3b1 7e3c 1e84 7c3b db29 93bb
00000170: 8fcc 023d d806 dc3c 7ee3 0ebd e542 85bc
00000180: 1221 c13c aca2 44bc b128 5dbc d9d6 21bd
00000190: 0268 babc 73d0 973a f4c3 2fbc 6fff 02bd
000001a0: e55d 0cbc 8355 00bd 5370 1dbd c3d8 b6bc
000001b0: 8730 19bd 5aef e8bc 77ef 203d 14c2 cabb
000001c0: c9ac cebb 39b6 37bd 34b3 49bd 2150 5bbc
000001d0: 5a3e 643c bf11 34bd 01f9 acbc 1181 3fbd
000001e0: d727 a13b ebbc 63bc d2fb 7f3c a9b0 fcbc
000001f0: 6a3f 07bd 8f0b 8bbc 2891 7fbc 92c3 0cbd
00000200: e66b 5a3d ece9 e1bb c559 2a3d f56f 673c
00000210: 6504 0fbd 42e7 1d3d 3f01 1bbc 3ab2 88bc
00000220: 3281 16bd 88d7 2abd 4edb 983b 137b 92bc
00000230: fbe0 f23c 60d8 49bd fc3d 053d e5d9 bebc
00000240: dfb7 92bb 301b 693c ee25 bb3c ab87 353d
00000250: d12b d03c a595 04bd ff94 4e3c 4612 54bc
00000260: c485 fcbb 2c81 04bd d094 1a3d b91f 09bd
00000270: 7374 db3c 210c b33c be4e 9d3c 5474 d6bc
00000280: 2b2e 193d 42fb 5a3c 7974 57bc e62c edbc
00000290: 00be 9b3c b2e9 debb a634 43bc 4e76 053d
000002a0: 43da 9f39 944b eabc e8f7 7fbc 451f 133b
000002b0: 9d0c 763c f2e1 19bc 73d6 b9bc 838f f4bb
000002c0: 4dd0 15bd 31ff 393c 9336 063d 1081 09bd
000002d0: 4e20 6d3b 2342 db3c 21b3 6d3b 9bc3 6fbc
000002e0: b419 d13c 5c92 453c de5d c33c 5f16 13bc
000002f0: bd52 0dbb e78f ff3a 95ea 25bc a0ee 00bd
00000300: b04b f03b e10c 0a3d 7847 75bc 3e66 9dbc
00000310: 8009 2a3b a7bc fdba 652a 843c ec23 ac3c
00000320: 6de4 44bd aa37 4cbc d1e0 e93c 48c6 a63c
00000330: a3fa 0abc 265a a3bc 459c d0bc 4706 0dbd
00000340: d01d 4bbc b776 b73c aa46 1b3d 84c5 823c
00000350: f9bb 42bd fab1 bbbc b46d 493b 8ad3 093d
00000360: 17dd acbb 1ab3 a7bc 5c31 c3ba ab3f 15bd
00000370: cc1d 05bd f584 ed3c 99b2 7abc b387 11bb
00000380: 3933 2cbd e793 d33c b659 b83c 74b9 d03c
00000390: 4d28 06bd 8dbd 30bd 5dbf 08bd ba51 4d3c
000003a0: 143c 8c3c 3f4b 073d 6edf 633c cab6 313c
000003b0: cb5f c63b 8967 04bd 1786 63bd eae4 06bd
000003c0: c0da 953c 830a 8cbc 70c3 93bc 2ae5 d2bc
000003d0: a063 b1bc 669f dcbc d454 f9bc 3b29 8d3c
000003e0: 466c 56bb b405 ff3c 627a 90bc 068f 0dbd
000003f0: f41e 0ebc 179f a4bc 501b 8cbb bc4a 2ebd

model.bias f4 [2]
0.028623156 -0.010608954
00000000: 1c7b ea3c 2ed1 2dbc
