kaggle_full_saved_models/LinearModel/LinearModel0/LinearModel0.ckpt (torch, 9319 bytes, 2 tensors)

model.weight f4 [3, 512]
0.027530525 0.0009783957 -0.0109178135 0.036199328 0.011842725 0.039223865 -0.030660734 -0.03686454
0.0389708 -0.103316195 0.058524877 0.037394855 -0.03452849 -0.05125871 0.015257448 0.0523426
0.054138653 0.025042119 0.025359742 0.013816138 0.003638865 -0.042353258 0.04401211 0.035061263
-0.06404415 -0.04768943 0.0071301004 0.0039295927 -0.021294994 -0.05091942 0.030479953 -0.0064705615
-0.009810219 0.044626836 0.021893857 0.01832963 0.027811313 0.08392084 0.06155945 -0.006452651
0.07968032 0.047420215 -0.024583124 -0.006774341 0.036434863 0.05387815 0.04881173 -0.033318896
0.05965218 0.0019690662 -0.046264343 -0.023879793 -0.006376167 0.028051594 -0.020534365 -0.006875334
0.065709315 0.022738032 0.040583555 -0.012344555 0.01319518 0.0048366846 0.037398893 -0.057653796
-0.01231111 0.053198274 0.060008727 -0.03017846 -0.027538283 0.005225053 0.06559833 0.02940568
0.051678747 -0.059080616 -0.0023922361 -0.005031535 -0.07532747 0.007227887 0.056433693 0.04892573
-0.012496452 -0.03255668 0.0747522 -0.055657547 0.04351826 0.009641282 0.04868274 -0.020505756
-0.015666548 -0.005781446 0.038666703 -0.04992387 0.097708054 0.041101098 -0.062444355 0.021821091
0.044129092 0.03395151 -0.012565343 -0.020280728 -0.053409893 0.025738912 -0.057233013 -0.018970365
0.021708285 -0.053102747 -0.02455046 -0.06173685 -0.01998852 0.023354772 0.052674394 0.028286377
0.07074566 -0.0073968186 0.035704203 0.00029400623 0.040590566 -0.063783854 0.022062097 0.03644316
-0.0662453 0.03638678 -0.031208338 -0.024797082 -0.0037433684 -0.0071064876 -0.05250176 -0.008734102
0.04859291 0.017944688 0.038806118 0.048415393 -0.08123813 0.0793721 -0.022169739 -0.028612094
0.007890803 0.030087087 -0.030839568 0.022713907 -0.017018856 0.0029595296 0.030361777 -0.0026013374
-0.048942685 -0.0018512437 0.08190808 0.05871803 0.05820313 -0.12206061 0.0034524817 -0.040081505
0.008795128 -0.07078494 0.05832717 -0.0625296 0.009353673 -0.023381265 -0.055761814 -0.015426234
0.048559714 0.008520914 0.0015330254 -0.027808703 0.05715619 -0.011091604 -0.023727622 0.04018788
0.052402385 -0.08017899 -0.024880502 -0.05411046 -0.004192826 0.053270586 -0.088692516 -0.023563765
-0.023791801 0.027883552 0.07671555 -0.06339274 0.028881865 0.047990214 0.042613912 0.0375138
0.03967366 0.05759163 0.019743135 0.006376354 -0.014652848 -0.013869491 -0.08758609 -0.00055412576
-0.027901703 0.07140774 -0.030201556 0.035110835 -0.062460143 0.022713546 0.019648794 0.03709988
-0.025439497 -0.0071845027 0.049948573 -0.0404508 -0.026688168 0.072047785 -0.012355758 -0.031088378
-0.06387836 -0.07673858 -0.00633977 -0.036372565 -0.049455017 -0.05580897 -0.03397328 0.037735812
0.0051915264 -0.028174873 0.0017058909 -0.07324782 0.0014853508 0.06256877 0.04924004 -0.050737478
-0.06153323 -0.004908148 -0.010374238 0.051763408 0.0139966 0.008284359 -0.017119573 0.05849188
-0.00653231 0.06671905 0.016144749 -0.016490778 -0.023983391 -0.0040130904 -0.02806447 -0.03670632
0.017610585 -0.034685273 -0.08448667 -0.0969858 -0.07445264 -0.053519472 -0.004595811 -0.042101137
-0.013386032 -0.02491932 -0.025638554 -0.0052038925 -0.05848967 -0.041115113 0.005496265 -0.036382597
00000000: b287 e13c 833d 803a a1e0 32bc bf45 143d
00000010: fd07 423c 34a9 203d 382c fbbc 46ff 16bd
00000020: d89f 1f3d 7197 d3bd c8b7 6f3d 592b 193d
00000030: bf6d 0dbd a7f4 51bd 60fa 793c 3265 563d
00000040: 7ec0 5d3d 2125 cd3c 3cbf cf3c 155d 623c
00000050: 067a 6e3b 9c7a 2dbd 0b46 343d 669c 0f3d
00000060: 9429 83bd fe55 43bd 9ea3 e93b d0c3 803b
00000070: d772 aebc e290 50bd 18b1 f93c 0107 d4bb
00000080: 0abb 20bc a1ca 363d bf5a b33c 0528 963c
00000090: 8dd4 e33c b0de ab3d c325 7c3d c370 d3bb
000000a0: 702f a33d b33b 423d 8c62 c9bc 4bfb ddbb
000000b0: b93c 153d 56af 5c3d cfee 473d 6579 08bd
000000c0: d855 743d 730b 013b ae7f 3dbd 8e9f c3bc
000000d0: 2aef d0bb 75cc e53c af37 a8bc 7b4a e1bb
000000e0: 9b92 863d 1c45 ba3c f13a 263d d140 4abc
000000f0: 9930 583c 0d7d 9e3b 952f 193d 6326 6cbd
00000100: 8ab4 49bc 6fe6 593d b6cb 753d d138 f7bc
00000110: f797 e1bc ec36 ab3b 6b58 863d 2ee4 f03c
00000120: 18ad 533d 84fe 71bd 10c7 1cbb 93df a4bb
00000130: 4a45 9abd e9d7 ec3b 0427 673d 5966 483d
00000140: ebbd 4cbc 275a 05bd ae17 993d 2bf9 63bd
00000150: 3440 323d 78f6 1d3c 8e67 473d b0fb a7bc
00000160: 2257 80bc 4972 bdbb fa60 1e3d f97c 4cbd
00000170: 291b c83d a059 283d a7c5 7fbd 25c2 b23c
00000180: b5c0 343d bd10 0b3d dede 4dbc c523 a6bc
00000190: 55c4 5abd 69da d23c 2a6d 6abd bd67 9bbc
000001a0: 93d5 b13c 4482 59bd 0c1e c9bc c7df 7cbd
000001b0: f7be a3bc 8252 bf3c 1bc1 573d d5b8 e73c
000001c0: 1ae3 903d 0361 f2bb 923e 123d d924 9a39
000001d0: 4b42 263d 1ca1 82bd 92bb b43c 6c45 153d
000001e0: 9eab 87bd 4e0a 153d a1a8 ffbc 4023 cbbc
000001f0: 4d53 75bb 8add e8bb 160c 57bd 7b19 0fbc
00000200: 5c09 473d bd00 933c 2af3 1e3d 384f 463d
00000210: 2d60 a6bd d78d a23d 509d b5bc e963 eabc
00000220: 6d48 013c 3279 f63c 43a3 fcbc 8412 ba3c
00000230: 216b 8bbc abf4 413b 43b9 f83c 337b 2abb
00000240: 2078 48bd 6ea5 f2ba 6cbf a73d 5182 703d
00000250: 6866 6e3d eafa f9bd 0843 623b 812c 24bd
00000260: 7119 103c b2f7 90bd 78e8 6e3d 850f 80bd
00000270: 2640 193c 118a bfbc 8066 64bd 51be 7cbc
00000280: 8de6 463d 4e9b 0b3c ccef c83a 14cf e3bc
00000290: 9c1c 6a3d 8fb9 35bc 6e60 c2bc 0c9c 243d
000002a0: e2a3 563d e234 a4bd 32d2 cbbc eea2 5dbd
000002b0: f963 89bb 4232 5a3d 6ca4 b5bd cc08 c1bc
000002c0: 06e7 c2bc 0c6c e43c 0b1d 9d3d 0ed4 81bd
000002d0: a999 ec3c 6391 443d ed8b 2e3d 12a8 193d
000002e0: d980 223d 33e5 6b3d 5bbc a13c bcf0 d03b
000002f0: 8012 70bc dd3c 63bc 5660 b3bd c042 11ba
00000300: 1d92 e4bc 393e 923d 4169 f7bc 61d0 0f3d
00000310: 35d6 7fbd c211 ba3c 82f6 a03c 0bf6 173d
00000320: 7e66 d0bc fa6b ebbb e096 4c3d bdaf 25bd
00000330: 25a1 dabc ca8d 933d ce6f 4abc 0ead febc
00000340: a8d2 82bd 1e29 9dbd d8bd cfbb 66fb 14bd
00000350: 5891 4abd f297 64bd 9127 0bbd de90 1a3d
00000360: ae1d aa3b fece e6bc 3398 df3a f402 96bd
00000370: 1ab0 c23a 0e24 803d edaf 493d 1ad2 4fbd
00000380: 450a 7cbd 88d4 a0bb b5f8 29bc de05 543d
00000390: ff51 653c 1fbb 073c 593e 8cbc 2e95 6f3d
000003a0: fd0c d6bb ffa3 883d fe41 843c ab17 87bc
000003b0: d178 c4bc 3e80 83bb 76e7 e5bc 5e59 16bd
000003c0: 1344 903c 2512 0ebd 5907 adbd 7ea0 c6bd
000003d0: a07a 98bd 3c37 5bbd 7598 96bb 3e72 2cbd
000003e0: 1651 5bbc 9a23 ccbc f207 d2bc 6a85 aabb
000003f0: dd92 6fbd 5268 28bd 031a b43b eb05 15bd

model.bias f4 [3]
0.02245774 -0.015503219 -0.042779434
00000000: 4bf9 b73c 3701 7ebc 7d39 2fbd
