kaggle_saved_models_full_2cores_acc/LinearModel/LinearModel1/LinearModel1.ckpt (torch, 9319 bytes, 2 tensors)

model.weight f4 [3, 512]
000000 cf 86 f3 bc b9 2a ff 3c 35 fc 5b bd e5 08 22 3c
       -0.029727368 0.031148301 -0.05370732 0.009889816
000010 a2 a9 a4 bc c1 45 fd 3b b1 1a 24 bd a9 d2 1e bd
       -0.020100418 0.0077292626 -0.040064517 -0.03877512
000020 45 1d 67 3d 4d 92 58 bd 9e d9 7b 3d ed b5 09 3d
       0.056424398 -0.0528739 0.061486833 0.033620764
000030 8f 85 d6 3a c6 84 30 bd f4 b1 bf 3c 90 34 66 bd
       0.0016366708 -0.043095373 0.023400284 -0.05620247
000040 36 5b 55 3d 76 f5 b1 bc 97 0a 15 3d 6a b0 04 3c
       0.05208894 -0.02172349 0.036387052 0.008098701
000050 bd 3a 55 bc 2e af ed bb 04 b6 c7 3b c9 b6 ac 3d
       -0.013014493 -0.007253549 0.006094696 0.08433301
000060 5b b5 74 bd 84 fc 64 bd 2f b2 9a bd e7 fb f5 b9
       -0.059743267 -0.05590488 -0.07553517 -0.00046917723
000070 1f fb b3 bc ca d0 9a bd 17 22 72 3d 90 9f 2a bd
       -0.02197033 -0.075593546 0.05911454 -0.041656077
000080 cc 8e 7f 3c 64 ba f9 3c 99 cc 92 bc fb 45 90 3d
       0.01559801 0.030484386 -0.017919825 0.07044598
000090 a1 9d 5c 3d df 43 31 bc 2c 1a d4 3c 1a fc 34 bd
       0.053861264 -0.010819404 0.025891386 -0.044185735
0000a0 d8 40 d6 3b 90 37 2f bd 2d df 97 bb ea 48 c6 3b
       0.0065384917 -0.042777598 -0.004634759 0.0060511725
0000b0 36 81 29 3d c3 29 db bb 2a f1 b1 bc 62 33 7d 3c
       0.04138299 -0.006688328 -0.021721441 0.015454145
0000c0 a9 64 88 3d 7d fd fd 3c 6c ad 8c bd 74 f8 4a 3c
       0.066598244 0.031004662 -0.06869015 0.012388337
0000d0 9d 71 24 bd 5c 39 85 3d 79 6d ae 3c 58 b3 22 3d
       -0.040147413 0.06505081 0.021292435 0.039721817
0000e0 0d 6a 85 3c 5c c2 88 3c 2c f2 55 3c b1 80 a8 bd
       0.01628592 0.01669424 0.013058227 -0.08227671
0000f0 4e db 9b 3b 2c 2f 6f bc 13 dc e9 3b e5 83 28 bd
       0.0047563678 -0.014598649 0.0071368306 -0.04114141
000100 63 de 12 3d 44 02 b2 bc 91 1f 05 bd b5 00 04 bd
       0.035856616 -0.021729596 -0.032500807 -0.032227237
000110 24 d8 17 bd 60 b3 69 bd 9e 77 07 3d 84 9b 91 bc
       -0.037071362 -0.05705583 0.03307306 -0.017774351
000120 1b a0 94 3d 3f 7d 21 3d 4e 37 e2 bc 3f e9 ad bc
       0.072571 0.039426085 -0.027614262 -0.021229384
000130 80 09 14 3c 7c 47 0b 3d d9 80 ae 3c 54 88 18 3d
       0.009035468 0.03400372 0.021301674 0.037239388
000140 23 ac 18 bd a5 00 a5 bc 61 10 1b 3c 68 b7 29 bc
       -0.037273537 -0.020141909 0.009464354 -0.010358669
000150 e0 95 80 3d f8 f5 05 3d 31 10 25 bd 59 c6 ca bc
       0.062785864 0.032705277 -0.040298644 -0.024752783
000160 cf 42 f7 bc b3 1d 0a 3d 5e f9 03 3c e5 8b 1f bd
       -0.030183224 0.03371973 0.008055059 -0.038951773
000170 9d ec 51 3d ea 4f 3d bd 8c e0 3b bd 0d a5 af bb
       0.051251043 -0.04621879 -0.04586844 -0.0053602518
000180 68 db 51 3d be c1 91 bc ba 0d 3a bb 4b d6 04 be
       0.051234633 -0.017792579 -0.002838953 -0.12972371
000190 bd 08 af 3c c2 f4 ef 3b 35 ce 23 bc 7b bf d8 bc
       0.021366471 0.0073228786 -0.009997894 -0.026458493
0001a0 d8 3f f4 3c 8d 6b 7d bd 7d c5 72 bd ce 8b 32 bc
       0.0298156 -0.061870147 -0.05927037 -0.01089759
0001b0 99 a4 f4 3c 0b e1 51 bc 19 a8 3a 3d 1e 50 4b 3c
       0.029863643 -0.012810002 0.045570467 0.012409238
0001c0 ad 89 35 bc c8 90 c1 bd 02 e4 03 bc 2d 5d 76 3c
       -0.011080188 -0.09451443 -0.008049967 0.015036863
0001d0 33 26 03 bd 96 9c 53 bc 6c c6 40 bc ee 7d 32 bd
       -0.03201885 -0.012915751 -0.011766057 -0.043577127
0001e0 c6 be a6 bc 72 b5 45 bb 61 0a 44 bc 49 de df bc
       -0.02035464 -0.0030167964 -0.011965365 -0.027327674
0001f0 3c 01 e2 bc 53 33 89 bd ec d1 10 bd 7b b0 b5 bd
       -0.02758848 -0.066992424 -0.035356447 -0.088715516
000200 8b c8 60 3d 24 48 d3 3c c1 89 08 3d 02 d9 28 3d
       0.054878753 0.025791235 0.033334497 0.04122258
000210 7d be b1 bc 4b 5e 8c bb ae 48 79 3d 71 a6 53 3d
       -0.021697277 -0.0042837015 0.06086033 0.051672403
000220 4a 8a 84 bc 2d a7 19 bd e3 de b3 3c 44 0c a9 bb
       -0.016179223 -0.037512947 0.021956867 -0.005158933
000230 0d a8 4b 3c 9c 53 90 bd 62 96 8d 3d 95 1f 29 3c
       0.012430203 -0.07047197 0.06913449 0.010322471
000240 88 a1 83 bd 08 99 f3 3c cf 04 ee bc 77 10 15 bc
       -0.06427294 0.029736057 -0.029055027 -0.009098164
000250 ea e7 7e 3d 2b 30 88 bd bb 8d a3 bc aa 2a 76 bc
       0.06223289 -0.06649812 -0.019965043 -0.01502482
000260 0d c9 9b 3c 80 ee b9 bc 43 75 44 3c 90 50 91 bc
       0.019016767 -0.022696733 0.011990848 -0.01773861
000270 26 60 30 3d e9 2f 38 3d be 0e e6 bc 56 0c 41 bd
       0.043060444 0.044967566 -0.028083201 -0.047130905
000280 60 93 29 3d bd 4e 65 3d 06 63 d4 39 df 34 4e 3c
       0.041400313 0.055983294 0.0004050957 0.012585848
000290 ec 5e 40 3d b0 6d 82 3c db 01 b4 bd a9 97 11 3d
       0.046965525 0.015921444 -0.087894164 0.035545025
0002a0 3b 50 71 3d a1 d2 1c bc 00 95 69 bd 3b 37 6a bc
       0.058914404 -0.009571702 -0.057026863 -0.0142953945
0002b0 fc b9 de bb 4c 3d 03 3d 6a 2d 6d bc 2f 74 88 bc
       -0.0067970734 0.03204088 -0.01447616 -0.016656963
0002c0 a9 e2 59 bd 9f f5 25 3c 40 ba 0b 3d 2f 6a 46 bd
       -0.053194676 0.010129361 0.03411317 -0.04844111
0002d0 2e 9d 18 bd 98 9c 17 bd a6 d7 5a 3d f1 d9 b7 3c
       -0.037259273 -0.037014574 0.053428315 0.02244279
0002e0 65 e1 34 3d b8 18 2d 3d 82 8e 78 3c fb 3b b8 3b
       0.044160265 0.0422599 0.015170695 0.0056223846
0002f0 28 7c 8e bb 4f cb ed bc 49 97 55 bc 66 eb 1c bd
       -0.0043482967 -0.02902761 -0.0130365575 -0.03831043
000300 ef 50 c9 3c d5 91 30 3d 4a 6d 34 bd 2e 51 e9 ba
       0.024574725 0.043107826 -0.04404954 -0.0017800683
000310 08 6f b0 bc a2 6f 1d 3c a4 2b d0 bb 36 f0 17 bc
       -0.021537319 0.009609135 -0.0063528586 -0.009273579
000320 37 4a c0 b9 57 14 38 bd 99 d7 49 3d 22 8d 40 3d
       -0.00036676388 -0.044941273 0.049277876 0.047009595
000330 f7 67 08 bd 45 88 57 bd d9 be 42 bc 81 6a 8a bd
       -0.033302274 -0.05262019 -0.011886322 -0.06758595
000340 05 5c 7e bd ce f1 13 3d 39 8b a8 3d bd 98 6b 3d
       -0.062099475 0.036119275 0.082296796 0.05751871
000350 cb 69 41 bd e2 6c 0e 3c bf 01 54 3d 92 07 95 3d
       -0.047220033 0.008692952 0.051759478 0.072768345
000360 28 c7 b5 3c 27 04 35 bc b6 1e 75 3c dc 3c 3c 3d
       0.022189692 -0.011048353 0.014960935 0.045956478
000370 0b 68 60 bc 13 09 a1 3d 11 e6 ff bc 02 4b 53 bb
       -0.013696681 0.07863059 -0.031237634 -0.0032240753
000380 09 6f 30 bd 18 4a 91 3c 2d a9 3b 3d d3 91 e3 3c
       -0.04307464 0.017735526 0.045815635 0.027779495
000390 70 b2 0a bd 0c 14 78 39 cc ca 23 3d c8 ee 03 bd
       -0.033861578 0.00023658591 0.039988324 -0.03221014
0003a0 d8 df 27 3d 03 9b ea bb 53 93 23 3d 55 1a 33 3d
       0.04098496 -0.007159592 0.03993542 0.043726284
0003b0 c5 7a f8 3b 0e a8 5f bd 32 a2 42 bd 6b f9 8a bd
       0.0075829946 -0.05460363 -0.047517963 -0.06785854
0003c0 56 e5 4d 3d 04 42 84 bd dc 5f 6e 3c 3b bb 2d bd
       0.05026754 -0.06457904 0.014549222 -0.042414885
0003d0 e7 6b fc bc 24 5d 49 bc 6b a8 5d bd 8c ae 46 3d
       -0.03081317 -0.012290273 -0.054115694 0.048506305
0003e0 b7 75 14 bd 03 0d bd 3c 7b 62 68 bb 0f 09 3c 3d
       -0.036245074 0.023077494 -0.003545909 0.045907076
0003f0 8a 5a e5 bc 79 d1 11 bc 89 80 02 3b c6 52 f8 3b
       -0.027997274 -0.00890004 0.0019913039 0.0075782267

model.bias f4 [3]
000000 ac 95 a4 3c ce 57 9a bc 7c ed 1b bd
       0.0200909 -0.018840697 -0.03806828
