kaggle_saved_models_full_2cores/LinearModel/LinearModel0/LinearModel0.ckpt (torch, 9319 bytes, 2 tensors)

model.weight f4 [3, 512]
00000000: 0fe5 243c 751d 503a bab1 1fbb 6ade c43c
00000010: 81a5 163c 56b5 ae3b 89d0 853c e472 223d
00000020: b500 303d d9c6 4fbd 1ae4 733d 6392 8d3c
00000030: 50a7 0c3c 7fda 18bb 17b9 403c 31e4 cabc
00000040: 524b ce3c 272d 043c 0200 92bc ab25 dc3c
00000050: 3da3 24bb 80c1 33ba 8645 aabc 0397 1b3d
00000060: 0974 6ebd e9fb 04bd 439b 2fbd 37a0 38bd
00000070: adbf 463a 3b5b 00bd 961d 4c3d ecbc 46bd
00000080: 2c51 5c3d 5b42 eb3c ea6b 39bd afcf b63c
00000090: 5b0a a83c e5e5 273d 9dbe 873c 3197 e9bb
000000a0: 86ac 953b 28a5 d2ba 6320 043c 788c 593d
000000b0: 788f 0f3d 6c6b c1bc c0f0 2a3d cfa0 4f3c
000000c0: f811 4d3d 56d6 49bd 099c 0cbd 45d5 d8bc
000000d0: 766d 47bd 5efb 0e3d 7f6e bb3c 1564 4abb
000000e0: d4cf 653b 9da3 a13c 3575 db3c 54ad c9bc
000000f0: 3381 3cbc cc3d 53bc 6289 ec3c a761 a7ba
00000100: fcb5 a6bc f74c eb3a ef6b 613d 336c db3b
00000110: 7472 98bc 820f 0ebd be4d 5b3d 82cc 4f3d
00000120: 0390 283d 0223 44bd 122f 76bd 6116 8ebc
00000130: 8fd8 45bd d95b c23c ad94 95bc 08a5 7f3d
00000140: 6890 e1bc 5ae6 16bd 746d 863c 7acd 803c
00000150: 2e60 0f3c a247 e53c 0904 2d3d 05df 32bc
00000160: 79f0 debc 36b5 fd3c 75df 173c 07e5 8cbc
00000170: 3fcc e63b 7884 0e3d 5fd0 3fbd 9c16 b4bc
00000180: e006 223d 7d2e f5bc 01ab 8aba 961a 93bd
00000190: 7e3b a2bc 0974 433c 699c 84bc 51f3 54bd
000001a0: ea66 12bc e035 97bc e6b8 debc 14e1 7d3b
000001b0: 39f9 09bd 3196 06bc 6c72 6f3d 7b10 6a3b
000001c0: f1f0 ba3b a1c7 bbbc f5de 3cbd 6ee1 32bc
000001d0: 613e 883c 81b4 00bd 956d 63bb 2b81 8bbc
000001e0: 402c f33c eaa6 f6bc 6aad cabc d900 c0bc
000001f0: 4df7 e7bc a827 1bbd dcec 04bd 67a1 c8bc
00000200: 43da 533c 7953 ff3b 81c8 1e3d 8dd5 0c3c
00000210: 94fc 99bc 6c6d 1c3d c722 563c 977c 28bc
00000220: ab20 d3bc d88c 3bbd 8553 08bb e11a 14bb
00000230: f226 4b3c 664a 3ebd f53a b63c 5604 81bc
00000240: fb70 40bb a6ff b23c 3a48 433d 96ad 0d3d
00000250: 27f0 323d f90f 3dbd 4031 673b fe5e 003c
00000260: ef45 993c 40ab a5bc 4bd9 463d ee47 62bd
00000270: 12a8 ea3b 6db4 b03d b90c 2c3a 5e55 1dbd
00000280: 1ba6 273d 8bbb fe3b dc46 123c 36c2 e7bc
00000290: 3833 993c 5211 553c f217 21bd 72d6 013d
000002a0: 2dab 313c e317 95bc 25d1 0abd 34fb bfbb
000002b0: 24e7 273d d3e0 4b3c 3f8f 31bc 20f1 56bb
000002c0: 0c4d c4bc d737 803c a696 ea3c 6497 f7bc
000002d0: 9e54 583c 20a2 f03c 308f 213b 3f76 b23b
000002e0: e513 e23c 6a38 6a3c 98dc 563d 0f9e 8dbc
000002f0: e923 0b3d 964a 10bc ab48 fabc 0e71 433b
00000300: ebef ed3c e718 3c3d 3939 0dbd 8a62 0a3c
00000310: de71 133d 3cda 0e3c 1d64 ce3c 0294 abbc
00000320: 4cff 38bd f7a1 bdbc 17e4 a63c 2e94 b53c
00000330: 9877 26bd 0d52 57bd f15d c9bc 4bcd c8bc
00000340: 3491 d9bb a831 973c 10c9 edba 5c38 2b3b
00000350: 1724 17bd 2ab4 8bbc 34a9 d53c d2fa 793d
00000360: ee68 6c3c 9c01 e23a adaf 853c 2606 e2bc
00000370: fee5 a4bc 4710 ef3c 4684 893c 66cd 373d
00000380: 7bbc 4bbd a5bb 9f3a bdee 083d dfbd 113d
00000390: 7dc0 cabc 5324 bfbc 2a89 22bd b221 3a3d
000003a0: d6c7 793c fe74 95bb 2f8b f33c b53c 4bbd
000003b0: acfa 2dbb 1c8c 88bc f896 99bc aab5 b7bc
000003c0: bdf7 343c bcc0 9dbc d927 25bc f04b 22bd
000003d0: 613b 02bb 178a b2bc 43ac 8f3b 820f 413d
000003e0: de91 643b 12b3 603c 8567 8cbc bc61 44bc
000003f0: bb2a 37bc ef7c 2bbd 52ad 5bbc 6aa8 bfbc
0.010064377 0.000793896 -0.0024367408 0.024031837 0.009194733 0.0053316755 0.016334789 0.03966035
0.042969424 -0.050726745 0.059543706 0.017281717 0.008584812 -0.0023323593 0.011762879 -0.024767013
0.0251824 0.008067406 -0.01782227 0.02687343 -0.0025121712 -0.0006857142 -0.020785104 0.037985813
-0.05821613 -0.032466803 -0.04287268 -0.045074668 0.00075816625 -0.031337004 0.049832903 -0.048520014
0.05378835 0.028718164 -0.04526893 0.022315828 0.02051275 0.04099073 0.016570384 -0.007128619
0.0045676855 -0.0016070949 0.008064362 0.053112477 0.03504893 -0.023610793 0.041733503 0.012672617
0.050065964 -0.049276672 -0.034328494 -0.026468882 -0.048688374 0.03490769 0.022879837 -0.0030882407
0.0035066502 0.019731337 0.026789287 -0.024618782 -0.011505413 -0.0128931515 0.028874103 -0.0012770192
-0.020350449 0.0017952014 0.055034574 0.006696248 -0.018609263 -0.03468276 0.053540938 0.050732143
0.041152965 -0.04788495 -0.060103483 -0.017344655 -0.04830223 0.023725437 -0.01825937 0.062413245
-0.027534679 -0.036840774 0.016409613 0.015722979 0.008750958 0.027988259 0.042240176 -0.01091743
-0.027214276 0.030970197 0.009269585 -0.017199052 0.007043391 0.0347943 -0.046829578 -0.021983437
0.039557338 -0.029929394 -0.0010579528 -0.07182805 -0.019803759 0.01192952 -0.016187863 -0.051989857
-0.008935669 -0.018458307 -0.027187776 0.0038738893 -0.033684943 -0.008214519 0.05845873 0.003571539
0.005704992 -0.022922339 -0.046111066 -0.010918004 0.016631307 -0.031422142 -0.0034702767 -0.017029366
0.029684186 -0.030108888 -0.024740893 -0.023437904 -0.028316164 -0.037879616 -0.03245245 -0.024491025
0.012930456 0.007791933 0.038765434 0.008595836 -0.018797196 0.03819029 0.013069815 -0.010283611
-0.025772413 -0.045788616 -0.0020801735 -0.002259903 0.012399422 -0.04645767 0.02224491 -0.015749138
-0.0029364217 0.021850418 0.047676302 0.034589373 0.04368606 -0.04615781 0.0035277158 0.007835148
0.018710105 -0.02022326 0.04854707 -0.05524438 0.007161149 0.086281635 0.0006563175 -0.03841149
0.040929895 0.0077738217 0.008928027 -0.02829085 0.01870118 0.013004618 -0.039329477 0.03169865
0.010844034 -0.018199867 -0.033890862 -0.005858803 0.040991917 0.012443739 -0.010837375 -0.003279753
-0.02396252 0.015651627 0.028636288 -0.030223556 0.013203768 0.029374182 0.0024651997 0.005446225
0.027597377 0.014295677 0.05245647 -0.017287282 0.033969793 -0.008806845 -0.030552229 0.0029822025
0.029045066 0.045922186 -0.0344784 0.008446345 0.035997264 0.008719023 0.025194222 -0.020944599
-0.045165345 -0.02314852 0.020372434 0.022165384 -0.040641397 -0.052568484 -0.024580928 -0.024511954
-0.006639624 0.018456295 -0.0018141586 0.0026126122 -0.036899652 -0.017053682 0.026081659 0.061030217
0.014429314 0.0017242911 0.01631912 -0.027590822 -0.0201292 0.029182566 0.016786706 0.044873618
-0.049740296 0.001218666 0.033430804 0.035581466 -0.024749989 -0.02333275 -0.03968159 0.04544229
0.0152453985 -0.0045610657 0.029729454 -0.04961844 -0.0026547117 -0.016668372 -0.018748745 -0.022425491
0.0110453935 -0.019256942 -0.010080301 -0.0396232 -0.0019871818 -0.021794362 0.004384549 0.04713393
0.0034876983 0.013714569 -0.017139206 -0.011986192 -0.011179621 -0.041867193 -0.013408022 -0.023395736

model.bias f4 [3]
00000000: ae36 1a3c 7b61 8cbc eb63 c9bc
0.009412451 -0.017136326 -0.024583777
