dr_saved_models/LinearModel/LinearModel1/LinearModel1-v6.ckpt (torch, 7271 bytes, 2 tensors)

model.weight f4 [2, 512]
0.03856463 0.039487682 -0.004619728 0.045393698 -0.004236122 0.013970196 -0.019003764 0.02844303
0.042977445 -0.029787535 0.043255467 0.012929723 0.03760963 0.009215431 0.026253738 -0.0013014642
0.036516156 0.009046032 -0.015722793 0.015699651 -0.016897783 -0.001240898 -0.012410081 0.034023024
-0.029559886 -0.015638504 -0.009498198 -0.021190634 0.006662756 -0.040330786 0.044970885 -0.032017555
0.036557544 0.012495496 -0.011690647 0.031531107 0.011923981 0.03998409 0.007911015 -0.009484215
0.015103185 -0.007053449 0.022683486 0.04396017 0.030578084 -0.014486309 0.030774238 0.011646818
0.02543426 -0.02489985 -0.041084677 -0.013349166 -0.028640734 0.041668475 0.016661797 0.02229373
0.017025217 0.0034571579 0.037998896 -0.029186076 0.007589655 -0.02564691 0.017835144 -0.01004108
0.01796646 -0.0062346165 0.039983626 -0.023731006 -0.021698052 -0.021681989 0.04337205 0.020153506
0.04710726 -0.031087078 -0.04115753 -0.030659799 -0.024592254 0.022404416 0.020810327 0.04042714
-0.0192478 -0.025379831 0.02611272 -0.0141397165 0.030432401 -0.0052288435 0.03071834 -0.030694487
-0.017290587 0.018050471 0.011671164 -0.0068472954 0.031667177 0.033019226 -0.026758313 -0.018838298
0.044856988 -0.011548113 -0.0121167535 -0.038566425 -0.023012599 0.014774158 -0.0018761752 -0.02697717
0.0043124864 -0.025250483 -0.03228217 -0.019369805 -0.03463404 -0.025662374 0.04695406 0.010702017
0.015538695 -0.03832487 -0.02665446 -0.01020677 0.01149124 -0.03542498 -0.013696696 -0.024153842
0.005110172 -0.012279348 -0.0005302059 -0.024664925 -0.028579637 -0.022527048 -0.009903745 -0.031775728
0.039169006 -0.004959497 0.04338933 0.01822137 -0.03507409 0.033614714 -0.010149004 -0.011359139
-0.03293413 -0.03827534 0.018206822 -0.0060987687 0.021689823 -0.033639252 0.036951993 -0.029701322
-0.0037709388 0.013543101 0.026777837 0.039179944 0.04521676 -0.030177386 0.015745042 -0.016197206
0.00013771173 -0.029964294 0.045236483 -0.028651653 0.02916571 0.01977353 0.019016718 -0.019027948
0.045300346 0.013151147 0.008256153 -0.035607044 0.024068162 -0.0036605955 -0.015138772 0.03997405
0.013311537 -0.021617085 -0.017433504 1.4145844e-05 0.029698461 -0.007719279 -0.022706244 -0.010076588
-0.030785339 0.021520019 0.039276484 -0.039025422 0.013212412 0.027968826 0.013338488 -0.011544634
0.028188027 0.025881736 0.02119893 -0.0032458126 -0.0071065444 0.00968035 -0.002198044 -0.0094324695
0.03176398 0.0432687 0.00089986186 -0.005648714 0.0057115206 0.002470368 0.01443791 0.017402707
-0.03496432 -0.013425577 0.03930307 0.02018525 0.0005792084 -0.023067739 -0.022820553 -0.03708677
-0.008884572 0.019837014 0.032190103 0.025554981 -0.035755683 -0.021906052 -0.001660602 0.045701995
0.010315947 -0.0055412343 0.02308648 -0.01260835 -0.023331173 0.035586752 -0.016146999 -0.0036182415
-0.038125772 0.0348437 0.03576469 0.020042885 -0.025594126 -0.0399974 -0.031806752 0.035308894
0.02323547 0.03985583 0.026125925 0.014059246 0.0038119943 -0.028965946 -0.033123314 -0.038033515
0.021397922 -0.01754429 -0.0046441667 -0.02044828 -0.0052986145 -0.025901992 -0.023942905 0.017507223
-0.010671475 0.032137606 -0.008992043 -0.029188547 -0.0024163385 -0.01645833 -0.00895014 -0.037900884
00000000: f2f5 1d3d d6bd 213d 1661 97bb beee 393d
00000010: 2bcf 8abb 40e3 643c c8ad 9bbc 5b01 e93c
00000020: 1e09 303d fd04 f4bc a52c 313d 30d7 533c
00000030: 8e0c 1a3d 52fc 163c 1412 d73c e495 aaba
00000040: f791 153d cf35 143c 16cd 80bc 8e9c 803c
00000050: 386d 8abc a1a5 a2ba a753 4bbc ba5b 0b3d
00000060: 9327 f2bc 521c 80bc 549e 1bbc fb97 adbc
00000070: 4053 da3b e531 25bd 6433 383d d724 03bd
00000080: 5dbd 153d e9b9 4c3c 218a 3fbc c326 013d
00000090: cd5c 433c 5bc6 233d 349d 013c ae63 1bbc
000000a0: 5973 773c 9e20 e7bb b8d2 b93c 940f 343d
000000b0: e47e fa3c fc57 6dbc 411a fc3c 4cd2 3e3c
000000c0: 825b d03c c5fa cbbc 6848 28bd 76b6 5abc
000000d0: f99f eabc 90ac 2a3d 527e 883c 57a1 b63c
000000e0: 7878 8b3c 7c91 623b bba4 1b3d a317 efbc
000000f0: a4b2 f83b 7819 d2bc 021b 923c 5883 24bc
00000100: 662e 933c c14b ccbb dfc5 233d 8767 c2bc
00000110: 1dc0 b1bc 6d9e b1bc e4a6 313d f718 a53c
00000120: 8bf3 403d 54aa febc cc94 28bd 422a fbbc
00000130: b275 c9bc 7789 b73c 6b7a aa3c ee96 253d
00000140: 90ad 9dbc 5de9 cfbc 58ea d53c 45aa 67bc
00000150: 5f4d f93c b856 abbb 07a5 fb3c 0173 fbbc
00000160: fda4 8dbc 95de 933c 6938 3f3c 475f e0bb
00000170: 71b5 013d 2b3f 073d 4034 dbbc c652 9abc
00000180: f6bb 373d 4c34 3dbc 5985 46bc d4f7 1dbd
00000190: eb84 bcbc 4f0f 723c fee9 f5ba 3aff dcbc
000001a0: c24f 8d3b 1ada cebc 4f3a 04bd 6dad 9ebc
000001b0: 6cdc 0dbd e639 d2bc e752 403d 8357 2f3c
000001c0: 0396 7e3c 8afa 1cbd 745a dabc 4c3a 27bc
000001d0: c145 3c3c c919 11bd 1b68 60bc 47de c5bc
000001e0: 3b73 a73b 522f 49bc 84fd 0aba 190e cabc
000001f0: d81f eabc a58a b8bc 5143 22bc 4427 02bd
00000200: ae6f 203d 4783 a2bb 03b9 313d fc44 953c
00000210: d9a9 0fbd 95af 093d 0248 26bc af1b 3abc
00000220: f0e5 06bd 9ac6 1cbd 7926 953c 2ed8 c7bb
00000230: dbae b13c 50c9 09bd f95a 173d 3050 f3bc
00000240: db21 77bb e2e3 5d3c 325d db3c 267b 203d
00000250: 3635 393d 9136 f7bc bffb 803c 01b0 84bc
00000260: b666 1039 ae77 f5bc e449 393d dfb6 eabc
00000270: edec ee3c 19fc a13c f3c8 9b3c 80e0 9bbc
00000280: db8c 393d e977 573c d144 073c b1d8 11bd
00000290: 982a c53c 9ae6 6fbb 9d08 78bc d4bb 233d
000002a0: a218 5a3c 5016 b1bc b5d0 8ebc f053 6d37
000002b0: 304a f33c 01f2 fcbb 7202 babc 4618 25bc
000002c0: 8931 fcbc c04a b03c 61e0 203d 1fd9 1fbd
000002d0: df78 583c e11e e53c ac89 5a3c b425 3dbc
000002e0: 94ea e63c ef05 d43c 61a9 ad3c b3b7 54bb
000002f0: 04de e8bb 559a 1e3c 0f0d 10bb a58a 1abc
00000300: f21a 023d 853a 313d b5e4 6b3a d918 b9bb
00000310: b527 bb3b e6e5 213b fc8c 6c3c 1f90 8e3c
00000320: bf36 0fbd f4f6 5bbc 42fc 203d 8a5b a53c
00000330: 05d6 173a 8ef8 bcbc 2bf2 babc 4ce8 17bd
00000340: 9990 11bc 3c81 a23c c5d9 033d ae58 d13c
00000350: 8d74 12bd 5274 b3bc 8fa8 d9ba 0432 3b3d
00000360: 3804 293c 3e93 b5bb dc1f bd3c 4193 4ebc
00000370: 0421 bfbc 6ac3 113d b646 84bc 0520 6dbb
00000380: c529 1cbd 44b8 0e3d ff7d 123d fa30 a43c
00000390: c6aa d1bc 50d4 23bd cc47 02bd 0fa0 103d
000003a0: 5058 be3c de3f 233d 0906 d63c c058 663c
000003b0: a7d2 793b fe49 edbc 50ac 07bd 08c9 1bbd
000003c0: b24a af3c 0bb9 8fbc 182e 98bb 2783 a7bc
000003d0: 00a0 adbb 6a30 d4bc e923 c4bc 4f6b 8f3c
000003e0: 69d7 2ebc b9a2 033d 5d53 13bc d21c efbc
000003f0: 6f5b 1ebb 9fd3 86bc 9ca3 12bc f53d 1bbd

model.bias f4 [2]
0.028654767 -0.0106385695
00000000: 67bd ea3c 654d 2ebc
