kaggle_full_saved_models/LinearModel/LinearModel4/LinearModel4.ckpt (torch, 9319 bytes, 2 tensors)

model.weight f4 [3, 512]
000000 f4 f9 ec bb df 28 fa 3d f1 ec 2d 3d fd 6d 40 3d
       -0.007231945 0.12214827 0.042462293 0.046979893
000010 3c c3 cb bc fc c3 29 bd 59 df 76 bd 2d 11 b4 3b
       -0.024873368 -0.04144667 -0.060271595 0.0054952116
000020 ab 84 e0 3c 0a 3d 04 be 2c 30 3e 3d d8 62 27 3d
       0.027407011 -0.1291391 0.04643266 0.04086575
000030 05 4c 90 bb 02 fb 46 3d d7 b7 84 3d f6 41 1f 3d
       -0.0044035935 0.048579223 0.06480377 0.038881265
000040 4b 99 c8 3d b3 1d 25 3b 97 3f bb bc 6e f9 82 bc
       0.09794863 0.0025194704 -0.02285747 -0.015988078
000050 dd 46 2e 3c 7c 69 c0 bc 78 20 b0 3c 8b 06 18 3c
       0.010637012 -0.023487799 0.021499857 0.009278904
000060 13 cf 50 bc 21 41 84 bc 0c 37 44 bc da 2d bc bc
       -0.012744683 -0.016144337 -0.011976015 -0.022971082
000070 4d 44 02 3d e8 67 ec 3c 63 39 c4 bd 62 38 d6 bc
       0.031803418 0.02885814 -0.09581258 -0.026149932
000080 68 e5 00 bd e7 61 51 3d 95 d5 91 bd bc aa 87 3d
       -0.03146878 0.051118758 -0.07120816 0.06624362
000090 e3 5a 80 3c da a5 ac 3c 7d 37 9d 3d a3 ec bb bd
       0.015668338 0.021075178 0.07676599 -0.09175994
0000a0 4a 51 8a bc 17 23 34 bc 12 f5 78 3b 8c 8e 32 3d
       -0.016884465 -0.010994694 0.003798787 0.043592975
0000b0 26 a8 85 bd 59 d9 be 3a a9 f9 72 3d ed b1 35 bd
       -0.065262124 0.0014560624 0.059320126 -0.044359136
0000c0 3c 0f 70 3d 9d 12 00 3c 74 0c 15 bd f3 ad 1b 3d
       0.05860828 0.007816938 -0.03638883 0.038007688
0000d0 78 6e 7e 3b 2e 54 71 3c 82 05 95 3d 0b 11 de bb
       0.0038823169 0.014729543 0.07276441 -0.006776934
0000e0 5f 25 43 3d 9d 25 7f 3b de 17 69 bd 85 8a 92 bd
       0.04764306 0.0038932331 -0.056907527 -0.07155327
0000f0 56 ab 1d bd 9c e4 cc bd e8 91 a1 3d c0 2b ca bb
       -0.038493477 -0.10004541 0.078891575 -0.006169766
000100 59 b6 9f bb 1d 32 77 bd 68 3b 5d 3d 5c 51 08 bd
       -0.0048740325 -0.060350526 0.054011732 -0.033280715
000110 b4 62 87 bd bc 1b 16 bd 08 25 b7 3c a0 40 72 3d
       -0.06610623 -0.036647543 0.022356525 0.059143662
000120 45 f0 86 3d 7a 7c f4 bb 4e ea fd bc b4 44 0c 3b
       0.065887965 -0.007461128 -0.030995514 0.0021403255
000130 18 14 dd 3c d5 c8 1d bd 18 81 ab 3b ff f0 8c 3d
       0.02698712 -0.038521606 0.005233895 0.06881904
000140 4c d8 c4 bd 23 f1 80 3d dc af 9d 3d fe fd 12 bd
       -0.09611568 0.06295993 0.07699558 -0.035886757
000150 e1 60 92 bd 6b ea b4 3c b7 7b 74 3d f6 b2 4b 3d
       -0.071473844 0.022084435 0.059688296 0.049731217
000160 04 4f 82 bd c3 1a 08 3d 7d 26 d8 3c 9b 21 34 bd
       -0.06362727 0.033228647 0.02638554 -0.04397736
000170 c9 c0 96 3c e9 82 60 3d 97 2e 35 bd a5 5b c3 3c
       0.018402474 0.054812346 -0.044233885 0.02384741
000180 db b4 bb 3d 5d 8b e4 3c 28 12 30 bd b2 9e 60 bd
       0.09165355 0.027898485 -0.042986065 -0.054838844
000190 9b 38 67 bd d7 f3 11 bd 6e 71 d1 3d b5 2e 16 3c
       -0.056450468 -0.035632934 0.10226713 0.009166409
0001a0 92 50 1d 3d f1 76 99 bc 81 50 23 3c f2 c0 84 3c
       0.038406916 -0.018733473 0.009967924 0.016205285
0001b0 9c 5b a6 bd c4 9b 8c bd 3c a6 da 3c 3b 03 5f 3c
       -0.08122942 -0.068656474 0.026690595 0.01361161
0001c0 d7 21 02 bd fd 9f 74 bd fd bb 3d bc 5f e2 a2 bd
       -0.031770553 -0.05972289 -0.011580464 -0.07953333
0001d0 61 d3 4f bd d9 07 92 bd 94 fd 87 bc 62 cd c6 3c
       -0.050738696 -0.07130403 -0.016600408 0.024267856
0001e0 fb fb 19 3e b4 f4 2e bd b9 31 39 3b b1 2e af bd
       0.15037529 -0.042713836 0.0028258397 -0.085538276
0001f0 7f 91 ab 3c fa 61 05 3e d8 22 ba bc a4 0e 9c bb
       0.020943401 0.13025656 -0.022721693 -0.0047624875
000200 ab 8d fa 39 29 9e 4c bc 03 43 1e bd 5e ed 34 3c
       0.00047789267 -0.01248888 -0.038638126 0.011042921
000210 f7 a7 7d bc fb fa ab 3d 03 f9 5d bd 2f 4f c2 bd
       -0.0154819405 0.0839748 -0.054192554 -0.09487759
000220 3c f5 ea bc eb 92 4b bd f6 78 3d 3d ee 7c a3 bb
       -0.02868139 -0.04970066 0.046257935 -0.004989258
000230 8b eb 6f bc eb ca 69 bd 21 f6 96 3d f8 98 cf bc
       -0.01464356 -0.057078283 0.07371164 -0.025341496
000240 85 a9 25 bd cf aa d8 bc 6f 03 0f 3d e0 b4 a7 ba
       -0.04044487 -0.026448635 0.034915384 -0.0012794994
000250 bd 4e 0b bc 11 d2 22 3d a0 c9 26 bb 46 f4 a0 bb
       -0.008502659 0.039751116 -0.0025449768 -0.004911932
000260 ce 90 78 bd 8d b9 14 3a 32 e3 e4 3b a1 4e 3d bd
       -0.06068497 0.0005673401 0.0069850916 -0.046217564
000270 48 19 0d 3c 7f dc fe bb 3f e9 88 bd 12 07 09 3d
       0.008611985 -0.00777775 -0.06685113 0.03345401
000280 35 f3 b6 ba 41 16 40 bd 9f 36 00 be 0d ae 71 bb
       -0.0013957979 -0.046896223 -0.12520836 -0.0036877424
000290 1d 6e a2 3d 48 e6 a4 3c a9 36 57 3c 05 1c 26 bd
       0.07931159 0.020129338 0.013135591 -0.040554065
0002a0 05 cc 02 3d a8 7a 5d bc 72 6c 0b bc 7b 37 b0 bd
       0.03193285 -0.013518013 -0.008509742 -0.08604332
0002b0 27 2f 41 3b ce 59 3a bd 49 c5 fd bc 5d ab 71 bd
       0.0029477568 -0.0454958 -0.030977862 -0.059001315
0002c0 76 c2 a2 bd 84 f0 a8 3d 76 ba 69 3d d4 e8 01 bb
       -0.07947247 0.08249 0.05706259 -0.0019822614
0002d0 bd 41 f6 bc 12 3d 16 bd f2 76 95 bc 06 d7 a3 3d
       -0.030060643 -0.036679335 -0.018245194 0.07999997
0002e0 45 1c 24 3d 41 f1 65 3d 3f c2 58 3d 76 8c a8 bd
       0.040066022 0.05613828 0.052919623 -0.08229916
0002f0 46 16 7f bb d0 6f 1a bd 2c 2f a0 3d 83 d6 16 b9
       -0.0038923188 -0.03770429 0.07821497 -0.00014385027
000300 3e d7 22 bd 07 ab 26 3c 5d 38 f5 bc 77 e6 1f 3c
       -0.039756052 0.010172612 -0.029934103 0.009759537
000310 c6 6e d6 3c 5e 2b f8 bc ca d7 ac bc 5c bc 1b 3d
       0.026175868 -0.030294117 -0.02109899 0.03802143
000320 a4 34 1a be 6f 9c a2 3d d0 26 92 bd 0b 4b 94 3d
       -0.15059143 0.079399936 -0.07136309 0.07240876
000330 89 ee 65 bd a3 8d 8d 3d 35 27 9f bd c5 97 ce 3b
       -0.056135688 0.06911781 -0.0777115 0.0063047134
000340 05 b4 c6 bc 68 91 f5 bc 83 b2 31 3c 89 df 9b bb
       -0.024255762 -0.029976562 0.010845783 -0.004756872
000350 a4 1c 4e bd 00 5d 70 bd 4a 29 10 3e 1f e4 3d 3d
       -0.050320283 -0.05868244 0.1407825 0.04636013
000360 45 82 4d bd 5f 35 0f bd 7f 0e ef bc fa 6b 30 bd
       -0.050173063 -0.034963008 -0.029181717 -0.043071724
000370 23 be a6 bc 4c d5 78 bc b5 f2 61 3d db 71 7e bc
       -0.020354336 -0.015187573 0.055163104 -0.015530075
000380 9d 55 18 bd 86 c6 3c 3c 34 06 af 3d c8 46 d3 3c
       -0.037191022 0.011521941 0.08546105 0.025790587
000390 15 c1 8c bd d6 f0 7c bd 8e 18 30 3d f6 11 a6 bb
       -0.06872765 -0.061753117 0.042992167 -0.005068059
0003a0 11 7a 80 bc 3a 9d 84 3d 3e 85 a1 3d 6f f8 0e bc
       -0.015683206 0.06475301 0.07886742 -0.008726223
0003b0 dc 45 76 3c 75 35 85 3c 7e 41 ae 38 82 3e 9a bc
       0.015031304 0.016260842 8.3091654e-05 -0.018828634
0003c0 bd 56 ac bc b7 54 c3 bc 4c d9 e1 bc f4 0e c0 3b
       -0.021037454 -0.023844106 -0.027569436 0.0058611576
0003d0 fb de 4a bd 9b f6 3e bb e5 ed aa bc b5 d5 6d bd
       -0.049529057 -0.0029138688 -0.02086539 -0.058065135
0003e0 19 63 35 bd a9 10 1f 3b 60 b3 03 3d 08 25 3b bd
       -0.04428396 0.0024271405 0.032153487 -0.045689613
0003f0 31 5a ea bb d1 eb 98 bd 7f 0b 35 bd 3d 72 b3 bc
       -0.007151865 -0.074668534 -0.044200417 -0.021905059

model.bias f4 [3]
000000 93 5c 0c 3d e4 00 b9 bd 2c df 87 bc
       0.034267973 -0.09033373 -0.016585909
