kaggle_saved_models/LogisticRegression/LogisticRegression1/LogisticRegression1-v1.ckpt (torch, 11367 bytes, 2 tensors)

model.weight f4 [4, 512]
00000000: 8fe3 3f3d de3e a03d 9cbb fdbc 61f3 5bbc
00000010: 42e7 fdbc 14c8 3d3b d566 85bd 833e 9c3d
00000020: cec2 893d 7325 acbd 25f5 923d bd8b be3c
00000030: 5849 983d 8ab4 0c3d 2914 553c 097d 71bd
00000040: 0cce 863a ec90 a33c 7787 55bd 1785 0fbd
00000050: fdbc bcbc d40a 413d 6123 2bbd eba0 273d
00000060: 8a78 0b3c c7d6 d8bc ecbc 2d3d bf02 523c
00000070: 0c5e 0a3c f8e3 24bd fc4d 473d 4afb 85bd
00000080: 5302 0e3d 6947 8a3a 3d39 9bbc 96f6 bcbc
00000090: da75 76bb 0a6b e43c 83d1 b63c 6771 763c
000000a0: 3898 643d 66d3 16bc 15e1 3f3d 164f 4c3c
000000b0: 17d0 093d 1f3c 233c dbe3 a63c 8e26 4e3d
000000c0: f174 d2bc 030b debc 5e1b 19bd 0978 7f3c
000000d0: d162 03bd c84d f4bb ecd6 e13c 3e3f 623d
000000e0: 2bfd 223d 1b23 dbbc deda 8fb9 d519 b4bc
000000f0: 0e20 1f3d 3f06 02bd 72cb 053d 9ef6 fbbc
00000100: b95a 423b 571a 2a3c 116f 313d 8afe a4bb
00000110: 061f cabc 40f5 adbc 09b4 333c 7840 7ebc
00000120: 2ffe cc3b 6c4c 5fbd a139 fdbc 9ff4 adbb
00000130: 083e bfba c5e1 2b3d ce8c 353d 736b d23c
00000140: b33e 2bbd ef39 0ebd 89c5 583b b81e 20bd
00000150: 20ee f23b 48f6 8a3c 2e62 1cbb a62a 09bd
00000160: e7b4 3ebd 0de5 943c d251 2fbd a8de bebc
00000170: ab46 7e3d dbe2 853d daf3 11bd c413 5cbd
00000180: ace3 2c3d 039b 203c ca06 133c f33b 06bd
00000190: c2b1 4abc 25a1 b0bb e88d 41bd 1a2a 90bd
000001a0: f396 ae3c 80b4 18bd 85bd 03bc d8d2 babb
000001b0: 1756 8db7 e83f 3b3c f562 caba 7b43 0bbd
000001c0: 43db 34bd 3cf5 66bd c37b 2a3c cac5 05bd
000001d0: f343 1cbc 1e57 073c 3481 8fbd d80b 2abd
000001e0: b3f3 a63c 4e4d 37bd 34c4 cebc 4352 57bd
000001f0: 5376 04bd ae57 05bd 136a 09bd 9609 42bc
00000200: a442 90bb 5965 363c ec19 3f3d b9dd e03c
00000210: b384 16bd 13a6 643d ed3e 933c f5f3 363c
00000220: ca8e c5bd f44d 77bd fc59 3e3d 204f 57bd
00000230: afd1 1b3d a527 c4bc 3156 6e3d cf64 e0bc
00000240: 2d0a ad3b 444c a4bb ab90 0d3d f70a 083d
00000250: 6315 483d 9739 ed3b 069d 3b3d ab28 133c
00000260: c6d7 893c a199 36bc 90d5 bf3c 76a8 05bc
00000270: 1b55 6cbc ac61 0c3d ad06 023d 5972 cabb
00000280: 4911 443c 6209 323d cad7 0dbd 9ee0 3abd
00000290: 5856 f1bc 81df a23c 1620 5cbd 3029 ff3c
000002a0: 67b3 febb bcd2 5ebd d24e 3bbd b16f 5ebd
000002b0: b2c5 d9bc 1633 853c d6b0 903c dbde fa3b
000002c0: 797d 6ebd f226 c4bc c675 703c 6619 e6bb
000002d0: d07f 9d3b 8e63 b43b 312a 453c 60a6 7abd
000002e0: ab6e e63b 1e06 53bc 9a5f b13b f68a df3c
000002f0: 1f21 69bd dda6 1dbd 5671 35bc 1781 ea3b
00000300: 453d 963c e0c4 623b 28c2 7d3c eec8 3dbd
00000310: f17c ca39 966e 05bc ce87 5b3c f271 823d
00000320: c2e5 69bd a04c 6abc 9599 ff3c 144a a139
00000330: 2db8 2a3c 0e2a 8f3c 817c 8bbc c72f d7ba
00000340: ec9e 4cbc d768 b13c 25e3 213d 3d50 973b
00000350: 2a9b 21bc c95d 3dbb cef4 94bc 171b 763d
00000360: dfcc a2bc b3d0 a53c 608a b239 aa9a 74bc
00000370: 74e9 cbbc 7092 edb9 0da4 52bb 785a e83c
00000380: 0488 82bc 7713 2a3c 3d29 f93b 3eaf 623d
00000390: 0ec4 99bd fa22 57bd 6ed1 703b 5095 fe3c
000003a0: 0601 753c 874e 3a3d b9ed 4a3d 4a6f 01bd
000003b0: 32a3 2e3d 705d 88bb 8c2f 93bd 8c34 39bb
000003c0: e11f b43c 5db3 633c 1dbd c33c 1fc7 92bd
000003d0: 0c1b 9fbb 84da a9bc 340a d7bc 7750 e9bc
000003e0: 1428 84bd b804 0b3d 9805 bfbc 9d63 27bd
000003f0: f142 27bc 4e57 bebc a0eb a13c 8062 9ebd
0.046847876 0.07824491 -0.030973248 -0.013424725 -0.030994061 0.0028958367 -0.06513754 0.07629111
0.06726609 -0.0840558 0.07175664 0.023259992 0.07435864 0.034351863 0.013005295 -0.058957133
0.0010284795 0.019966565 -0.052131142 -0.035039034 -0.023039335 0.047129467 -0.041781787 0.040924948
0.0085126255 -0.026469601 0.042416498 0.0128180375 0.008445274 -0.04025647 0.048658356 -0.0654207
0.034670185 0.0010549846 -0.018948192 -0.0230668 -0.0037606866 0.027883071 0.0223167 0.015041686
0.05580923 -0.009205675 0.046845514 0.012470027 0.033645716 0.009963064 0.020372322 0.050329737
-0.025690528 -0.02710486 -0.037379615 0.015592583 -0.03207666 -0.0074555613 0.027568303 0.055236094
0.03979222 -0.026750138 -0.00027438154 -0.021984974 0.03884893 -0.031744238 0.032664724 -0.030757245
0.0029656126 0.0103822565 0.04331881 -0.0050352262 -0.024672996 -0.021235108 0.010968217 -0.0155183
0.006255887 -0.05451624 -0.030911269 -0.005308702 -0.001459063 0.041963357 0.044323735 0.025686001
-0.04180784 -0.03472322 0.0033076725 -0.039091796 0.0074136406 0.01696314 -0.002386223 -0.03348794
-0.04655924 0.018175626 -0.04280264 -0.02329953 0.062079113 0.0653741 -0.035632946 -0.053729787
0.042209312 0.009802583 0.008973787 -0.032772016 -0.012371482 -0.0053903037 -0.047254473 -0.0703928
0.021312213 -0.037281513 -0.00804079 -0.005701404 -1.6848599e-05 0.011428811 -0.0015440868 -0.0339999
-0.044154417 -0.056386217 0.010405484 -0.03265933 -0.009537685 0.008260516 -0.070070654 -0.0415152
0.020379877 -0.044751458 -0.025240041 -0.052568685 -0.032339405 -0.03255432 -0.033548426 -0.011843106
-0.0044024754 0.011132562 0.04665558 0.027449476 -0.036747646 0.055822443 0.017974341 0.011166562
-0.096463755 -0.060377076 0.046472535 -0.052565694 0.038041767 -0.023944685 0.058187667 -0.02739182
0.005280754 -0.0050139744 0.034561794 0.033213582 0.04884852 0.0072395313 0.045804046 0.008981864
0.016826522 -0.011145026 0.023417264 -0.00815784 -0.014424588 0.034272835 0.031744648 -0.006178182
0.011967012 0.04346598 -0.03462962 -0.045624368 -0.029460117 0.019881966 -0.053741537 0.03114757
-0.0077728513 -0.05440019 -0.045729466 -0.054305736 -0.026583526 0.016259711 0.017662447 0.007655961
-0.05822513 -0.023944352 0.014676517 -0.0070220707 0.004806496 0.005505032 0.012033985 -0.061193824
0.0070322356 -0.012879876 0.005413008 0.027287941 -0.056916352 -0.03848921 -0.011074385 0.007156502
0.018339762 0.003460221 0.015488185 -0.0463342 0.0003862153 -0.0081440415 0.013399078 0.063693896
-0.05710388 -0.014300495 0.031201163 0.00030763505 0.0104198875 0.017476108 -0.017027142 -0.0016417437
-0.012489062 0.021656437 0.039523263 0.0046177194 -0.009863654 -0.0028895012 -0.018183138 0.06008443
-0.01987308 0.020241117 0.00034053903 -0.014929453 -0.024891593 -0.00045313267 -0.003214124 0.028363451
-0.015933998 0.010380617 0.007603793 0.055342905 -0.075080976 -0.05252359 0.0036745924 0.031077057
0.014953857 0.045485046 0.049543116 -0.031600274 0.042636104 -0.0041615292 -0.07186803 -0.002826008
0.021987857 0.013897744 0.023893887 -0.071668856 -0.004855519 -0.02073408 -0.026249982 -0.028480751
-0.06452957 0.033940047 -0.023318097 -0.040866483 -0.010208831 -0.02323499 0.019765675 -0.07733631

model.bias f4 [4]
00000000: f85c e63b 7ae6 3a3d 7ba4 8cbc bae9 b8bb
0.0070301257 0.045629956 -0.017168274 -0.0056430968
