kaggle_saved_models/LogisticRegression/LogisticRegression2/LogisticRegression2.ckpt (torch, 11303 bytes, 2 tensors)

model.weight f4 [4, 512]
00000000: 0008 5f3d f4cb ac3d a037 32bd 5d37 103d
00000010: f98a 2c3d b0e7 c3bb 8e5f 2bbd 9adc 793d
00000020: aa68 f03c 08b4 5abd d5a0 b93c f0e7 89bd
00000030: f71b f33c ae66 1dbd 6998 183d 109c 38bc
00000040: 8b15 d73d ec1d 36bd 284e 04bd 96af 3dbd
00000050: 9fa1 91bc 941c 3c3c 8025 19bc 8cfd 21ba
00000060: 5b38 65bc 8900 7fbd 06ca 8bbd 8a21 b73c
00000070: b04a c53c 35c2 83bd e485 d63c e500 1bbd
00000080: d1bd c13b 16d5 0abd 43f8 f33c f072 1f3b
00000090: 7f2e 57bd 0c7d 283d 3e41 17bd 0821 bbba
000000a0: 0a1b 763d e705 df3c aeb3 163d 6730 7b3d
000000b0: 29e7 a73c 87a3 90bb 6ddf 893d 5016 76bd
000000c0: 31e9 44bc 9bc2 aa3c 4eec 7cbd f223 db3b
000000d0: 073c 36bd 4937 9e3c f5e7 113b 0530 303d
000000e0: b00e 7cbc 61f5 bebb 4171 af3c 3ad9 4abd
000000f0: 6b16 f5bc 6535 1d3b a5aa 3dbc 22f9 64bd
00000100: 5bbc f53c 5583 2bbd 2ecc bf3d 3392 9fbc
00000110: ce8f 3dbd 2b80 b53b 28f0 553d 109f 13bd
00000120: a1ac fc3c 52fe 75bb f93a 34bc 633c cf3c
00000130: afb1 46bd a83c 35bd ad95 48bc 64fd 173d
00000140: c1ae 38bd 5623 4ebc 3e7c 863d 01e7 3bbd
00000150: 31ef f93c 40b5 65bd ca32 6d3d 6615 cfbc
00000160: 45ad 6bbd 8f5f 633d d394 d0bc 6f3f fcbc
00000170: 5d7b 7b3c 3186 073d 7b24 2dbc ef36 36bd
00000180: 0187 963d 4d04 233d ed13 9a3c c27c 9ebc
00000190: 856e 5abc 9f08 013c cc02 9a3b 1497 33bc
000001a0: eabe 6aba 2111 80bd 2fda 343c c365 61bd
000001b0: 7585 81bd 168b 61bc 326d 0a3d 3b73 01bd
000001c0: be58 073d 65b9 2ebd 6969 aebb 6dba 29bd
000001d0: 1f8d b83c 9d2d aebd aa36 bcbc 5309 44bd
000001e0: 044c 673d 74c8 1d3c 577c b2bc 6aed 95bd
000001f0: 92b4 8bbc 1af1 303c ebbe 6fbb 50fe 2b3c
00000200: bce9 4a3b 552a 0c3a 0c94 803d 46ec 1d3d
00000210: 59cd 4abc 1f5f 933b 6ee2 03bc fd02 09bd
00000220: 00b6 8fbd d630 48bd eb44 0f3d a1fc 9e3c
00000230: 031d f33c c2ea f3bc f20c 403d 0786 803c
00000240: ec63 503c 6e84 1c3d c35c 3d3d c8ef bb3d
00000250: 799c e03d 858d 80bd 3487 3d3d a9e5 663c
00000260: d4a0 ca3c 18ac 6ebc d19b 393c 0cfa 943c
00000270: c2a9 c6bb 57ab 2dbc c5ee 2b39 5025 3bbd
00000280: 5397 51bb bc95 da39 4395 553c 7eaf 48bd
00000290: 55aa d73b 7b92 32bb d35b 36bd a74a ba3c
000002a0: 7fc8 5dbd e9c3 64bc 8cfb 95bd ca24 203d
000002b0: 2c02 99bc 3355 aeba 970c 2fbd bf0f 0abc
000002c0: 12d6 ec3c e8d6 c43c e499 f33b 84eb a63a
000002d0: e697 243d 4224 47bc f3cc d73c 98bd 5abc
000002e0: 064e e33c ff6b 223d 03d2 0e3c 3486 ebbc
000002f0: a6c8 88bc a24b b6bb 983c 173d 42c3 a6bc
00000300: fb85 cf3c 6776 1b3d 09a5 9bbb 3683 c13c
00000310: c5a3 2c3c d0aa 12bd f053 2cba bea4 543d
00000320: e193 a8bd b8bd 09bd 90b2 d63c ae62 3e3d
00000330: fcdb 043d 0711 86bc a9a8 f6bc d6fd d7bc
00000340: 1e3f f6bc ca59 56bd 3671 db3c f756 143d
00000350: a191 ebbb 5a5e 8ebc 0a04 293c 8c4b 9b3d
00000360: 8534 09bd c48d c2bc cb15 233c bb3a 623c
00000370: b74b 0bbc 78d5 fbbc ae32 423c efc8 c03c
00000380: bbad bcbc 4ec1 e53c 0bfd a43c a404 4f3d
00000390: 502a 12bc 1756 96bc 6fc5 fcbc b664 013d
000003a0: 46a5 133d 8170 d83c dc7e 9d3d 4868 bebb
000003b0: bd4d 4f3d a8b2 78bb 7d1e b1bd 4050 81bd
000003c0: 3e5f cabc 449c 01bd 6b57 c8bb 113e 7fbd
000003d0: dbc9 d7bc 4d56 29bd af5f 673c 6e2b 713d
000003e0: 2d6a a33c cb0c f73c c8e7 7ebd a779 b8bc
000003f0: 5e8a 743d 71d5 a9bd cc01 82bd 3932 5abb
0.05445099 0.084373385 -0.04351008 0.03520905 0.042124722 -0.005978547 -0.041839175 0.061001398
0.029346783 -0.053394347 0.022659699 -0.06733692 0.02967642 -0.038428 0.037254725 -0.011267677
0.10502156 -0.04446213 -0.032301098 -0.04631003 -0.017777262 0.011481423 -0.00934732 -0.0006179444
-0.013990487 -0.06225637 -0.06825642 0.02235486 0.024083465 -0.064335264 0.02618689 -0.03784265
0.0059125205 -0.03389462 0.029781466 0.0024329983 -0.052534577 0.04113488 -0.036927454 -0.0014276812
0.06008438 0.027224494 0.03679245 0.061325457 0.020495968 -0.004414025 0.06732068 -0.060079873
-0.012018488 0.020844748 -0.061748795 0.0066876346 -0.04449084 0.019313471 0.0022263501 0.043014545
-0.015384361 -0.0058275913 0.021416308 -0.04952357 -0.029917916 0.0023988124 -0.011576329 -0.055901654
0.029997041 -0.041873295 0.09365116 -0.019478893 -0.04627972 0.0055389605 0.052230984 -0.036040366
0.030844035 -0.003753562 -0.011000388 0.02529735 -0.048509296 -0.0442473 -0.012242717 0.037106887
-0.045088533 -0.012581667 0.06566666 -0.0458746 0.030509563 -0.056081057 0.057909764 -0.025278758
-0.05753829 0.055511054 -0.02546159 -0.030791966 0.015349236 0.03308696 -0.01056778 -0.044485983
0.07349969 0.039799023 0.01880833 -0.019346599 -0.013332014 0.007875591 0.0047000404 -0.010961313
-0.000895484 -0.06253267 0.011038347 -0.05502869 -0.06324283 -0.013766071 0.033795543 -0.031604033
0.033043616 -0.042657275 -0.0053226245 -0.041437555 0.02252823 -0.08504794 -0.022975285 -0.047860455
0.05646898 0.009630311 -0.021787805 -0.07320674 -0.017053876 0.010799671 -0.0036582302 0.010497645
0.003096207 0.0005346884 0.06278238 0.038555406 -0.01237806 0.0044974233 -0.0080495905 -0.033450115
-0.070171356 -0.0488747 0.034977835 0.019407572 0.02967692 -0.029775027 0.046887346 0.01568891
0.012719136 0.038212232 0.046231043 0.09176594 0.10967345 -0.06276993 0.046271518 0.014092841
0.024734892 -0.014567398 0.011328653 0.018185638 -0.006062717 -0.010599933 0.0001639678 -0.04568988
-0.0031981065 0.0004169176 0.013036075 -0.048995487 0.0065815845 -0.0027247954 -0.044521164 0.022740675
-0.054146286 -0.013962724 -0.073233694 0.039097585 -0.018677793 -0.0013300538 -0.042736616 -0.008426606
0.02891067 0.024028257 0.0074341167 0.0012734984 0.040183924 -0.012154641 0.026342845 -0.013350867
0.027747165 0.039653774 0.008717063 -0.028750516 -0.01669724 -0.0055632154 0.03692302 -0.020356778
0.025332442 0.037954714 -0.0047498983 0.023622137 0.010537093 -0.03580743 -0.0006573787 0.051914923
-0.08231331 -0.033628196 0.026208192 0.046480827 0.032436356 -0.016365541 -0.03010972 -0.026366156
-0.030059393 -0.052331723 0.026787382 0.03621575 -0.007188991 -0.017378975 0.010315904 0.07582769
-0.033497352 -0.02374924 0.009953926 0.013807948 -0.008501939 -0.030741438 0.011852903 0.023533313
-0.02303206 0.028046276 0.020140192 0.050541535 -0.008921221 -0.018351598 -0.030855862 0.031590186
0.03604629 0.026420834 0.07690212 -0.005810771 0.050611246 -0.0037948284 -0.08648393 -0.063141346
-0.024703618 -0.031643167 -0.0061139367 -0.06231505 -0.02634137 -0.04134207 0.014121934 0.05887931
0.01994809 0.030157467 -0.062232763 -0.022518946 0.05970227 -0.08292664 -0.06347999 -0.0033294095

model.bias f4 [4]
00000000: 4e64 bb3c 91db 3e3d 586a 3bbc f5b4 9fbc
0.022874977 0.046596114 -0.011438929 -0.019495467
