kaggle_saved_models/LogisticRegression/LogisticRegression2/LogisticRegression2-v1.ckpt (torch, 11367 bytes, 2 tensors)

model.weight f4 [4, 512]
00000000: 7f14 663d ef91 ad3d 09e9 42bd 3e88 113d
00000010: 38c8 0f3d 5336 38bb f2e3 2ebd 77ca 783d
00000020: 169c bf3c 5bbd 4ebd 7967 c53c 13d5 89bd
00000030: d1a2 ea3c 5ffc 2fbd 376f 223d 35a0 40bc
00000040: 2597 d23d 7261 30bd 78b6 03bd dbd5 3bbd
00000050: 8c57 9abc 446f 673c 96e9 12bc 925f 8fbb
00000060: 329c 98bc e1b5 7ebd 8eb4 90bd 4bad b43c
00000070: c5a6 cb3c ca50 83bd 5783 dd3c 478a 1fbd
00000080: 404a 153b e94f 05bd c63b e73c 3d34 1abb
00000090: 1fb8 55bd d444 2a3d be5b 1bbd e7e8 193a
000000a0: 58a6 7c3d dc79 be3c 2a4a 1c3d 57c2 7a3d
000000b0: b599 a73c c427 adbb 13d2 8a3d 0821 74bd
000000c0: d6a4 34bc bb55 873c bad1 75bd 14e4 b43b
000000d0: c467 3abd 88a1 853c 9401 983b 6089 313d
000000e0: 882c 8fbc 8b15 a9bb af65 b03c a741 50bd
000000f0: c040 eebc 6103 9c3a 7bc0 1abc bf42 6ebd
00000100: 9849 053d 2542 34bd 25f6 c03d 4088 a2bc
00000110: d313 3abd 6945 f83b a3b2 683d c8fe 1cbd
00000120: b82e 053d 85c5 60bb d609 1abc 3fb7 a13c
00000130: 9e56 54bd cbcf 33bd 8098 4fbc 7344 083d
00000140: 20ba 33bd 18c8 5fbc 6929 923d 1747 44bd
00000150: 1d71 ee3c ac8b 69bd e56f 683d 148a cbbc
00000160: 371c 71bd 6ebf 653d c04a c1bc 708b e0bc
00000170: cc7d 563c a448 053d 1755 22bc 44a6 30bd
00000180: 295c 8f3d e1fa 273d 1b94 9f3c 5de8 4bbc
00000190: 8e8f 3bbc 720f 1e3c a473 013c 5cfb 44bc
000001a0: 1951 5aba 0a16 87bd 9cbc 623c fd40 5ebd
000001b0: 4e08 7cbd 1838 69bc 5d57 173d 4afe 01bd
000001c0: a8e8 053d 7874 35bd 7f50 80bb d427 2dbd
000001d0: 4a73 b63c 581b b1bd 925a b1bc f87b 42bd
000001e0: ee63 623d fbd7 203c 56d0 c8bc 1bf1 a0bd
000001f0: 829d 92bc ccb5 663c fb73 d0bb b817 263c
00000200: d223 a33b 6362 06ba 0d84 843d 8bb8 1a3d
00000210: bc81 48bc 289a 2d3b d137 3fbc b80f 06bd
00000220: 346a 87bd b7f4 44bd 7ae9 213d 5557 9d3c
00000230: ba41 ed3c af2d 03bd 1f65 4e3d 2ce2 973c
00000240: 13d0 7c3c f99a 1e3d 5dd5 333d 1170 bd3d
00000250: 1929 e33d 8e9b 82bd cb8f 513d 6c0d 8c3c
00000260: 51a1 d73c 6fd6 67bc 55b4 243c c927 a33c
00000270: 84b7 09bc 87ab 17bc 59c8 933a 19b7 2cbd
00000280: d94e 2e3a 0b01 033b f118 203c b9d5 5dbd
00000290: 8fc0 073c 1898 feba 0105 36bd 8c3e bf3c
000002a0: 5da2 5abd 6c72 39bc bc47 9dbd af30 213d
000002b0: eabb 8dbc ea79 8cba a95f 22bd 60c3 f2bb
000002c0: 0d22 d03c 05fe d43c 33c2 f73b 23e7 ea3a
000002d0: 8e90 2e3d 8cce 46bc 3ec0 bc3c 9e56 16bc
000002e0: d355 ed3c 9b48 343d 1ec4 963b e884 fdbc
000002f0: 2e16 8bbc 6f25 cbbb 0c19 0e3d cb10 a8bc
00000300: d1b2 c23c e4c6 0d3d 1168 b7bb 00fd 973c
00000310: 507d 0a3c 419e 25bd 86a1 e0ba 6389 523d
00000320: 15c6 a0bd a2da 0abd 14d2 bd3c de11 413d
00000330: 7431 193d b3d9 8ebc 3257 01bd 2d4f d5bc
00000340: d071 edbc 403f 49bd 25a8 cd3c 040f 1e3d
00000350: f844 91bb 4dc2 a3bc 5e73 693c 3026 943d
00000360: 54d1 0dbd 0507 95bc 1e28 3e3c aa01 693c
00000370: d067 94bb 073f e8bc 0a90 393c e8e0 c03c
00000380: a040 a2bc bdc2 df3c 93a8 9c3c c222 573d
00000390: bba5 18bc 8d43 96bc 0482 f6bc 69f0 053d
000003a0: 8c56 1b3d aa97 c53c 4353 9e3d 91d2 c4bb
000003b0: 980b 523d d353 a9bb 15ab aebd dc41 78bd
000003c0: 6712 acbc 6921 f7bc 9cab 1abc a4df 78bd
000003d0: b0d1 ccbc 2b64 22bd 3610 6b3c a295 693d
000003e0: eca8 b43c 7761 e83c 6941 7bbd 71cf 99bc
000003f0: 54b7 7a3d 338b aabd 7bc6 7fbd f864 cdbb
0.05617189 0.084751 -0.04758552 0.03553032 0.035103053 -0.0028108552 -0.042697854 0.06073996
0.023389857 -0.050473552 0.024097191 -0.06730094 0.02864209 -0.04296529 0.039656844 -0.011756946
0.10282735 -0.04306168 -0.032156438 -0.045858245 -0.018840574 0.014125649 -0.008966824 -0.0043754065
-0.018629167 -0.062185172 -0.07065688 0.022055289 0.024859795 -0.06411894 0.027040167 -0.03895023
0.0022779852 -0.03254691 0.028226744 -0.0023529672 -0.052177545 0.041569546 -0.03792929 0.0005871192
0.061682075 0.023251466 0.038156666 0.061220493 0.020459035 -0.0052842814 0.0677835 -0.059601814
-0.011025628 0.016520372 -0.060014464 0.005520353 -0.045509115 0.016312376 0.00463886 0.0433439
-0.017477289 -0.005160039 0.021532862 -0.05084386 -0.02908361 0.0011902862 -0.009445305 -0.058169123
0.032540888 -0.044008393 0.09421948 -0.01984036 -0.045429062 0.0075766337 0.056810986 -0.038328916
0.032515258 -0.0034297418 -0.009401759 0.019740699 -0.051840417 -0.04389934 -0.012670636 0.033268403
-0.043878675 -0.013658546 0.071368046 -0.04791936 0.029106671 -0.057017967 0.056747336 -0.024846114
-0.0588648 0.056090765 -0.023595214 -0.027410239 0.013091516 0.03253998 -0.009907982 -0.043127313
0.07 0.04101074 0.019479802 -0.012445536 -0.0114478 0.009647237 0.007901106 -0.012022819
-0.00083281245 -0.065960005 0.013838913 -0.054261196 -0.061531357 -0.014234565 0.03694855 -0.03173665
0.03269258 -0.044300526 -0.003915846 -0.04227431 0.022271771 -0.086477935 -0.021649633 -0.047481507
0.05527108 0.009817119 -0.024513405 -0.07858487 -0.017897371 0.01408143 -0.006361482 0.010137491
0.0049786353 -0.0005126355 0.06470499 0.03777365 -0.012237962 0.002648959 -0.0116710225 -0.032729834
-0.066120535 -0.04808494 0.0395293 0.019206682 0.028962005 -0.03202599 0.050389405 0.018540464
0.015430468 0.038722012 0.04390465 0.092498906 0.11091823 -0.06377326 0.051162522 0.017096244
0.026322039 -0.014150246 0.01005276 0.019916432 -0.00840557 -0.009257204 0.0011274918 -0.042166803
0.00066493225 0.0019989635 0.0097715715 -0.0541589 0.008285656 -0.001942399 -0.044438366 0.023345254
-0.053377498 -0.011318784 -0.07679698 0.03935307 -0.017301518 -0.0010717486 -0.03964201 -0.0074085444
0.025406862 0.026000032 0.007560992 0.0017921667 0.042618327 -0.012134206 0.023040887 -0.009175925
0.028971588 0.044014554 0.0046010157 -0.030947164 -0.01697835 -0.006199531 0.034691855 -0.02051582
0.023766907 0.034613505 -0.0055971225 0.018553257 0.008452728 -0.040434126 -0.0017137981 0.051400553
-0.07850281 -0.03389991 0.023171462 0.04713618 0.037400678 -0.017437791 -0.031577297 -0.02603873
-0.028984934 -0.049132586 0.025104592 0.03858854 -0.0044332705 -0.01999011 0.014248697 0.07233846
-0.03462346 -0.018191824 0.011606244 0.014221588 -0.004528977 -0.028350366 0.0113258455 0.023544744
-0.019806206 0.027314538 0.019123351 0.052523382 -0.009316857 -0.018342758 -0.030091293 0.032699976
0.037924334 0.02412017 0.07730725 -0.006006547 0.051280588 -0.0051674633 -0.08528725 -0.060609683
-0.021004869 -0.030167298 -0.009440329 -0.060760155 -0.02500233 -0.03964631 0.014347127 0.057027467
0.022053204 0.028366787 -0.061341677 -0.018775674 0.06120999 -0.083273314 -0.062445145 -0.00626814

model.bias f4 [4]
00000000: 6524 bc3c b9c4 373d 25a8 3dbc 343c b7bc
0.022966573 0.044865344 -0.011575733 -0.022367574
