kaggle_saved_models_balanced_8cores/LinearModel/LinearModel4/LinearModel4.ckpt (torch, 9319 bytes, 2 tensors)

model.weight f4 [3, 512]
0	0x3b0bfdd1	0.0021361003
1	0x3d4371b5	0.04771586
2	0xbd1d0f8c	-0.038344905
3	0x3d628852	0.055305786
4	0x3c992131	0.018692585
5	0xbd052854	-0.032509163
6	0xbbc0d7fc	-0.0058851223
7	0x3d3e7dc4	0.04650666
8	0x3d10be1c	0.035337552
9	0xbcc28161	-0.023743333
10	0x3d5fc833	0.054634284
11	0x3bbdc9b6	0.005791868
12	0x3cfce846	0.030872475
13	0xbc033a99	-0.008009576
14	0x3bdde7cc	0.006772017
15	0x3caba99e	0.020954903
16	0x3c8b32a2	0.016991917
17	0xbbb4b700	-0.0055149794
18	0xbcc08a35	-0.023503402
19	0x3d2f0a07	0.042734172
20	0xbcc63760	-0.024196327
21	0x3cf47a5a	0.029843498
22	0xbca76fbc	-0.020439021
23	0x3cd39263	0.025826639
24	0xbca5dafd	-0.020246023
25	0xbca4a7d6	-0.020099562
26	0x3c850138	0.016235933
27	0xbcebd38a	-0.028787393
28	0xbbde4007	-0.006782535
29	0xbd3895af	-0.045064624
30	0x3d3b16f8	0.0456762
31	0xbd8eb828	-0.06968719
32	0x3d15e77e	0.03659772
33	0x3c9f709e	0.01946288
34	0xbcca3aec	-0.0246863
35	0x3d18f884	0.037346378
36	0xb9e5980c	-0.00043791567
37	0x3c545913	0.01296069
38	0x3c39b6f2	0.0113351215
39	0xbd592579	-0.053014252
40	0xbc72ef84	-0.014827613
41	0x3c80bfb4	0.015716411
42	0x3ce16aec	0.027516805
43	0x3c80badc	0.015714101
44	0x3d251c55	0.040310223
45	0xbc5638d3	-0.013075071
46	0x3afa755a	0.001910846
47	0x3d4a68ba	0.04941628
48	0x3cdeeda0	0.027212918
49	0xbd3ed108	-0.046586066
50	0xbd7559d5	-0.059900124
51	0x3c31f00c	0.010860454
52	0xbc95cd04	-0.018286236
53	0x3d127508	0.03575614
54	0xbc98c961	-0.018650712
55	0xbc755fb8	-0.014976434
56	0xbb7a8cf2	-0.0038230983
57	0x3d1a0e8e	0.037611537
58	0x3d869c9d	0.0657284
59	0xbcc7add9	-0.02437489
60	0xbc676f0f	-0.0141255995
61	0xbc0ff5d1	-0.008786635
62	0x3c30b87b	0.010786171
63	0xbcc67a37	-0.024228198
64	0x3c0355f1	0.0080160955
65	0xbc4ba723	-0.012429985
66	0x3d8a39ed	0.0674933
67	0xbd142b12	-0.036173888
68	0xbc8d8ed0	-0.017280012
69	0x3bfa0f0c	0.0076311883
70	0x3d5a0abe	0.0532329
71	0x3c451447	0.01202876
72	0x3dc4f388	0.096167624
73	0xbd668a40	-0.05628419
74	0xbd863a44	-0.06554082
75	0xbcbc8d49	-0.023016589
76	0xbd685d4d	-0.056729604
77	0x3cdf3585	0.0272472
78	0x3c42b1a0	0.011883169
79	0x3d0509da	0.0324801
80	0xbd41f378	-0.04735133
81	0xbd1a4029	-0.037658844
82	0x3d31f8cb	0.043450158
83	0xbcede25f	-0.029038606
84	0x3ce98218	0.028504416
85	0x3c0c5a04	0.008566383
86	0x3cc969ab	0.02458652
87	0xbca83777	-0.02053426
88	0xbc80c6b7	-0.015719755
89	0xbc2c0d8f	-0.0105012795
90	0x3c834698	0.016024873
91	0x3c786b3f	0.015162288
92	0x3d11d7be	0.03560614
93	0x3d0ae133	0.033906173
94	0xbd1998c5	-0.037499208
95	0xbc17ce64	-0.009265516
96	0x3da77a2a	0.08177598
97	0xbc9f22d9	-0.019425796
98	0xbd02fb10	-0.031977713
99	0xbd7a2dc0	-0.061078787
100	0xba29f442	-0.00064832356
101	0x3b6cf5b0	0.0036157183
102	0x3ab86b7a	0.0014070116
103	0xbd9c45ab	-0.076304756
104	0xbcda78ff	-0.026669024
105	0x3bf4589f	0.0074568535
106	0xbd633233	-0.055467796
107	0xbc0f4ebe	-0.008746801
108	0xbcffb040	-0.031211972
109	0x3b5843c0	0.0032999367
110	0x3d339f9c	0.043853387
111	0x3d0fc73e	0.03510212
112	0x3cab0db8	0.020880565
113	0xbd599297	-0.053118315
114	0xbcbfacf1	-0.023397895
115	0x3c79277b	0.015207167
116	0x3d2c0b33	0.042002868
117	0xbcd92f5e	-0.026511844
118	0xbd2587e9	-0.040412817
119	0xbc7d7db3	-0.015471864
120	0x3c0d7dca	0.0086359475
121	0xbb2d02ba	-0.002639933
122	0x3becf63f	0.0072315033
123	0xbd16508a	-0.0366979
124	0xbb8d54fc	-0.0043131094
125	0xbd53a9f0	-0.051675737
126	0xbcba2b65	-0.02272577
127	0x3ade87e6	0.0016977757
128	0x3d14567e	0.036215298
129	0xbc157ccf	-0.009123995
130	0x3d760699	0.060064886
131	0x3d54f9c6	0.051996015
132	0x3c087481	0.008328558
133	0x3ba53de6	0.0050427793
134	0x3cc1d767	0.023662282
135	0xbc96365c	-0.018336467
136	0xbd6c1604	-0.057638183
137	0xbcf0f6fa	-0.029414643
138	0x3abbe4ed	0.0014335193
139	0xbcd11b86	-0.02552582
140	0x3cec3024	0.028831549
141	0xbd0555b8	-0.03255245
142	0x3ce74b0a	0.028234024
143	0xbc237b5f	-0.009978144
144	0xbc62f400	-0.013852119
145	0x3c90cf9f	0.017677126
146	0x3b77b6f3	0.0037798255
147	0x3d4cd6d9	0.050009582
148	0x3d0bfd9f	0.03417742
149	0xbd87202c	-0.06597933
150	0x3bdfa385	0.006824913
151	0xbd15b795	-0.03655203
152	0xbceb8cc3	-0.028753644
153	0xbbc16dc6	-0.0059029786
154	0x3cdad056	0.02671067
155	0xbcd64b4a	-0.026158947
156	0x3d40613f	0.04696774
157	0x3caebff9	0.021331774
158	0xbc303021	-0.010753662
159	0x39aa7a21	0.0003251592
160	0x3cfe415e	0.031037029
161	0x3c6c0b32	0.014406966
162	0xbab15604	-0.0013529663
163	0xbda0e821	-0.07856775
164	0x3d43a44e	0.047764115
165	0xbc5ac9ab	-0.013353745
166	0xbb0fb9bd	-0.0021930777
167	0x3cf2c9b4	0.029637195
168	0x3d1f0520	0.038823247
169	0xbb88d7c9	-0.004176114
170	0xbd230461	-0.039799098
171	0xbc075e03	-0.00826216
172	0x3d05f713	0.03270633
173	0xbcbe5b2d	-0.023236835
174	0xbcd68efc	-0.026191227
175	0xbc8187b1	-0.015811773
176	0xbcba38c0	-0.022732139
177	0x3bd8bb43	0.00661412
178	0x3d2a177e	0.04152631
179	0xbd701027	-0.058609154
180	0x3c60b1f7	0.013714305
181	0xbc18dd7c	-0.00933015
182	0x3ca32535	0.019915203
183	0x3c199228	0.009373225
184	0x3d2971ad	0.041368175
185	0x3d10fec1	0.035399202
186	0xbcb8d27a	-0.0225613
187	0xb9c51aba	-0.0003759468
188	0x3a6287a7	0.00086414296
189	0x3b7acb74	0.003826824
190	0x3b917466	0.0044389246
191	0xbcebeeb1	-0.02880034
192	0x3c2216a2	0.009893091
193	0x3d294955	0.0413297
194	0xbd0d9a47	-0.03457096
195	0xbb8743ae	-0.004127941
196	0x3bd21daf	0.00641223
197	0xbc3096ef	-0.010778173
198	0x3c3a0f0c	0.0113561265
199	0xbce36fb5	-0.027763227
200	0xbd205452	-0.039142914
201	0xbc93dbe1	-0.018049182
202	0xbbb14757	-0.0054101157
203	0x3a2a83b5	0.0006504611
204	0xbce49f8d	-0.027908111
205	0xbcad0a30	-0.021123022
206	0xbd171add	-0.036890853
207	0xbda296e8	-0.07938939
208	0xbbed951b	-0.007250441
209	0xbbd87059	-0.0066051898
210	0x3c1bc133	0.0095065115
211	0x3cf3d4e5	0.029764602
212	0xbd1c1eac	-0.03811519
213	0xbc310195	-0.0108036
214	0xbcbe77ba	-0.02325045
215	0x3c8c5004	0.017127998
216	0xbcee5c6c	-0.029096805
217	0xbc517a2a	-0.012785474
218	0x3d2e67e2	0.04257954
219	0xbd0ac94f	-0.03388339
220	0xbc98fc6d	-0.018675053
221	0x3d832f23	0.06405475
222	0xbc95b03e	-0.018272515
223	0xbd010e46	-0.031507753
224	0xbd6ea0bc	-0.058258757
225	0x3d82aee8	0.06381017
226	0x3c16a43f	0.009194433
227	0x3a9dda71	0.001204325
228	0xbd052a4d	-0.032511044
229	0xbd3ff37a	-0.046863057
230	0xbc8685e6	-0.01642127
231	0x3d16cb7c	0.03681515
232	0x3ba05bc1	0.0048937504
233	0x3cf70523	0.030153817
234	0x3c205ef3	0.009788263
235	0x3c8b102c	0.016975485
236	0x3c5f02db	0.013611521
237	0xbcbd4a3e	-0.02310669
238	0xbd0fc571	-0.035100404
239	0xbd195cce	-0.03744202
240	0x3cb5c726	0.022189688
241	0xbca28c8f	-0.019842414
242	0xbca24ebe	-0.019812938
243	0xbc803f7e	-0.015655275
244	0x3ccaa095	0.024734775
245	0xbd56ebfb	-0.052471142
246	0xbcf49674	-0.029856898
247	0x3c807e4a	0.01568522
248	0xbcabab84	-0.020955808
249	0x3c7a86d8	0.015290938
250	0x3bab1844	0.0052213985
251	0xbb2b08a0	-0.002609767
252	0x396804f9	0.00022127097
253	0xbca2d4f6	-0.019876938
254	0xbd3a7fea	-0.045532145
255	0xbd13a06a	-0.036041655

model.bias f4 [3]
0	0x3b69c647	0.003567116
1	0xbc1916e6	-0.009343838
2	0xbcbbe38d	-0.022935653
