kaggle_saved_models/LogisticRegression/LogisticRegression3/LogisticRegression3.ckpt (torch, 11303 bytes, 2 tensors)

model.weight f4 [4, 512]
00000000: e94e b23d c917 3abe 6279 99bd 1da7 173d
00000010: 91bd 8e3d aa47 18be bb8b 98bd deaa eb3b
00000020: abf1 d23d 3fc6 183d e62f fd3d 59fd 333d
00000030: e24b 4b3d 6cc1 a13d 78ab 623d 74a6 5bbc
00000040: 51ab 763d ce65 363e 4013 09be c733 0cbe
00000050: 3b41 b0bd 10d9 27bd e427 38bd e440 4c3c
00000060: e0ee 5e3c 41fa 84bd 9ec1 903c de56 9fbd
00000070: 3538 043d 40d8 913d 9ea5 bc3d d0df 9d3d
00000080: e02b f0bb 8b1e 05be d5ca df3c b083 7f3d
00000090: 43ba 32bd 7443 aa3d 40c7 ddbc 512a 2dbc
000000a0: 650c 0c3d b96f a2bd 2c7e 9e3d 57fa fb3d
000000b0: 521c 133e b665 7d3d f4ba 4cbc 6a73 d13d
000000c0: 59a5 0e3e 3d67 d63d cd93 293c a251 01bd
000000d0: 1309 523d 4260 1b3d 0776 853c d604 513d
000000e0: fdd1 b43d 432a efbc 9c22 b9bd 181e 58bc
000000f0: 4537 bf3d 5e7e 1a3e 94aa 163d b449 a0bc
00000100: 0189 c63c 989f 47be 09e1 153d 0f88 583c
00000110: 97ff 18bd 594c 30bd 5e56 e7bd fb7a 9abd
00000120: 50cf 4b3d 9a00 f83c 01d0 15bd c51b 78ba
00000130: 83cf 9cbd 2fac d8bc 4069 44bd 8f43 3ebc
00000140: e037 773c 6800 70bd 9507 ad3c 92a7 503d
00000150: dbed 993c 2312 43be c3b8 7fbd b955 08be
00000160: 4ee0 f5bd b883 0fbd becd fd3c 428b ccbd
00000170: dd7d 59bd 5a62 393e 3b79 0c3d b8a6 98bd
00000180: 7ec9 7c3d 0509 9ebd a671 adbc bad6 61bd
00000190: 5df1 c43d d549 613c f788 953d 2352 a1bd
000001a0: 69ae 99bd fd29 fdbc 1afa 73b9 ea15 e73d
000001b0: 8ae3 ecbd 56a2 363d 8b54 a8bd 8203 fb3c
000001c0: 2214 c0bb 96ec 233d 3235 143e a6bf 173c
000001d0: dd9b e8bc f919 69be d678 b7bd 70e9 6ebc
000001e0: 154a 9b3d 9453 2abd fb5e 85bd 6298 a7bc
000001f0: 628f a4bd 27f6 c13c c633 bc3d 4b24 e1bd
00000200: dd99 8f3d 03c9 e13b 34c9 68bd eaaf aabb
00000210: 2547 e9ba 1b81 d33c 74b8 1dbe b041 313d
00000220: 2df3 b0bc 35ac 52bd 6c55 ea3c 0225 e93a
00000230: e784 0d3e 16a8 38bc 603a bc3d f1de 35bd
00000240: 7ba0 82bd f8b5 b1bc 3aa0 e6bd 4a46 6f3e
00000250: 1eba eb3c ff34 3f3c dd24 56bb f828 53bd
00000260: 713f 6a3d 7d08 093d 1f06 d53c 76f0 c53d
00000270: 2679 613d 5378 bb3d 0a53 143e 2ad5 02bd
00000280: b75c 9e3d e127 0fbd ae76 8abd 6a47 32be
00000290: a460 9abc fcf2 2bbd 19b1 74bd 3640 873c
000002a0: 3786 8e3d 55ba bdbd dfbe 28be c7b1 e0bc
000002b0: 4274 6cbb 8e1b 5f3d 6b74 d8bd c4dd a9bd
000002c0: 5e7d 153d 3f4d 0f3e df41 033e f260 d53a
000002d0: 8499 6c3d 4b78 aebb 96a5 a33d b56f a3bd
000002e0: e8f3 01bd 867f 0f3e 886e f43b 6535 913c
000002f0: dd5b 8b3b e5ff 7d3d 1fe1 55bc a606 b7bd
00000300: 4533 c13c 9806 11bc 06e6 a9bc a9b1 f23c
00000310: 5ad4 bcbd e1e4 033d 4364 82bd 6fb1 df3d
00000320: cd5a 86bc 9834 5cbe b38e 9f3c 687e 933d
00000330: f039 2f3d 96e7 f53c 373a f1bc 2727 7fbd
00000340: 3a3d 6d3d db6b 2abc 77f3 38bb b99d 2ebc
00000350: 151a c8bc d4fa 08bd 39ac 51bd ad63 d83d
00000360: 5eb4 0cbd 7d89 9fbc 34b7 44bc d1fe f5bc
00000370: 9343 8abd b13d 55bc 5aa1 42be 4181 533d
00000380: a228 8abb 3723 703c 564a 86bd e24e 823d
00000390: 19e0 95bc 5e22 1f3d bf71 d03d f0f3 9b3c
000003a0: 598a 82bc 4853 8eba 79a7 7f3d 0a38 80bc
000003b0: b130 dbbd 8abd 993d c560 22be 5f1a fcbd
000003c0: b52f 813d 9830 323d d5a4 b13c a5c8 dabd
000003d0: ebd6 8b3d a81b bebd 5a87 3cbd baf4 b53d
000003e0: 5aec 6cbd e7af 083d 8d2e c4bc e39d 803d
000003f0: 138b 1fbd 85ad df3c 2d14 6fbc 148c 5a3c
0.08706457 -0.18173136 -0.07493855 0.037024606 0.06969751 -0.14871088 -0.074485265 0.007192
0.10300001 0.037298437 0.123626515 0.043942783 0.049632914 0.078982204 0.055339307 -0.013406385
0.060221974 0.17812273 -0.1338625 -0.13691626 -0.08606192 -0.04097849 -0.044959918 0.012466643
0.013606757 -0.06493045 0.017670449 -0.077802405 0.032280166 0.071213245 0.092112765 0.077087045
-0.007329449 -0.12999932 0.027318398 0.062381446 -0.043634664 0.08313647 -0.027072549 -0.010569171
0.034191508 -0.07931466 0.07738909 0.12303608 0.14366272 0.061864577 -0.012495745 0.102270916
0.13930263 0.1046891 0.01035018 -0.03157199 0.051278185 0.037933595 0.016291631 0.051030003
0.088291146 -0.029194957 -0.09039804 -0.013190769 0.09336714 0.15087268 0.03678377 -0.019566394
0.02423525 -0.19494474 0.036591563 0.013216033 -0.037353124 -0.04304156 -0.1129577 -0.07542988
0.049758255 0.030273724 -0.03657532 -0.0009464587 -0.07656767 -0.026449291 -0.047951937 -0.011612787
0.015089005 -0.058594137 0.02112178 0.050941058 0.018790176 -0.19049887 -0.062432062 -0.1331395
-0.12005673 -0.035037726 0.030981895 -0.09987499 -0.05309855 0.18103924 0.034295302 -0.07453674
0.061715595 -0.07716564 -0.021172356 -0.05513642 0.09616349 0.013750513 0.073015146 -0.078769945
-0.07503969 -0.03090381 -0.00023267456 0.11283477 -0.11566837 0.04458841 -0.0821925 0.030641321
-0.005861775 0.040020548 0.14473417 0.009262001 -0.028394634 -0.22763814 -0.089585945 -0.014582023
0.075824894 -0.041583613 -0.06512257 -0.020458404 -0.080351606 0.023676945 0.091895625 -0.109932505
0.07011769 0.0068904175 -0.056832507 -0.005208959 -0.0017797692 0.025818398 -0.15402395 0.043275535
-0.02160033 -0.05143376 0.028605185 0.0017787518 0.1382023 -0.011270544 0.09190822 -0.044402067
-0.063782655 -0.021693215 -0.112610295 0.23366657 0.028775271 0.01167035 -0.003267578 -0.051552743
0.05718941 0.03345536 0.026003895 0.09665005 0.055047177 0.091538094 0.14484802 -0.03194157
0.07732528 -0.03495014 -0.067609176 -0.17410055 -0.01884491 -0.041979775 -0.059739206 0.01651011
0.06959193 -0.09264056 -0.16479062 -0.02742852 -0.0036080037 0.054469638 -0.1056908 -0.082942516
0.036496513 0.13994311 0.12818097 0.0016279502 0.05776359 -0.0053243986 0.079905674 -0.07980291
-0.031726748 0.1401349 0.0074594654 0.017725656 0.0042528943 0.06201162 -0.013054161 -0.08936815
0.023584018 -0.00885167 -0.020739567 0.02962573 -0.0922019 0.032200698 -0.0636678 0.10922515
-0.016400719 -0.21504438 0.019477224 0.072018445 0.042779863 0.030017655 -0.029446704 -0.062293198
0.05791972 -0.010401691 -0.0028221288 -0.010657721 -0.0244265 -0.033442333 -0.051189635 0.10565887
-0.0343517 -0.01947474 -0.01200657 -0.030028732 -0.0675117 -0.013015197 -0.19006863 0.051636938
-0.0042162696 0.014656833 -0.06557147 0.06362702 -0.018295335 0.038851134 0.10177945 0.019037217
-0.01593511 -0.001085856 0.062415574 -0.015651722 -0.107026465 0.07506855 -0.15857227 -0.123097174
0.063079275 0.043503374 0.021685043 -0.10682801 0.06828102 -0.09282619 -0.04602752 0.088845685
-0.05784259 0.03337088 -0.023947978 0.062801145 -0.03895099 0.02730442 -0.014592213 0.013339061

model.bias f4 [4]
00000000: 06e6 8e3d 51cf d63d 1210 a2bd 69c3 68bd
0.06977467 0.10488761 -0.079132214 -0.056826983
