kaggle_saved_models_full_8cores/LinearModel/LinearModel0/LinearModel0.ckpt (torch, 9319 bytes, 2 tensors)

model.weight f4 [3, 512]
00000000: d91c 3a3d b1a1 093d 95c6 dbbb 1e01 4f3d
00000010: b952 6cbb 0278 803c e357 26bc 3025 0b3d
00000020: f510 383d 1602 b3bc 331e 193d 6591 1e3c
00000030: fced 003d f0bf 5e3b cf9b a63c 860b d238
00000040: bc32 3a3d c841 f93b f9f4 dbbc 3283 693c
00000050: 924e 43bc a249 a139 32f3 88bc 0ab1 2f3d
00000060: ccce 0dbd f36c ddbc dda1 5fbb fa72 95bc
00000070: 3b26 da3b cef0 1ebd a721 3a3d 7242 1abd
00000080: 815c 0e3d 6cab 923c 6023 26bc 28c3 123d
00000090: b003 443c 627d 183d 0547 9b3b f9db 76bc
000000a0: ef91 4d3b b075 f1bb bbcf bd3c 4395 363d
000000b0: be58 003d e58e 83bc 53ab 663c bd2f 67bb
000000c0: c322 f23c f08f 94bc 33e8 1fbd 5bba 24bc
000000d0: 4b53 ddbc 15ec 253d 59ac 5b3c 6605 ba3c
000000e0: 81c1 5a3c 3f6e b4bb a61a 1a3d 7147 fdbc
000000f0: c975 1f3b 019b aebc f538 df3c 361c 3abc
00000100: f078 b83c 5209 89bb 7997 3c3d 8e34 87bc
00000110: 7257 a6bc b777 a9bc 94a4 533d 6093 b53c
00000120: 061f 513d 4c72 f0bc 3007 01bd d6ff e3bc
00000130: 377d 00bd f764 bf3c 79f9 013c f1b7 1c3d
00000140: 64ef cdbc b538 e7bc 4142 113d 8725 c3bc
00000150: 4006 0a3d 02be 3ebb 24af 0a3d bf04 d5bc
00000160: 4f77 8dbc fe19 493c 0a48 043a 08fc 05bc
00000170: 713a ff3c d499 b83c ee75 0bbd 8514 d0bc
00000180: 0991 333d edb9 f1bb fc31 48bc 8292 3bbd
00000190: 4f77 8cbc 65c4 763c 40fb 0abc c5e1 15bd
000001a0: a7df f1bb 9e1d b9bc 6087 25bd 8997 03bd
000001b0: cee2 22bd b791 07bd cfa8 463d 0dcf 9f3c
000001c0: 8845 053c 891f f2bc 9939 cabc 9600 58bc
000001d0: 5fb2 393c 7802 2fbd 815b 85bc 4ce5 debc
000001e0: 04db c93b 6868 79bc 712f d7bb a1b2 1abd
000001f0: 768e d3bc 4289 a6bc 71be 3fbc 35f8 01bd
00000200: 6682 0e3d dde2 9cba fdc9 313d 9c94 993c
00000210: ed8c efbc 615b aa3c 0f17 7abc 158e 86bc
00000220: fe88 1fbd 4fef 3ebd 6d63 a13c 15d2 1cbc
00000230: 9c20 903c 1d50 32bd 759b 0d3d 96c5 bebc
00000240: 2b5a 5dbc a5a5 6c3c f100 b73c 8e3f 393d
00000250: 6143 1e3d 54ab 36bd b980 8b3c 5db1 31bc
00000260: 5b21 a839 c5eb 06bd 0a4d 453d 36b7 debc
00000270: d6a3 df3c 6ec5 a33b 990c 3b3c 30cc acbc
00000280: 1c0c 2e3d 76c3 453c 539d 2c3c 77ff 20bd
00000290: c825 bb3c 859d c63b cb6c 6abc 2f0b 1d3d
000002a0: d1e2 4e3c 3756 9abc 0032 96bc 23e8 abbb
000002b0: f4f6 ff3c ae4c 6abc 094b bfbc 4594 88bb
000002c0: 68b8 dbbc b3ed c03c fd6a 293d 0e1b 0cbd
000002d0: 9413 9e3a 192a cb3c 3d2e 773c 191d cdbb
000002e0: a830 073d eaee 153d 8ba9 ad3c bbe7 603b
000002f0: ffc0 76bc a49d 03bb b840 d1ba a110 45bc
00000300: 7738 113d 3e9a d83c 858e 92bc fa58 043b
00000310: 46d0 ac3b e8b2 7d3b e892 f93b 1e3a 293c
00000320: 77c5 f3bc 9d80 babb e9d5 f43c f88f ae3c
00000330: 5415 fc3b 17e0 0abd ed51 20bd 6a20 28bd
00000340: e434 36bc e93a 373c 851e 183d 5924 c03c
00000350: 8116 1abd 569b 8bbc 60be 3cba faec 223d
00000360: 2851 633b 3e95 7abc 89f3 d43c 6455 5fbc
00000370: aa24 d9bc 0ed3 2f3d 3fcb adbc 586a a4bc
00000380: ad44 36bd cb8d 043d 5c4e 063d 2805 333c
00000390: 6056 abbc 0b89 18bd 726f c1bc 7f7c 393d
000003a0: c69e aa3c d941 433d ca02 6b3c 4310 903c
000003b0: c3d9 cfbb 5181 05bd 62ac eabc 0e27 39bd
000003c0: 654f 2e3c a653 52bc 6062 2ebc 2f00 d6bc
000003d0: 523a 36bc 0d7a 05bd 1d9c bdbc d74b 5a3c
000003e0: 02a8 5dbb 9449 dd3c 93fa 66bc 9ddb cabc
000003f0: f2f9 01bc d15a 8cbc 0e80 13bc 3014 11bd
0.045437668 0.033601467 -0.0067070224 0.050538175 -0.0036060049 0.015682224 -0.01015279 0.03397101
0.044938046 -0.02185158 0.037382316 0.009678219 0.03147696 0.0033988915 0.020337967 0.00010015727
0.04545854 0.0076067187 -0.02685021 0.014252471 -0.011920588 0.00030763174 -0.016717527 0.042893447
-0.034621045 -0.02702949 -0.0034123578 -0.018243302 0.0066573895 -0.038803868 0.04544225 -0.037661023
0.034756187 0.017904006 -0.01014027 0.035830647 0.01196377 0.03722895 0.004738691 -0.015067094
0.00313675 -0.007368766 0.023170343 0.04457594 0.03133463 -0.016059348 0.014078933 -0.0035276257
0.029557591 -0.018135041 -0.0390398 -0.010054196 -0.027017256 0.04050835 0.01340779 0.022707652
0.013351799 -0.0055063064 0.03762307 -0.030917855 0.002433168 -0.021314146 0.027248839 -0.011359265
0.022518605 -0.0041820193 0.046042893 -0.016504552 -0.020305369 -0.020686967 0.051670626 0.022165
0.051054977 -0.029351376 -0.031500995 -0.027831953 -0.031369414 0.023363573 0.007933014 0.038261358
-0.025138564 -0.028225282 0.035463575 -0.023821605 0.033697367 -0.0029104953 0.033858433 -0.02600324
-0.017268805 0.012274263 0.0005046135 -0.008177765 0.031155797 0.022534288 -0.034048013 -0.02540041
0.04383949 -0.0073769004 -0.012218948 -0.045794018 -0.017146735 0.015061473 -0.008482754 -0.036592264
-0.0073813978 -0.02259713 -0.040412307 -0.032126937 -0.03976708 -0.03309795 0.048500832 0.01950791
0.008134253 -0.029556053 -0.024685668 -0.013183733 0.011334031 -0.042726964 -0.016278984 -0.027208947
0.006160142 -0.015222646 -0.0065669348 -0.03776801 -0.025824767 -0.020329122 -0.01170312 -0.03173085
0.034792326 -0.0011969466 0.04340552 0.01874762 -0.029242003 0.020795526 -0.015264287 -0.016425172
-0.038949005 -0.04661494 0.01970073 -0.009571572 0.017593674 -0.043533433 0.034572084 -0.023287576
-0.013510267 0.01444379 0.022339316 0.045226626 0.038638476 -0.044596985 0.017029153 -0.010845509
0.0003206831 -0.03293969 0.048169173 -0.027186971 0.027299803 0.0049979007 0.011416578 -0.021093458
0.042492017 0.012070527 0.010535556 -0.03930613 0.022845164 0.0060612583 -0.014308165 0.038340744
0.012627319 -0.018839939 -0.018334389 -0.0052461787 0.031245686 -0.014300508 -0.02335121 -0.0041680657
-0.02682133 0.023550844 0.041361798 -0.03420549 0.0012060278 0.024800347 0.015086708 -0.006259572
0.033005387 0.0366048 0.021199008 0.003431781 -0.015060662 -0.0020082975 -0.0015964722 -0.01202789
0.03545424 0.026440736 -0.017890224 0.0020194636 0.0052738516 0.0038711373 0.0076163895 0.010328798
-0.029757245 -0.0056916014 0.029887157 0.021308884 0.007692972 -0.033905115 -0.03914063 -0.041046537
-0.011121009 0.011183479 0.03713848 0.023454832 -0.037619118 -0.017041843 -0.0007199999 0.03977678
0.0034685824 -0.015294371 0.025995033 -0.013631199 -0.02650674 0.042925887 -0.02121508 -0.02007024
-0.044499088 0.032361787 0.032789573 0.010926522 -0.02091521 -0.03724007 -0.023612712 0.045284744
0.020827662 0.04767022 0.014343927 0.01758588 -0.006343098 -0.03259403 -0.028646652 -0.04520326
0.010639046 -0.012837326 -0.010643572 -0.026123134 -0.011122303 -0.0325871 -0.02314573 0.013323746
-0.0033822064 0.027012624 -0.0140978275 -0.024762923 -0.007933127 -0.017133148 -0.009002699 -0.035419643

model.bias f4 [3]
00000000: 56c4 0e3c 06e5 79bc a8dd ccbc
0.008713802 -0.015252357 -0.025008038
