dr_saved_models/LinearModel/LinearModel2/LinearModel2-v4.ckpt (torch, 7271 bytes, 2 tensors)

model.weight f4 [2, 512]
0.03825345 0.041544 -0.0059687286 0.04529199 -0.0042261323 0.01423197 -0.018586144 0.030080417
0.04192013 -0.028319465 0.042837393 0.013223883 0.03647964 0.009810213 0.02575545 -0.0013132745
0.038792837 0.010409593 -0.015627567 0.015469065 -0.017685384 -0.0010830645 -0.013791231 0.034339957
-0.031012278 -0.0154682025 -0.0077982047 -0.021408005 0.008550133 -0.039443947 0.04539559 -0.03331042
0.037501592 0.012538678 -0.0095581515 0.031631555 0.011377785 0.040177334 0.009815352 -0.009126744
0.014890932 -0.007197892 0.023856288 0.043693267 0.030042171 -0.015137827 0.030451626 0.012264435
0.026182415 -0.022032142 -0.03953779 -0.011898662 -0.028887158 0.040255424 0.017802512 0.022823201
0.018384315 0.0030489035 0.039250277 -0.027520528 0.0080135865 -0.025112586 0.018179132 -0.010506558
0.018351026 -0.0059670894 0.041993134 -0.023118462 -0.022571074 -0.021737976 0.044478305 0.01997397
0.046704743 -0.03184279 -0.039916076 -0.030395005 -0.025500095 0.02263301 0.019051433 0.041514624
-0.017320924 -0.025949506 0.02810552 -0.0142560005 0.031410664 -0.006103984 0.030223472 -0.02994465
-0.018521221 0.018260233 0.012568149 -0.006420301 0.031353697 0.034199886 -0.026938561 -0.018633483
0.045256544 -0.009191983 -0.012206589 -0.037649482 -0.021670084 0.014286661 -0.0008926507 -0.02815884
0.006117038 -0.025993915 -0.03419277 -0.019423898 -0.033798862 -0.023287276 0.0494117 0.011307221
0.016553694 -0.037585326 -0.026661811 -0.01030364 0.012331648 -0.035660468 -0.014324089 -0.021471968
0.0057079913 -0.011699411 0.0019380462 -0.024738658 -0.025938114 -0.020163257 -0.010452513 -0.030344719
0.04233858 -0.0038158617 0.043122604 0.018390892 -0.033223916 0.036351394 -0.008831294 -0.012456795
-0.03285812 -0.038472988 0.016945211 -0.005773843 0.022246264 -0.032830305 0.038247686 -0.028081486
-0.0030076127 0.014250377 0.027700923 0.040540453 0.044948965 -0.031256944 0.015904497 -0.013906888
0.00046189904 -0.027802838 0.04446532 -0.027555594 0.028311685 0.019138189 0.019585308 -0.019182447
0.045342088 0.013612326 0.008474157 -0.034359302 0.022763386 -0.0019121321 -0.015234052 0.042857394
0.015049089 -0.020022884 -0.018111793 0.0009348332 0.029351486 -0.0065988563 -0.0198846 -0.0110454755
-0.028398864 0.020738194 0.038614847 -0.036888864 0.014945345 0.026792506 0.012942968 -0.010677033
0.028194513 0.027471518 0.02116809 -0.0027548696 -0.0070959134 0.008726704 -0.003540585 -0.008521389
0.032122254 0.042393122 -0.0002478864 -0.00573393 0.0039779847 0.0018637053 0.014826509 0.016711166
-0.034714192 -0.011989485 0.040183138 0.021979949 0.0013688011 -0.021677384 -0.022419296 -0.03635963
-0.009874772 0.019531023 0.032865513 0.025781846 -0.034223456 -0.022115638 -0.003108559 0.04619042
0.010847952 -0.0067196307 0.023465572 -0.011339801 -0.023303077 0.036229245 -0.016953887 -0.0044883257
-0.038884114 0.034370456 0.036887284 0.020809708 -0.025972353 -0.038736433 -0.03200184 0.035939682
0.026054684 0.04186912 0.0277203 0.0140677085 0.005288212 -0.028899208 -0.033415187 -0.03641708
0.022061434 -0.0169595 -0.0059603145 -0.02033444 -0.005156801 -0.02611478 -0.02465604 0.018756032
-0.008287462 0.032296874 -0.009949455 -0.027445469 -0.0036926966 -0.016384698 -0.008653143 -0.03862723
00000000: a6af 1c3d 0b2a 2a3d 5395 c3bb 1884 393d
00000010: 5e7b 8abb 352d 693c f841 98bc 356b f63c
00000020: 71b4 2b3d 39fe e7bc 4376 2f3d fca8 583c
00000030: ad6b 153d 04bb 203c 18fd d23c 2e22 acba
00000040: 3de5 1e3d ff8c 2a3c 6205 80bc f671 7d3c
00000050: f0e0 90bc 9df5 8dba 9ef4 61bc 0ea8 0c3d
00000060: 760d febc 586e 7dbc 1588 ffbb d75f afbc
00000070: db15 0c3c fa8f 21bd baf0 393d 8270 08bd
00000080: 459b 193d 076f 4d3c cb99 1cbc 1790 013d
00000090: e469 3a3c fd90 243d 92d0 203c 5788 15bc
000000a0: 18f9 733c 4bdc ebbb 436e c33c b6f7 323d
000000b0: 001b f63c a604 78bc b075 f93c c5f0 483c
000000c0: 817c d63c c07c b4bc 61f2 21bd 9bf2 42bc
000000d0: c3a4 ecbc dfe2 243d 93d6 913c b9f7 ba3c
000000e0: b49a 963c 1dd0 473b e6c4 203d bb72 e1bc
000000f0: 6b4b 033c e9b8 cdbc 67ec 943c b323 2cbc
00000100: e454 963c 9387 c3bb fe00 2c3d ee62 bdbc
00000110: f9e6 b8bc d713 b2bc e22e 363d 73a0 a33c
00000120: 794d 3f3d 966d 02bd 0a7f 23bd f2fe f8bc
00000130: 93e5 d0bc dd68 b93c c011 9c3c 3d0b 2a3d
00000140: 9ce4 8dbc 0f94 d4bc 8c3d e63c 0092 69bc
00000150: 78a8 003d ee03 c8bb 3797 f73c 7c4e f5bc
00000160: d1b9 97bc 7c96 953c a3ea 4d3c 6361 d2bb
00000170: bc6c 003d 2e15 0c3d 42ae dcbc 3fa5 98bc
00000180: ed5e 393d f999 16bc 25fe 47bc 5836 1abd
00000190: 7685 b1bc 9912 6a3c c600 6aba 5ead e6bc
000001a0: 6f71 c83b 31f1 d4bc b80d 0cbd de1e 9fbc
000001b0: ad70 0abd f5c4 bebc ec63 4a3d ec41 393c
000001c0: 9d9b 873c 12f3 19bd df69 dabc 99d0 28bc
000001d0: ae0a 4a3c b610 12bd 95af 6abc fbe5 afbc
000001e0: 1a0a bb3b e3ae 3fbc 0a06 fe3a baa8 cabc
000001f0: 2b7c d4bc 6a2d a5bc 0441 2bbc 7d95 f8bc
00000200: 386b 2d3d 8913 7abb 54a1 303d 7fa8 963c
00000210: cd15 08bd 33e5 143d 22b1 10bc 9617 4cbc
00000220: 3c96 06bd da95 1dbd afd0 8a3c 8132 bdbb
00000230: cc3d b63c 1279 06bd 9ba9 1c3d 250b e6bc
00000240: 5e1b 45bb 6a7a 693c 0ced e23c bf0d 263d
00000250: 681c 383d 4807 00bd 264a 823c b7d9 63bc
00000260: 0a2b f239 c7c2 e3bc 4421 363d 45bc e1bc
00000270: e8ed e73c b1c7 9c3c 5e71 a03c 8224 9dbc
00000280: a0b8 393d 3c06 5f3c 31d7 0a3c 57bc 0cbd
00000290: 487a ba3c 82a0 faba 3f98 79bc 3c8b 2f3d
000002a0: 7490 763c 0807 a4bc 2f5f 94bc 980f 753a
000002b0: 8772 f03c 383b d8bb 07e5 a2bc 15f8 34bc
000002c0: bca4 e8bc 25e3 a93c 9a2a 1e3d c718 17bd
000002d0: 52dd 743c f57b db3c be0e 543c b9ee 2ebc
000002e0: 2ef8 e63c f30b e13c b468 ad3c 0b8b 34bb
000002f0: d684 e8bb 73fa 0e3c 2909 68bb 4c9d 0bbc
00000300: a092 033d 69a4 2d3d c0f6 81b9 b1e3 bbbb
00000310: c159 823b 9347 f43a e3ea 723c dbe5 883c
00000320: 7830 0ebd 8b6f 44bc 1397 243d 4b0f b43c
00000330: 5869 b33a c594 b1bc aca8 b7bc d6ed 14bd
00000340: ccc9 21bc 86ff 9f3c fd9d 063d 7334 d33c
00000350: e52d 0cbd db2b b5bc f7b8 4bbb 2a32 3d3d
00000360: 9cbb 313c 5930 dcbb df3a c03c 93ca 39bc
00000370: 18e6 bebc 1e65 143d e1e2 8abc ce12 93bb
00000380: f344 1fbd 09c8 0c3d 1f17 173d 1f79 aa3c
00000390: f9c3 d4bc 18aa 1ebd 5d14 03bd 7d35 133d
000003a0: a270 d53c f47e 2b3d af15 e33c 3f7c 663c
000003b0: bd48 ad3b 08be ecbc 5dde 08bd 132a 15bd
000003c0: 2eba b43c a6ee 8abc be4e c3bb 6994 a6bc
000003d0: 62fa a8bb aaee d5bc 77fb c9bc 40a6 993c
000003e0: 23c8 07bc ba49 043d 0a03 23bc 52d5 e0bc
000003f0: 2b01 72bb 3439 86bc eac5 0dbc 9637 1ebd

model.bias f4 [2]
0.029214973 -0.01119877
00000000: 3d54 ef3c 0c7b 37bc
