dr_saved_models/LinearModel/LinearModel2/LinearModel2-v3.ckpt (torch, 7271 bytes, 2 tensors)

model.weight f4 [2, 512]
0.036590535 0.0429384 -0.007672858 0.04247979 -0.00537173 0.014751873 -0.023073828 0.02950724
0.03804736 -0.028550763 0.043947868 0.01397923 0.035477817 0.007517265 0.022946898 -0.003562303
0.03855398 0.009121593 -0.0143913375 0.0117957145 -0.022330595 -0.0015553173 -0.013841256 0.03683487
-0.034304064 -0.012705143 -0.006028163 -0.019941557 0.010461846 -0.039193522 0.04884049 -0.03607777
0.034574512 0.013116789 -0.0065375404 0.032590784 0.013651007 0.036522985 0.011830294 -0.006862541
0.010488861 -0.0067835012 0.023772331 0.042129528 0.032123737 -0.015243547 0.030560758 0.009240072
0.02454482 -0.02252831 -0.038905308 -0.0129848635 -0.031141838 0.035974473 0.020072648 0.02300413
0.018289223 0.0019973826 0.03716761 -0.02630665 0.010738731 -0.022023965 0.018416982 -0.0077448925
0.020645512 -0.010677652 0.04260177 -0.02673812 -0.02427683 -0.023781803 0.04151674 0.020441035
0.046630967 -0.030185625 -0.04242785 -0.030704042 -0.02518655 0.024704756 0.015944894 0.0417298
-0.015112604 -0.02602179 0.029099064 -0.01860309 0.029220203 -0.0043608863 0.03298434 -0.029634908
-0.020512883 0.015984854 0.00928046 -0.008810722 0.03380874 0.032920934 -0.026236089 -0.017179053
0.043767206 -0.0063940734 -0.0151916575 -0.036003593 -0.023374757 0.011018354 -0.0023985752 -0.031267952
0.009268334 -0.02470178 -0.037533414 -0.01756621 -0.031720098 -0.02269893 0.049135666 0.0064949
0.01210588 -0.03977578 -0.031858884 -0.010118245 0.014815171 -0.038891483 -0.017450055 -0.018542241
0.0072469003 -0.013010768 -0.0006653064 -0.026529215 -0.029736053 -0.018933808 -0.008892766 -0.034531698
0.042686764 -0.0019621907 0.047593754 0.02010326 -0.03222375 0.038001057 -0.010477911 -0.010934521
-0.034744907 -0.03889864 0.016976988 -0.008537845 0.02459519 -0.035356555 0.039360248 -0.026955506
-0.0059496625 0.011091509 0.030692596 0.040133283 0.04259575 -0.032009333 0.016661836 -0.011555168
0.0030867127 -0.024213832 0.045479912 -0.027117696 0.024273772 0.017435804 0.01952468 -0.017219912
0.047972437 0.011750063 0.0039409753 -0.032109976 0.018870465 -0.00041856212 -0.0184419 0.0420416
0.017037963 -0.023360645 -0.018227104 -0.0030701247 0.026788147 -0.009985808 -0.019607909 -0.011229416
-0.026639132 0.020650191 0.039212298 -0.03493937 0.016210243 0.02499627 0.0118868705 -0.009693512
0.0280124 0.028427273 0.020840645 -0.0049108607 -0.006102479 0.0071404083 -0.0063605723 -0.0069564795
0.031164926 0.04126845 0.00038388974 -0.00779079 0.0005827214 0.0028968465 0.014877176 0.017328305
-0.03309002 -0.011903065 0.03678093 0.024670852 -0.0020864569 -0.019822994 -0.020521149 -0.03955138
-0.013501746 0.015595947 0.034671497 0.026683189 -0.036677647 -0.021340339 -0.0042508477 0.042087264
0.01213878 -0.010013182 0.024971424 -0.007965854 -0.022391953 0.035519045 -0.020185692 -0.003944192
-0.03684434 0.03668434 0.033768967 0.022170473 -0.028999556 -0.03607929 -0.032556016 0.032589708
0.02768686 0.043298464 0.028633105 0.010229418 0.007470285 -0.02778115 -0.037522793 -0.034391604
0.021676708 -0.015258442 -0.009856342 -0.021527192 -0.00968579 -0.02421197 -0.02861663 0.01831818
-0.010160202 0.034082856 -0.011295252 -0.025467258 -0.003691796 -0.01447157 -0.0051702806 -0.041282743
00000000: f5df 153d 2de0 2f3d 996c fbbb 4aff 2d3d
00000010: 5605 b0bb d7b1 713c 5305 bdbc 2bb9 f13c
00000020: 8cd7 1b3d 4ae3 e9bc ae02 343d 2409 653c
00000030: 3051 113d 6453 f63b 22fb bb3c 8775 69bb
00000040: c7ea 1d3d bc72 153c a5c9 6bbc d042 413c
00000050: a7ee b6bc cadb cbba 6fc6 62bc 29e0 163d
00000060: 6b82 0cbd 3b29 50bc e587 c5bb 7a5c a3bc
00000070: 2a68 2b3c 6389 20bd f70c 483d 49c6 13bd
00000080: 019e 0d3d cde7 563c dd38 d6bb ea7d 053d
00000090: 79a8 5f3c 2099 153d d9d3 413c 2bdf e0bb
000000a0: 79d9 2b3c 2248 debb 31be c23c 0390 2c3d
000000b0: 2e94 033d 12c0 79bc 8e5a fa3c ac63 173c
000000c0: 3812 c93c 4a8d b8bc 2c5b 1fbd 77be 54bc
000000d0: 2b1d ffbc f859 133d 656f a43c 2873 bc3c
000000e0: 48d3 953c 85e6 023b 103d 183d 0b81 d7bc
000000f0: 81f1 2f3c 9a6b b4bc 36df 963c dec8 fdbb
00000100: c720 a93c 52f1 2ebc 327f 2e3d e709 dbbc
00000110: 34e0 c6bc 0ed2 c2bc 750d 2a3d f573 a73c
00000120: 1d00 3f3d d847 f7bc d3c8 2dbd 0b87 fbbc
00000130: 0654 cebc a161 ca3c de9e 823c deec 2a3d
00000140: db9a 77bc a62b d5bc 2961 ee3c 8265 98bc
00000150: 355f ef3c c4e5 8ebb 961a 073d e8c4 f2bc
00000160: a20a a8bc abf2 823c 120d 183c d95a 10bc
00000170: 097b 0a3d 1ad8 063d 11ed d6bc 16bb 8cbc
00000180: 3e45 333d 6085 d1bb 6ee6 78bc 8178 13bd
00000190: 6b7c bfbc 5486 343c 6a31 1dbb d312 00bd
000001a0: 36da 173c 635b cabc a3bc 19bd 03e7 8fbc
000001b0: efec 01bd 1bf3 b9bc 7b42 493d 2cd3 d43b
000001c0: be57 463c eeeb 22bd 767e 02bd ffc6 25bc
000001d0: 55bb 723c ad4c 1fbd 6bf3 8ebc e6e5 97bc
000001e0: 6877 ed3b 1e2b 55bc f567 2eba cc53 d9bc
000001f0: 0699 f3bc 131b 9bbc f7b2 11bc 1c71 0dbd
00000200: 51d8 2e3d 1998 00bb abf1 423d 98af a43c
00000210: 0dfd 03bd ffa6 1b3d 8bab 2bbc b526 33bc
00000220: ad50 0ebd 2e54 1fbd 5313 8b3c 51e2 0bbc
00000230: da7b c93c 09d2 10bd 3638 213d cbd1 dcbc
00000240: 63f5 c2bb 29b9 353c 0a6f fb3c cc62 243d
00000250: e278 2e3d 381c 03bd 677e 883c e351 3dbc
00000260: 724a 4a3b 165c c6bc 2549 3a3d ee25 debc
00000270: cad9 c63c 88d5 8e3c 39f2 9f3c c610 8dbc
00000280: bf7e 443d 5683 403c 4c23 813b c085 03bd
00000290: 3c96 9a3c 7572 dbb9 7813 97bc d033 2c3d
000002a0: 3393 8b3c d35e bfbc 0251 95bc 2534 49bb
000002b0: d172 db3c 849b 23bc c4a0 a0bc 96fb 37bc
000002c0: 4f3a dabc 972a a93c 139d 203d 961c 0fbd
000002d0: 58cb 843c fac4 cc3c 26c1 423c 89d1 1ebc
000002e0: 437a e53c 50e0 e83c 00ba aa3c 49eb a0bb
000002f0: 4ef7 c7bb 16fa e93b 596c d0bb 2ef3 e3bb
00000300: 964d ff3c 1b09 293d cf44 c939 e249 ffbb
00000310: c5c1 183a 05d9 3d3b 66bf 733c 17f4 8d3c
00000320: 6789 07bd 1305 43bc 9aa7 163d 871a ca3c
00000330: f0bc 08bb d563 a2bc f81b a8bc a100 22bd
00000340: 6d36 5dbc 2586 7f3c b303 0e3d b496 da3c
00000350: 4d3b 16bd efd1 aebc b24a 8bbb b263 2c3d
00000360: bce1 463c 540e 24bc df90 cc3c 3783 02bc
00000370: 546f b7bc 6b7c 113d 775c a5bc 483e 81bb
00000380: 17ea 16bd 5242 163d 5451 0a3d da9e b53c
00000390: 7a90 edbc e1c7 13bd 7559 05bd c97c 053d
000003a0: 8ecf e23c bb59 313d f98f ea3c 4a99 273c
000003b0: 4bc9 f43b 4b95 e3bc 80b1 19bd 36de 0cbd
000003c0: 5a93 b13c 8bfe 79bc 7f7c 21bc cb59 b0bc
000003d0: 26b1 1ebc 2e58 c6bc 6c6d eabc 0210 963c
000003e0: fa76 26bc 779a 0b3d b80f 39bc b6a0 d0bc
000003f0: 0ff2 71bb 2a1a 6dbc 756b a9bb 1818 29bd

model.bias f4 [2]
0.029551877 -0.011536157
00000000: c716 f23c 2602 3dbc
