dr_saved_models/LinearModel/LinearModel2/LinearModel2-v2.ckpt (torch, 7271 bytes, 2 tensors)

model.weight f4 [2, 512]
0	0x3d0a294c	0.03373079
1	0x3d34b98a	0.044122256
2	0xbb7b17c2	-0.0038313721
3	0x3d2d563a	0.04231856
4	0xbbc251d3	-0.0059301644
5	0x3c800a24	0.015629835
6	0xbcd3f15a	-0.025871921
7	0x3cdc86d2	0.026919756
8	0x3d13c73d	0.03607868
9	0xbcf5cb16	-0.030004065
10	0x3d3301bc	0.043702826
11	0x3c788a01	0.015169621
12	0x3d0d38e1	0.034478072
13	0x3b9947e5	0.00467776
14	0x3cd19324	0.025582857
15	0xbb8c7e92	-0.0042875493
16	0x3d18bcef	0.037289556
17	0x3bf45fa7	0.0074576917
18	0xbc58dbf5	-0.013236036
19	0x3c3e7b5f	0.011626094
20	0xbcc1f24c	-0.023675106
21	0xbb6d977a	-0.0036253617
22	0xbc5bb504	-0.013409857
23	0x3d220dee	0.039564066
24	0xbd17312f	-0.03691214
25	0xbbcd1456	-0.0062585277
26	0xbbbd5ce3	-0.005778895
27	0xbc913bc0	-0.017728686
28	0x3c5869b8	0.013208799
29	0xbd24e27c	-0.040255055
30	0x3d593787	0.05303147
31	0xbd1c0869	-0.038093958
32	0x3d06ca30	0.032907665
33	0x3c6e155e	0.0145314615
34	0xbb44dc80	-0.0030038655
35	0x3d09f112	0.03367717
36	0x3c828982	0.01593471
37	0x3d0b5b2b	0.03402249
38	0x3c500bcf	0.012698128
39	0xbb77dce1	-0.0037820863
40	0x3c0c8843	0.008577409
41	0xbbbc5d96	-0.005748461
42	0x3cbe938d	0.023263717
43	0x3d23cae9	0.039988432
44	0x3d0dd17a	0.0346236
45	0xbc8ba9d8	-0.017048761
46	0x3cf3b658	0.029750034
47	0x3be45836	0.0069685234
48	0x3cba5ae2	0.022748414
49	0xbcaf08f4	-0.021366574
50	0xbd231ac8	-0.039820462
51	0xbc69a1d9	-0.014259779
52	0xbd014df1	-0.03156847
53	0x3d135828	0.035972744
54	0x3cbc8838	0.023014173
55	0x3cb806c3	0.022464162
56	0x3c8db49d	0.017298037
57	0x39bc86ff	0.00035958734
58	0x3d1fb9ec	0.03899567
59	0xbccbf679	-0.0248978
60	0x3c5eeeec	0.013606768
61	0xbc804868	-0.015659526
62	0x3c93d46a	0.018045623
63	0xbb940b37	-0.0045179385
64	0x3cb658cd	0.02225914
65	0xbc61a235	-0.013771583
66	0x3d27d8fc	0.040978417
67	0xbcebd45c	-0.028787784
68	0xbcd0ac30	-0.02547273
69	0xbcd724c8	-0.026262656
70	0x3d1e992c	0.038720295
71	0x3cabb760	0.020961463
72	0x3d3d6fce	0.046249203
73	0xbcee0757	-0.029056234
74	0xbd3bb87a	-0.045830227
75	0xbd047f4a	-0.032347955
76	0xbcd6f7be	-0.02624118
77	0x3ce0b0b7	0.027428014
78	0x3c55b2cb	0.013043116
79	0x3d2d4dbc	0.04231046
80	0xbc4eab32	-0.012614058
81	0xbcd011b2	-0.025399063
82	0x3cfc0a6c	0.030766688
83	0xbcb335fb	-0.021876326
84	0x3d035fe1	0.03207386
85	0xbb2fd40b	-0.0026829268
86	0x3d156fd7	0.036483612
87	0xbcf4f790	-0.029903203
88	0xbca60f9e	-0.020271119
89	0x3c7db4b0	0.015484974
90	0x3be1c8ac	0.006890377
91	0xbc2ecca5	-0.010668908
92	0x3d13e10e	0.0361033
93	0x3d01f16e	0.031724386
94	0xbcb41ce5	-0.021986434
95	0xbc80a6d8	-0.015704557
96	0x3d2b149b	0.041767698
97	0xbb7a257d	-0.0038169317
98	0xbc95de35	-0.018294433
99	0xbd0df3ee	-0.034656458
100	0xbcc2c6a0	-0.023776352
101	0x3c14d535	0.009084036
102	0xbb1e7cad	-0.00241832
103	0xbd01d2b5	-0.031695087
104	0x3c4e1dd3	0.012580353
105	0xbcbc8470	-0.02301237
106	0xbd27551b	-0.040852647
107	0xbc856d62	-0.01628751
108	0xbcfe1209	-0.03101446
109	0xbcc070de	-0.02349132
110	0x3d51d15a	0.051225044
111	0x3b416bd6	0.0029513738
112	0x3c1c93d6	0.009556731
113	0xbd2d2d57	-0.042279568
114	0xbd0b8860	-0.034065604
115	0xbc3f908c	-0.0116921775
116	0x3c8defa0	0.017326176
117	0xbd25fb51	-0.040522877
118	0xbc8b7572	-0.017023776
119	0xbc5ff548	-0.013669319
120	0x3bfa328f	0.0076354216
121	0xbc05a145	-0.008156125
122	0xb9d0f8e3	-0.00039858287
123	0xbcd6bb26	-0.026212286
124	0xbcf59cdd	-0.029982025
125	0xbc76e6a9	-0.015069642
126	0xbbd868c4	-0.006604286
127	0xbd1244a7	-0.035710003
128	0x3d424959	0.04743323
129	0x3b320c7c	0.0027168086
130	0x3d5d781e	0.05406963
131	0x3cb44cbe	0.02200925
132	0xbcffeda0	-0.031241238
133	0x3d259dda	0.040433742
134	0xbc41f8b5	-0.0118390815
135	0xbc2cb97e	-0.010542272
136	0xbd106079	-0.035248253
137	0xbd1b1fc3	-0.037872087
138	0x3c755134	0.014972974
139	0xbc22c942	-0.009935679
140	0x3cd97ba2	0.02654821
141	0xbd1aaebd	-0.0377643
142	0x3d2505c8	0.040288717
143	0xbcdbeac8	-0.02684535
144	0xbc23665e	-0.009973137
145	0x3c1974ac	0.009366196
146	0x3d0c8d2c	0.03431432
147	0x3d22e27c	0.039766774
148	0x3d306fa2	0.04307521
149	0xbd08b73e	-0.03337788
150	0x3c87927f	0.016549347
151	0xbc16f725	-0.009214197
152	0x3bb56437	0.005535628
153	0xbca7115a	-0.020394016
154	0x3d3d5164	0.0462202
155	0xbcdc2c48	-0.026876584
156	0x3cb6e013	0.022323644
157	0x3c84ad08	0.016195789
158	0x3c9899d9	0.018628048
159	0xbc719aca	-0.014746377
160	0x3d5de808	0.05417636
161	0x3c1c0717	0.009523175
162	0x3aeeeb86	0.001822815
163	0xbcf4ee56	-0.029898804
164	0x3c969ba5	0.018384764
165	0xba0f14d5	-0.00054581213
166	0xbca41508	-0.02002956
167	0x3d356c8c	0.04429297
168	0x3ca6d06b	0.020363053
169	0xbcc57573	-0.024103856
170	0xbc9fb067	-0.019493295
171	0xbbbb7163	-0.005720304
172	0x3ce976ef	0.028499095
173	0xbc3d0348	-0.011536427
174	0xbc8a7b7e	-0.016904589
175	0xbc4f4c4c	-0.012652468
176	0xbcc3ba71	-0.023892613
177	0x3cad55dc	0.021159105
178	0x3d2226df	0.03958785
179	0xbd0daa48	-0.03458622
180	0x3c86c342	0.016450528
181	0x3cc18db4	0.02362714
182	0x3c341af7	0.010992757
183	0xbc16be2c	-0.009200614
184	0x3ce9d834	0.028545476
185	0x3cf5588d	0.02994945
186	0x3c9b1761	0.018932046
187	0xbbb6d042	-0.0055790255
188	0xbbbb4167	-0.0057145837
189	0x3b92f634	0.004484916
190	0xbb4f83b7	-0.0031664202
191	0xbbf28a29	-0.007401724
192	0x3cf1ab61	0.029500665
193	0x3d3339da	0.043756343
194	0x3a54915f	0.000810882
195	0xbbcb11d1	-0.0061971922
196	0xbb00a69a	-0.0019630552
197	0x3b38dad4	0.0028206604
198	0x3c626594	0.013818163
199	0x3c880fca	0.016609091
200	0xbcea41bc	-0.028595798
201	0xbc49c226	-0.012314355
202	0x3d109a60	0.035303473
203	0x3ce50caa	0.02796014
204	0xbb8dd076	-0.004327829
205	0xbc9a9b8e	-0.018873002
206	0xbca21d27	-0.019789292
207	0xbd27f003	-0.041000377
208	0xbc7ad126	-0.015308654
209	0x3c856e05	0.016287813
210	0x3d17c4a1	0.037052754
211	0x3ce1ac85	0.027548084
212	0xbd18a9ad	-0.03727119
213	0xbcb8db69	-0.02256556
214	0xbbb1603b	-0.005413083
215	0x3d2736e0	0.040823817
216	0x3c55f1dd	0.013058153
217	0xbc35047d	-0.011048433
218	0x3cd0421b	0.025422147
219	0xbb7a2369	-0.0038168079
220	0xbcb8c24f	-0.022553591
221	0x3d0d35b8	0.03447506
222	0xbcb294c0	-0.021799445
223	0xbb387c52	-0.0028150273
224	0xbd01eea1	-0.031721715
225	0x3d22bcc4	0.039730802
226	0x3d07d3d8	0.033161014
227	0x3cb3c549	0.021944659
228	0xbcf77897	-0.030208869
229	0xbd02a3c1	-0.03189445
230	0xbd06d73e	-0.032920115
231	0x3cfe43e0	0.031038225
232	0x3cf5434e	0.02993932
233	0x3d32eb70	0.043681562
234	0x3ceebdc6	0.029143225
235	0x3c17c58a	0.009263406
236	0x3c1d35bc	0.009595331
237	0xbcd1e7af	-0.02562317
238	0xbd1ef97b	-0.038812142
239	0xbd040bb9	-0.032237742
240	0x3cae12fc	0.021249287
241	0xbc779608	-0.015111454
242	0xbc48fdb7	-0.012267522
243	0xbca51575	-0.020151833
244	0xbc47e9a3	-0.012201699
245	0xbcb83a83	-0.022488838
246	0xbcec43d1	-0.028840931
247	0x3c8e77a5	0.017391035
248	0xbc1c9442	-0.009556832
249	0x3d10e2f3	0.035372686
250	0xbc14aad2	-0.00907393
251	0xbcce6cea	-0.025198419
252	0x39b3e001	0.00034308436
253	0xbc443261	-0.011974902
254	0xba55d75a	-0.0008157395
255	0xbd318ecc	-0.043349072

model.bias f4 [2]
0	0x3cef48fb	0.029209604
1	0xbc376abb	-0.01119488
