kaggle_saved_models_balanced/LinearModel/LinearModel3/LinearModel3.ckpt (torch, 9319 bytes, 2 tensors)

model.weight f4 [3, 512]
00000000: 0394 c43c 92f7 f73c 26fe 5cbd 533f c53d
00000010: 91a0 ef3c 537d 73bd 7a42 00bd 0bae 0d3c
00000020: 12a8 4a3d 9f96 33bd a7b8 1c3d de14 2c3d
00000030: 307e bcbd 23e8 0d38 14ef 183d 51ff 4dbd
00000040: 23ed 2e3c a45a 853c e8c1 473d 46c4 45bd
00000050: 0e89 26bd 7479 393d 542f 333c f610 9cbc
00000060: 3756 adbc e309 a3bc cd78 b7bd c03f d5bb
00000070: 5e22 a03c 3ae6 67bd 82ba 6d3d bbcd de3c
00000080: 4cf0 923c 40d9 d9bc 598c 05bd 366c 57bc
00000090: d2e5 17bc 536c fc3b 43ac 8e3d 577b 04bd
000000a0: b918 1fbd 391b cebc 000c 04bd 508e 793d
000000b0: 619d d13c 6b41 233c 9176 b03c dd97 dcbb
000000c0: 9328 703d 2914 58bd b574 1abd 56ec 8fbc
000000d0: 3b75 5d3c 733e 3bbc f2a9 a43d 6c48 76bb
000000e0: 19a8 1b3d aee5 1fbd 0f25 d93c f352 973d
000000f0: a619 ee3c 12cf adbd 75db a7bc de65 1bbd
00000100: 2dba afbc 7506 c73c 2e01 173d 140b ef3c
00000110: 7a32 033c a7e7 ee3c 2334 9a3d e4ef 333d
00000120: 2b2e a53c 1030 c9bb d575 16bb ae71 8cba
00000130: ba00 963a ec4c 6b3c 7175 f6bb 25bf 2f3c
00000140: 469f 2dbc fef0 2f3c c08b 913d 2d36 12bc
00000150: bf1f 413d 09fc 5f3d d48a f93c 189b 06bd
00000160: 90de 42bd 4a75 54bd c9a1 d83c fff2 173c
00000170: 2393 0e3d 7149 9b3c bab2 50bc bbfd ef3b
00000180: f297 053d 4eac 60bd 26cd 463d 0699 89bc
00000190: 36b7 413d f9d0 8abc 0ea0 49bd f18e 083b
000001a0: 8645 593c a754 47bd 813e afbd 9791 1dbd
000001b0: 6c48 a9bc 788e 6d3c 86da 4d3b 7f5b a83c
000001c0: 7745 c7bc 3637 83bd cbdc 40bd aa2c b63a
000001d0: 5093 97bc 1c19 b6bd 790e 2bbd c079 a03d
000001e0: 13c4 04be 56ab 71bd 7b3a 053d f810 85bd
000001f0: c77e 183d f857 bbbd c267 69bd 1427 1bbc
00000200: d068 66bc 79ad afbd 128a 8cbc 1afd 0c3d
00000210: f4b4 30bd 6870 3d3d fad2 a5b9 852e cabd
00000220: cbc1 73bd 2113 45bd e4d3 553d 9307 9d3d
00000230: 8d49 eebc 5fe4 253c 8a57 463c bc95 b5bc
00000240: 19ba 1a3a f52b b6bc d90c 07ba 7e32 9ebb
00000250: c962 d23c 0cce 9cbd 9194 4b3d 3648 96bc
00000260: 0222 aabc 05e8 deba 681f 793d 1488 52bc
00000270: ac4c cc3a e258 b53c 99c5 a13c 304e a5bd
00000280: d953 ab3c 340e 0d3d 43de 293b 9ded 0f3d
00000290: b0e0 aa3c 4210 573d ff04 3fbd a755 a13d
000002a0: a734 2c3b 4d2a 77bb cfed 79bc 66dc 15bd
000002b0: dfc0 733c a44f a83c 5103 9abb e612 4cbd
000002c0: bab7 c3bc 685b 3b3d 86ea b43c 7118 c73c
000002d0: bc15 e53c 6844 b43c 3a5c fc3a a1a4 683c
000002e0: c6db fabb 1c34 563d 9201 803d b378 bbbb
000002f0: 6d25 1e3b ec6b 92bb ea61 823c 8727 46bc
00000300: d41f eb3c 0cbc 313d 9a7d 2a3d ac21 abbd
00000310: 5f41 ed3c dff2 7b3c 3065 763d 694a 373c
00000320: c88c b6bc 7f9a 93bc 353b 4a3c 63b0 bfbb
00000330: 32f4 033d 4d14 38bc 82b0 f8bc c346 f43c
00000340: 909b 07bc d519 fc3c 7d2c 893c c16f b3bc
00000350: d5eb 81bc b392 39bd 16eb aa3c fc86 493d
00000360: 339c 0c3d eabf 8bbd 5eec a23d 30a0 223b
00000370: c200 9aba 9f91 4f3d 5ab3 e6bc d8e5 b13a
00000380: 8c85 c9bd 4c99 9c3c 99fb b4ba 2218 61bb
00000390: ecc5 f3ba df54 18bc d2da 24bd dc49 b33c
000003a0: 6a35 68bd c9e8 043d fa9d adbd 15e8 16bd
000003b0: d9ab 71bd 337b 943c a899 4ebc 406a 0dbd
000003c0: 38df 323c a105 7ebd a55e ba3c d362 c33b
000003d0: 8488 133c 1dbd 6f3b b130 fe3c 5de6 01bc
000003e0: 41ff 89bd 9df2 ccbc 4d4b 1cbc 59ef 7c3d
000003f0: 788e 3abd 3b87 64bd 8cf0 8bbc 11e9 0bbd
0.023996359 0.030269418 -0.053953312 0.09631219 0.029251369 -0.05944569 -0.031313397 0.008647452
0.04947669 -0.043844815 0.038262036 0.042012088 -0.09203756 3.3833214e-05 0.037337378 -0.050292317
0.010676655 0.016278572 0.048768908 -0.048282884 -0.04065805 0.045281842 0.010936577 -0.019051056
-0.021159275 -0.019902175 -0.08958588 -0.0065078437 0.019547638 -0.056616046 0.058039196 0.02719771
0.017936848 -0.02659285 -0.03260455 -0.013148358 -0.009271102 0.007703343 0.0696645 -0.03234419
-0.038841937 -0.025159465 -0.032238007 0.060926735 0.02558774 0.009964327 0.021540912 -0.0067319707
0.058632445 -0.0527536 -0.037708957 -0.017568748 0.013516719 -0.011428463 0.08040227 -0.0037579788
0.038002107 -0.0390374 0.026506929 0.07388868 0.029064965 -0.08486761 -0.020490387 -0.037938945
-0.02145108 0.024295071 0.03686636 0.029180087 0.00800764 0.029163195 0.075294755 0.04392995
0.020163616 -0.0061397627 -0.0022958417 -0.0010715032 0.0011444308 0.014361601 -0.0075213243 0.010726725
-0.010597056 0.010738609 0.07106733 -0.008924049 0.047149416 0.05468372 0.030461706 -0.032862753
-0.047575533 -0.051869668 0.026444333 0.009274243 0.03480829 0.018955918 -0.012737924 0.007323948
0.03261561 -0.054851823 0.04853549 -0.0167966 0.047293864 -0.016945349 -0.049224906 0.0020837153
0.013261205 -0.048664715 -0.085568435 -0.038468923 -0.020664416 0.014499299 0.0031410768 0.020551441
-0.024325116 -0.06407015 -0.047085565 0.0013898809 -0.018502861 -0.08891508 -0.04176185 0.07835722
-0.12965421 -0.05900129 0.032526474 -0.06497377 0.03723028 -0.09147638 -0.056983717 -0.009469766
-0.014063075 -0.08578009 -0.01715568 0.034421064 -0.04314132 0.046249777 -0.00031628442 -0.09872154
-0.059510987 -0.048113946 0.052204028 0.0766746 -0.029087806 0.010125249 0.012105832 -0.022166125
0.00059023645 -0.022237757 -0.0005151756 -0.0048277965 0.02568187 -0.07656488 0.04970223 -0.01834498
-0.02076817 -0.0017006403 0.060820967 -0.012849826 0.0015586815 0.02213711 0.019747542 -0.08071554
0.020914005 0.034437373 0.0025919832 0.035138715 0.020859092 0.05250574 -0.046635624 0.07877665
0.00262765 -0.0037714422 -0.015254452 -0.03658714 0.014877527 0.020545788 -0.0047001024 -0.04982271
-0.023891319 0.04574147 0.022084486 0.024303647 0.027964465 0.022005275 0.001925356 0.014199407
-0.0076555936 0.05229579 0.062502995 -0.0057211756 0.0024131194 -0.0044684317 0.01591583 -0.012094385
0.0287017 0.043392226 0.04162369 -0.08356032 0.028961835 0.015377729 0.060155094 0.011187174
-0.022283927 -0.018018005 0.012343218 -0.0058498844 0.032215305 -0.011235309 -0.030357603 0.029818898
-0.008276835 0.030774036 0.016744846 -0.021903874 -0.015859524 -0.04530592 0.02086405 0.049200997
0.03432865 -0.06823714 0.0795524 0.0024814717 -0.0011749493 0.050675984 -0.028161693 0.0013572527
-0.09839925 0.019116066 -0.0013807892 -0.003434666 -0.0018598414 -0.009297579 -0.040247746 0.021885805
-0.056691565 0.032448564 -0.08477397 -0.036842424 -0.059001777 0.018125152 -0.012609877 -0.034525156
0.010917477 -0.062017087 0.022750208 0.0059627085 0.009004716 0.0036581226 0.031029077 -0.007928458
-0.06738139 -0.02501803 -0.0095394375 0.061751697 -0.045546025 -0.05579303 -0.017082475 -0.034157816

model.bias f4 [3]
00000000: f41c 3abc 7ba7 983c 9268 13bd
-0.011359442 0.018634548 -0.035988398
