kaggle_saved_models_balanced/LinearModel2/LinearModel2/LinearModel2.ckpt (torch, 9319 bytes, 2 tensors)

model.weight f4 [3, 512]
000000 d6 ef 80 3c a6 55 9a 3c d5 ee 9e bc 18 08 c8 3c
       0.015739363 0.018839668 -0.019400993 0.024417922
000010 76 ae 39 bc 03 c3 8f bc ec 84 f3 3c bb 45 85 39
       -0.011333099 -0.017549044 0.029726468 0.0002541969
000020 59 7c 51 3d 40 e6 0f bd 02 bd 9a 3d c5 8b b9 3c
       0.051143978 -0.035131693 0.07555582 0.022649655
000030 e4 fc 4f 3c d2 14 dd 3b 4b 4b 09 3d 13 d5 91 3c
       0.012694571 0.0067468667 0.03351907 0.017801797
000040 8c c4 fd 3c a5 4b 56 3b 4e 86 37 bd 58 1c d1 bb
       0.03097751 0.0032698896 -0.044805817 -0.0063815527
000050 9e f0 cd bc b7 31 37 bc 5e 5b 16 bc c5 e8 5c 3d
       -0.02513915 -0.011181287 -0.009177057 0.053932924
000060 ab 6d 9e bd f7 c0 50 bd 5a 45 d3 bc 50 cc 5c bd
       -0.07735761 -0.050965276 -0.025789905 -0.053905785
000070 4c a4 b7 bc 0c 69 ba bd b6 68 1e 3d b1 ba 01 bd
       -0.02241721 -0.09102067 0.03867408 -0.031672183
000080 aa b0 ad 3c 4d eb de bc 59 72 d4 3b 3f 83 eb 3c
       0.021202404 -0.02721181 0.006483358 0.028749106
000090 d4 76 0c 3d 22 c2 74 3c db a7 81 3d 80 76 9f bc
       0.03429301 0.014938863 0.06330844 -0.019465685
0000a0 3f 61 27 bc fa 77 8e 3c d9 9d bf bc 74 3e 5f 3d
       -0.010216056 0.017391194 -0.023390697 0.05450292
0000b0 a1 a8 67 3c 3c 0e 4a ba 92 ea d4 3c 76 48 6f 3d
       0.014139325 -0.00077078096 0.025990758 0.058418714
0000c0 7e b8 86 3d 65 34 bb 3c ea 48 0b bd cf b8 14 bd
       0.06578158 0.022852132 -0.034005083 -0.03630906
0000d0 7c c5 eb bc 61 bd 0d 3d b2 bf 6d 3c a3 ff da ba
       -0.028780691 0.034604434 0.014511036 -0.0016708266
0000e0 a3 69 87 3d 62 f0 9f 3a 04 d1 dd 3c 6d 59 ba bc
       0.066119455 0.0012202377 0.027077205 -0.02274772
0000f0 59 70 c3 bb 15 4d 23 bd 34 c3 94 3c 82 43 07 3a
       -0.0059643206 -0.039868433 0.018159486 0.0005159901
000100 7f f0 ad 3c cd 0e 00 bd bc 6a 9c 3c f1 11 01 bb
       0.021232842 -0.031264115 0.019093864 -0.0019694532
000110 b8 f8 4f bc 78 d3 dc bc 07 51 cd 3d 91 a0 f5 ba
       -0.0126935765 -0.026956305 0.1002522 -0.0018739869
000120 76 27 2f 3d 79 84 21 bd ab 57 59 bd 6d 89 0d bd
       0.042762242 -0.039432976 -0.053062122 -0.034554888
000130 a5 34 cc 3a e5 bc c6 3c b9 1e 32 bc ca 1a 8b 3d
       0.0015579654 0.024259994 -0.010871583 0.06792219
000140 cc e7 57 bd cf 9e 3d bc 9d b0 51 3d a2 03 5f 3c
       -0.052711293 -0.011573507 0.051193822 0.013611706
000150 d0 ce 06 b8 f0 c4 0f bd a4 49 a8 3b 7f 40 2f bd
       -3.21407e-05 -0.035099924 0.005135732 -0.042786118
000160 dd 82 05 3b 5e 1a 82 3d bd 17 46 3c a1 37 b9 bc
       0.002037219 0.063526854 0.012090621 -0.022609534
000170 63 7e 01 3d 2b bf 0d 3d 4b cc 34 bd 25 15 08 bd
       0.031614672 0.03460614 -0.04414014 -0.03322329
000180 a5 56 3b 3d 2b f5 92 bc 8c f9 d5 3a b4 ab b5 bc
       0.045736928 -0.01793917 0.0016324981 -0.022176601
000190 fc d4 4f 3c 7a be fc 39 4d 5a 3a bc c9 ff be bc
       0.012685057 0.00048207102 -0.011374068 -0.023315327
0001a0 f1 bb 0b bd c9 d6 c5 bc 44 66 86 bd 5c 37 93 bb
       -0.03411478 -0.02415027 -0.06562474 -0.0044926833
0001b0 fb 90 31 bd b3 b1 2f bd 62 b4 28 3d 0f fe 76 bb
       -0.043351155 -0.042894077 0.04118765 -0.0037688052
0001c0 20 18 20 3d ad 81 6e bd 76 e7 41 bd b3 fa 31 bd
       0.039085507 -0.058229137 -0.04733988 -0.043451976
0001d0 0d f9 ce 3c bd 2e c2 bc 5c 06 43 bd a9 b1 b9 bb
       0.025265241 -0.023703927 -0.047613487 -0.0056669307
0001e0 1e b2 0d bb fb d5 98 bb b6 ae ac 3c e1 df a6 ba
       -0.0021621059 -0.0046641803 0.021079402 -0.0012731516
0001f0 c2 57 81 3c 39 a7 49 bd db ce 27 bd 7e c7 14 bd
       0.015788916 -0.04923174 -0.040968757 -0.036323063
000200 a3 a7 82 3c 08 3a 88 bd 32 07 05 3c 7e 2d 47 3b
       0.015949076 -0.066516936 0.008119391 0.0030392106
000210 75 1f 37 bc 7e fd 18 bc 29 ef 70 bc 79 bd 0e bc
       -0.011176934 -0.009337781 -0.014705458 -0.008712166
000220 48 ce 8e bc 79 54 45 bd eb 6d 1b 3d 10 8c 21 bd
       -0.017432347 -0.048176263 0.037946623 -0.039440215
000230 24 38 ad bc 37 fe b9 bc 2b 57 08 3d 73 68 dc ba
       -0.021144934 -0.022704227 0.033286255 -0.0016815796
000240 f7 35 db 3b 4a 04 44 3d 9f 73 4f 3c eb 08 74 3d
       0.0066897827 0.047855653 0.012661844 0.059578817
000250 a5 71 a5 3c 27 b4 28 bd ad 17 88 3c 2a 3c 05 ba
       0.020195791 -0.04118743 0.016612852 -0.00050825125
000260 8e 61 00 3c ca ae e6 bc 14 3f 00 3d 30 ec fe bb
       0.007835759 -0.028159518 0.031310156 -0.0077796206
000270 98 55 ca 3c 3f a7 d6 3c 2f 19 98 3b 1b 7f 39 bd
       0.024699017 0.026202796 0.004641674 -0.045287233
000280 e9 be 4d 3d 78 ac 8b bb b4 22 6f ba b8 65 0e bd
       0.050230894 -0.0042625032 -0.00091222976 -0.034764975
000290 e4 4f 92 bc 94 39 1e bc 05 70 4d bd 44 c8 89 3d
       -0.01786036 -0.009657282 -0.05015566 0.06727651
0002a0 3b 78 36 3c d7 e1 6b bc d1 73 24 bc f7 c2 bc bc
       0.011137064 -0.014397106 -0.010037378 -0.023042185
0002b0 70 b9 cc 3c 25 97 1d bd 34 e7 00 bd 0a 65 3f bb
       0.024990767 -0.03847422 -0.031470492 -0.002920451
0002c0 50 5f 11 3c 2b c9 cf 3c 6f df 20 3d 8b 66 c5 bc
       0.008872822 0.025364479 0.039275583 -0.024096748
0002d0 5e b7 90 bc 1d ec b1 bc 6d 71 1d 3d 85 96 0e 3d
       -0.017665561 -0.021719033 0.03843825 0.034811515
0002e0 b8 b9 f9 3b 24 87 a8 3d 66 08 83 bc ef f7 8f bc
       0.0076210164 0.08228901 -0.015995216 -0.017574279
0002f0 e9 72 c2 3b a7 98 48 3c b5 52 71 3c b7 62 af bc
       0.0059341085 0.012243426 0.014729192 -0.021409376
000300 1a a7 10 3c 62 f0 5a 3d c8 6a ff 3a 2f 4c 97 bc
       0.008828903 0.053451903 0.0019486779 -0.018468944
000310 21 f9 39 3a e8 c8 60 3d 33 73 17 3d 99 ce ae 3b
       0.0007094313 0.0548791 0.036975097 0.005334687
000320 92 79 2a bd 41 68 1a bd 3e a1 c3 bb 83 70 22 3d
       -0.041619845 -0.03769708 -0.0059701493 0.03965808
000330 b3 05 f1 3c 62 7b 39 bb 61 a9 98 bc a8 44 f1 bc
       0.029421663 -0.0028302302 -0.018635454 -0.029451683
000340 6f c7 a7 bc 04 98 4e 3b 2a 20 cf 3c 7b 49 1a 3c
       -0.02048084 0.0031523714 0.025283892 0.009416933
000350 4b ce 18 bd 79 f7 78 bc e0 1d e3 bc 6a c1 db 3c
       -0.03730611 -0.015195721 -0.027724206 0.026825625
000360 f5 a2 80 3c d9 e4 f1 bc 80 c0 11 3b cf e6 ff ba
       0.015702704 -0.029528068 0.0022239983 -0.0019523742
000370 83 5a 82 bc d5 99 ea 3c 53 a3 af bc 1a 0f 2b bc
       -0.0159123 0.028637806 -0.021440184 -0.010440612
000380 e0 d5 21 3c 45 27 31 bb c3 3c 03 3d d2 0a 43 3d
       0.009877652 -0.0027031463 0.03204037 0.04761774
000390 9d 37 60 bd ef 5b 7d bd 7d b3 6f bd 6c db 4f 3d
       -0.054740537 -0.061855253 -0.058520783 0.050746366
0003a0 f6 d4 c5 bc 4a ad bb 3c 48 58 a2 bb 2e 7c e6 bc
       -0.0241494 0.02290978 -0.0049543716 -0.028135385
0003b0 f4 44 1d 3b 3e ed ff bc fc 2c cf bc a0 d7 04 bd
       0.0023997398 -0.031241056 -0.025290005 -0.0324322
0003c0 83 28 19 3d d7 06 22 bd ef db 0f bd 9b 70 60 bc
       0.03739215 -0.039557304 -0.035121854 -0.013698722
0003d0 aa 4d 4e 3b ac c6 92 bc e8 ba 0c bd b0 29 8f 3b
       0.0031479397 -0.017917 -0.034357935 0.004368983
0003e0 8c 8c ab bc 3f 6b bf bc 79 76 36 bd e6 1d 2c bd
       -0.020941041 -0.023366569 -0.044546578 -0.0420207
0003f0 49 d8 0d 3d b7 9a 24 bd f7 ca 2c bc a0 6c 35 bd
       0.034630094 -0.04018661 -0.010546437 -0.044293046

model.bias f4 [3]
000000 7e 66 2a 3a aa e4 15 bc 6f 74 9b bc
       0.0006500258 -0.009148756 -0.018976418
