kaggle_saved_models_balanced_8cores/LinearModel/LinearModel3/LinearModel3.ckpt (torch, 9319 bytes, 2 tensors)

model.weight f4 [3, 512]
00000000: 1b57 273d 793a 263d d8a7 76bc 5343 0e3d
00000010: 12d7 a7bb 3933 273c aa6b a2bc 39f5 c23c
00000020: 59b6 453d 10ad 05bd 12b5 2e3d 4301 b339
00000030: cf73 e23c 47f4 923b 7942 cd3c cda3 2fbc
00000040: e133 123d d229 4e3c c217 3cbc 5709 ac3c
00000050: d9e7 b9bc 182a 87bb 074b aabc 4b83 193d
00000060: 6470 26bd 702c c8bc d875 a3bc 80e9 e3bc
00000070: 12ab 18bb ec24 19bd a482 0b3d 9755 2dbd
00000080: 556c 0e3d e9c0 023b 2c36 9dbc 22cc 073d
00000090: 1e5d f73b 9f41 2a3d 0cb3 bf3b 75a1 eebb
000000a0: 53cd 0d3c bf27 2fbc 4aab 7f3c 608d 3d3d
000000b0: 62ef f33c fb07 95bc ae39 9e3c 0fe0 353c
000000c0: f9f3 d63c a544 dcbc 2093 2bbd a397 6cbc
000000d0: e7d1 f1bc 4a1b 1e3d 69fe 303c a792 583c
000000e0: 2fb6 843c 9973 63b9 95b8 233d 433e e1bc
000000f0: b587 abba beb9 05bd 8b3f 043c a8ad 88bc
00000100: b39f 953c 1ca1 24ba 27fc 083d 8acd e0bc
00000110: 5c21 cdbc 4577 bebc f841 343d 5cd6 6f3c
00000120: 814d 1a3d 5728 14bd 3b34 21bd 0844 10bd
00000130: 908c f6bc 82d7 b83c 5d5e 5c3c b441 0f3d
00000140: ef82 b9bc 6319 e4bc c2dc 053d b6bf 2ebc
00000150: 17cc ed3c 3420 fabb 9435 063d b79c d0bc
00000160: 27e5 d7bc d796 8c3c 89a8 113c 3ff7 35bc
00000170: 5821 dc3c be40 013d 7ac6 10bd 4204 dabc
00000180: 5af9 323d 5282 8dbc 8e88 afbc 9a60 3abd
00000190: 15b5 abbc 2cbb 893c 9636 5ebb fb3b f3bc
000001a0: 3384 c9ba 6e34 f2bc ef38 09bd 6972 febc
000001b0: c37a 0fbd f947 f5bc 499a 3d3d 51a8 be3b
000001c0: 1f9b 753c 8351 41bd e257 bbbc 3976 0dbc
000001d0: 7702 083c d88d 15bd d1e6 e3bc e0a6 cbbc
000001e0: 48d8 153b b28e dfbb c59d 29bb 1b62 fbbc
000001f0: ac84 efbc 48a0 f8bc 3207 cdbc 1ba4 17bd
00000200: 2056 fc3c fe20 d9bb 3c50 183d d0b7 513c
00000210: 5b5c 05bd 4767 043d dc9d 0ebc 21cf 51bc
00000220: dbf6 08bd 5130 39bd 2951 393c 2b37 34bb
00000230: cd09 b93c 876d 1dbd f6b3 103d b50f 02bd
00000240: 8417 00bc 0a2c 8a3c 19ae 943c 0abe 163d
00000250: 5e34 133d 21b4 2dbd dca0 4a3c c054 a4bc
00000260: cb6e b4bb cfa5 08bd a3d6 2b3d 7646 f6bc
00000270: d648 c83c 8a29 6a3c 8604 8b3c 6002 d3bc
00000280: 45ba 223d e793 4f3c ab6c a13b 4fc0 0cbd
00000290: d841 ad3c 44f4 e6bb 7be2 65bc 1662 2f3d
000002a0: 21bd 4f3c 3e1f 93bc 2d66 a4bc 08b3 43bb
000002b0: 104e f63c 5faa 62bc eecb aebc 311f 2bbc
000002c0: 65e7 07bd af83 963c 8504 0f3d a90f 1dbd
000002d0: a319 583c eb7b c13c 1781 593c 14c1 48bc
000002e0: b187 ad3c 0481 eb3c 0a36 6f3c 623e cabb
000002f0: 2eb7 7abc e534 383c 4335 14bb 77cf 35bc
00000300: f322 013d ed77 243d 2382 16bc fb3d d9bb
00000310: 45cb babb 7de1 41ba 1cbf 8a3c cb54 1e3c
00000320: f1d1 28bd dac8 53bc 4718 2a3d 350b bc3c
00000330: 93ca d43b c17c 02bd 3ecb e3bc 8891 25bd
00000340: 2cff 16bc 1571 b83c 04c4 ce3c 3638 b33c
00000350: 14f9 36bd 60f2 8dbc aec6 7fbc 114e 323d
00000360: ca15 d73b a08d 52bc e84a b13c 1e99 a7bc
00000370: 33ed d0bc a96e 183d fe3d afbc 84d5 13bc
00000380: 4e4c 3fbd b8b8 f73c 8a89 143d 38a8 3a3c
00000390: 5d6a c7bc 036c 34bd b898 e7bc 2939 283d
000003a0: 8e49 c73c 0b93 233d 5597 a83c d8df 7d3c
000003b0: 0b61 dbbb 2f47 f9bc 9794 fdbc d1d8 2bbd
000003c0: 9bef 983c 3e1f bfbc 29c0 31bc e3df 92bc
000003d0: 079d dbbb 3404 11bd e9e0 e0bc 2d70 6a3c
000003e0: e234 1dbc ba52 063d ffa1 8abc 7e26 b8bc
000003f0: 2601 81bb 8683 a0bc 4a4b 79bc c5ad 19bd
0.040854555 0.040583108 -0.0150546655 0.034732174 -0.005122074 0.0102050835 -0.019826729 0.023798572
0.048269603 -0.03263575 0.04265315 0.0003414248 0.027643112 0.0044846865 0.02505611 -0.0107202055
0.035694007 0.012583213 -0.011480274 0.021000547 -0.022693561 -0.004124891 -0.020787729 0.037478726
-0.040634528 -0.024435252 -0.019953653 -0.027821302 -0.0023295325 -0.037388727 0.034060135 -0.042317953
0.034771282 0.001995141 -0.01919087 0.03315366 0.007548942 0.041566487 0.0058502015 -0.007282431
0.00865491 -0.010690629 0.015604803 0.046277404 0.029777233 -0.018192282 0.019314613 0.011100783
0.026239382 -0.026888201 -0.041888356 -0.01444045 -0.029519035 0.038600244 0.010802844 0.013218558
0.016200153 -0.0002169147 0.039970953 -0.027495509 -0.0013086708 -0.03264784 0.00807179 -0.016684368
0.018264627 -0.00062801107 0.033443596 -0.027441759 -0.025040321 -0.023250232 0.044008225 0.01463851
0.03767157 -0.036171284 -0.03935645 -0.03522113 -0.030096322 0.0225637 0.013450232 0.03497477
-0.022645442 -0.027844137 0.032681234 -0.010665825 0.029027982 -0.0076332334 0.03276594 -0.025465352
-0.026354386 0.01716177 0.00889028 -0.011106311 0.026871368 0.031555884 -0.035345532 -0.026613358
0.04369483 -0.017274056 -0.021427419 -0.045502283 -0.02096037 0.016812883 -0.0033907047 -0.029691687
-0.0015374481 -0.029566016 -0.03350156 -0.031060414 -0.035029184 -0.029941546 0.046289716 0.0058184047
0.014990597 -0.047196876 -0.022869054 -0.0086341435 0.008301369 -0.036512226 -0.027820023 -0.024859846
0.002286451 -0.0068224305 -0.0025881391 -0.030686429 -0.029238068 -0.030349866 -0.025027845 -0.037021738
0.030802786 -0.0066262474 0.037185892 0.012800172 -0.03255878 0.032325055 -0.008704629 -0.012805731
-0.033438545 -0.045212094 0.011310854 -0.0027498703 0.022587681 -0.03843453 0.035327874 -0.03175326
-0.007818107 0.016866703 0.018149422 0.03680233 0.035938613 -0.042408112 0.012367453 -0.020059943
-0.0055063716 -0.033361252 0.04195274 -0.030062895 0.024448793 0.01429213 0.01696993 -0.025757968
0.03972842 0.01266954 0.0049262843 -0.034363087 0.02114956 -0.0070481617 -0.014031048 0.04281815
0.012679369 -0.017959233 -0.020068252 -0.002986135 0.03006652 -0.013834565 -0.021337476 -0.010444448
-0.03317966 0.018373339 0.03491642 -0.038345013 0.013189706 0.023618659 0.013275406 -0.012253065
0.021182867 0.028748043 0.014600286 -0.0061719874 -0.0153024625 0.01124308 -0.0022614754 -0.011096827
0.03152747 0.040153433 -0.0091863 -0.006629703 -0.005700501 -0.0007395966 0.016936831 0.009663771
-0.04121584 -0.012926305 0.04152706 0.022954563 0.0064938753 -0.031857256 -0.027806874 -0.040421993
-0.009216111 0.02251486 0.025239952 0.02187739 -0.044671133 -0.017327487 -0.015611334 0.04353148
0.0065638768 -0.012851149 0.021642163 -0.020458754 -0.02550373 0.03721491 -0.021391865 -0.009023074
-0.04670363 0.030239448 0.03626398 0.011392646 -0.02434271 -0.04404832 -0.028271064 0.041070137
0.024327066 0.039935153 0.020579973 0.015495263 -0.006694918 -0.03042945 -0.030954642 -0.04195482
0.01866894 -0.023330327 -0.010849037 -0.017929023 -0.0067020687 -0.0354044 -0.027450996 0.014308971
-0.009595128 0.032793738 -0.016922949 -0.022479292 -0.0039369045 -0.019593965 -0.015215704 -0.037519235

model.bias f4 [3]
00000000: e46a dd3b 6435 45bc 1d3c bcbc
0.006757127 -0.012036655 -0.022977883
