kaggle_saved_models_full_8cores/LinearModel/LinearModel3/LinearModel3.ckpt (torch, 9319 bytes, 2 tensors)

model.weight f4 [3, 512]
000000 8c c0 48 bd 10 b0 a7 3c 63 14 3b 3c 26 47 86 3d
       -0.049011752 0.020469695 0.011418435 0.06556539
000010 53 2b 01 bd ff 63 c1 bb 97 40 c7 bc aa 21 3d bd
       -0.031535458 -0.005901813 -0.024322791 -0.046174683
000020 6e 52 14 3d a8 07 59 bd 1c 0b c0 3d e3 98 36 3c
       0.036211424 -0.052985817 0.09377119 0.0111448495
000030 33 ff a8 3c 2b 40 06 3d 1b 9f 1d 3d c5 2a 95 3b
       0.020629501 0.03277604 0.038481813 0.0045522177
000040 ed 4f aa 3d 2d 80 a8 bd 0b 30 4e bd ef ed ca bc
       0.08316026 -0.082275726 -0.050338786 -0.024771659
000050 79 f9 b5 bc 15 77 ea bc 6d 32 d8 b9 d9 a2 48 bb
       -0.022213684 -0.028621236 -0.000412363 -0.0030614643
000060 a9 5f 90 bd 36 bf 28 3d fb 82 bf 3d 5c ee 28 bc
       -0.07049496 0.041197978 0.093511544 -0.010310736
000070 d1 5b 09 bd 62 ae 0c bd 3e c3 fd 3c 63 fc 6c bd
       -0.03353483 -0.034345992 0.030976888 -0.057857882
000080 c1 02 b3 3c 99 4e 90 bc a9 3e 93 bb 5c 8e 04 3d
       0.0218519 -0.017615603 -0.0044935537 0.032362327
000090 ac 64 d1 3c d5 30 36 3d 48 f0 13 bc 50 63 ed bc
       0.0255607 0.044480164 -0.0090294555 -0.02897802
0000a0 2e ec 8a 3d 70 16 52 3c 92 4a d0 bc 37 09 6e 3d
       0.06783329 0.012822732 -0.025426183 0.058114257
0000b0 e4 09 57 3d 83 ca 10 bd 08 bb 1a 3d ac 54 de 3d
       0.052499667 -0.03534938 0.037776023 0.10855994
0000c0 d8 e9 23 3d 08 63 3d bc 25 e6 55 bd b2 b0 c9 bc
       0.040017933 -0.011559255 -0.052221436 -0.024620388
0000d0 07 05 c0 3c 09 c5 b9 39 3a 2e aa bc 83 d3 18 3d
       0.023439897 0.00035432752 -0.020773996 0.03731109
0000e0 16 f0 30 3d f8 d2 0d bd b6 ea 89 bb 3b d9 4f bd
       0.043197714 -0.034625024 -0.004208888 -0.050744276
0000f0 d7 d7 24 bd 63 6d 97 bb 32 c3 93 3c 1d ed 4a bd
       -0.040244903 -0.004621194 0.018037412 -0.049542535
000100 a6 be 83 3d bb 3d 21 3d e9 a5 13 3d 05 c1 b5 bd
       0.06432848 0.03936551 0.036046896 -0.08874706
000110 b6 2c 27 3d c1 42 51 3c 21 e2 7e 3d 29 ed 03 bc
       0.040814124 0.012772263 0.062227372 -0.008052149
000120 f1 11 83 3d bf fd 0b bd 10 2d 9a bd f6 dc 04 bb
       0.063999064 -0.034177538 -0.07528126 -0.0020273305
000130 a4 e7 7d bd de ab 7b bc 2f 49 4c 3b c0 60 21 3d
       -0.061988488 -0.015360801 0.003117155 0.03939891
000140 75 e9 45 bd 67 0a e9 3c fb 3d 0f 3d 8d 3a 4a 3d
       -0.048318345 0.028447343 0.03497122 0.049372245
000150 e6 e8 97 3c 92 7b 92 3c 3b ae c1 3c 3a 31 0a bd
       0.018543672 0.017881189 0.02364265 -0.033738352
000160 f0 66 b7 bc 02 b7 58 bc 0f 48 39 bc d0 2e 34 bc
       -0.022387952 -0.013227226 -0.011308684 -0.010997489
000170 3e cd 6a 3d 72 74 29 3d d0 db 28 bc 0c a3 48 bb
       0.05732464 0.041370817 -0.010306314 -0.0030614762
000180 2b f8 8e 3d 83 90 22 bd 55 4f 92 bb 35 98 f6 bc
       0.06980928 -0.0396886 -0.0044650235 -0.030101875
000190 47 bb 45 bc 58 1a 81 3d dd 8c 0c bd 1d 44 a2 bd
       -0.012068576 0.06303853 -0.034314025 -0.07923148
0001a0 e3 94 c3 3c 18 b1 62 3d 92 77 58 bd 13 bd 27 3c
       0.023874706 0.05534467 -0.052848406 0.01023795
0001b0 b9 08 c7 bc 3a d8 08 3d 45 a1 71 3b 8e 48 03 bd
       -0.024296151 0.033409335 0.0036869806 -0.032051615
0001c0 12 28 cd 3c 07 9e 43 bd c5 7b b8 bc ec 3a d4 bc
       0.025043521 -0.04775813 -0.022519955 -0.025907002
0001d0 f4 7a 11 bd e6 f6 0c bd c8 b6 d4 3c 21 b9 05 3d
       -0.035517648 -0.03441515 0.025966063 0.032647256
0001e0 66 41 65 3b 1f 3c ef bc f8 44 a8 bb 6b 09 e1 bc
       0.0034981607 -0.029203473 -0.005135175 -0.027470311
0001f0 41 1f c7 bc 39 ef 4e bd 57 93 41 bd 99 7c 30 bd
       -0.024306895 -0.05052111 -0.047259655 -0.043087576
000200 2a 78 40 bd a6 2d 92 bc 1f 16 b0 3c b7 74 dd 3c
       -0.046989597 -0.017844032 0.021494923 0.027033193
000210 fb 3f 06 bd 78 33 dd 3a 81 cd 9c 3c 14 c8 80 bc
       -0.03277586 0.0016876301 0.01914096 -0.015720405
000220 76 0a 4a 3c 6b 81 eb 3c 0e 4a 0a 3b ab 66 d2 3a
       0.012331596 0.028748235 0.002110127 0.0016052326
000230 16 fd 76 bd a1 2c fe bc 07 72 bd b9 cf 91 ff bb
       -0.060299955 -0.03102714 -0.00036133846 -0.007799364
000240 44 57 a7 bc 47 3e 85 3d 3e f7 8e bc bc 27 a4 3d
       -0.020427354 0.06506019 -0.017451879 0.08015391
000250 c6 e5 f9 3c ae f7 8a bd ac ac 6e 3d cb a4 1b bc
       0.030505072 -0.067855224 0.05827014 -0.009499739
000260 ef ad 94 3b 3c b9 ae bc 4d 32 59 3d db e6 83 bd
       0.004537336 -0.021328561 0.053026486 -0.064405166
000270 08 8d 61 ba 11 a4 a0 3c 4d 8b 68 bc a0 f5 ba bd
       -0.0008604084 0.019609483 -0.014193368 -0.091288805
000280 9d 60 e0 bc 08 33 31 3d bc d9 1c 3d f7 39 8f bc
       -0.027389819 0.043261558 0.038293585 -0.017483694
000290 9e 4d 81 3c a4 a2 47 bc 02 8a 94 bd e8 d7 0a bb
       0.015784081 -0.012184773 -0.072528854 -0.002118582
0002a0 a0 a4 9c 3d a5 8c b3 bc 80 0a 2e bc 5f ab 95 ba
       0.07648587 -0.02191765 -0.010622621 -0.001141887
0002b0 70 50 82 3c f3 3f aa 3c d7 7a 0d 3c 25 6d 9a bd
       0.015907496 0.020782446 0.008635244 -0.07540349
0002c0 7a 58 b8 3c 06 46 a3 bb 2c f1 6b bd f4 3b 2d 3d
       0.022503126 -0.0049827127 -0.057603046 0.042293504
0002d0 a2 21 80 3d e9 54 26 3d 41 0f 4d 3c a3 95 d6 3b
       0.06256415 0.04060832 0.012515844 0.0065486
0002e0 95 09 91 3d d6 9e cd 3c 33 4b a6 3c c2 dc 36 bd
       0.07081906 0.025100153 0.02029953 -0.044644125
0002f0 65 9e 41 3c eb cc e0 3b 69 3c f9 b8 be b7 1a 3b
       0.011817549 0.0068603656 -0.000118844975 0.0023608054
000300 98 cb 1d 3c 68 27 4f 3d e5 46 f9 3c 78 2f 81 3d
       0.00963106 0.05057469 0.030429313 0.06307882
000310 8d 5f 01 bc d8 79 bd 3b a2 cc 1d 3b 4c 2b 7f 3c
       -0.007896316 0.005782347 0.002407827 0.015574288
000320 f7 ae 1a bd 46 48 6b bc 31 07 82 3d a0 c5 39 3d
       -0.037764516 -0.014360493 0.06349028 0.045354486
000330 00 88 a0 bb 40 9a 1d bd 3b 27 8f bc 4c d6 95 bd
       -0.004899025 -0.038477182 -0.017474761 -0.073162645
000340 c9 bc d1 3a 8d c5 98 3c ec 5a c9 bb 1a d0 a2 bc
       0.0016001697 0.018648887 -0.006144872 -0.019874621
000350 42 9f b5 bd 1e 03 4c bd 5b 3a 63 ba f1 98 5b 3d
       -0.08868267 -0.04980766 -0.00086680584 0.053612653
000360 7e f9 d9 3c f9 b5 d9 bc 0b 25 6a 3d 1f 16 52 bb
       0.026608225 -0.02657603 0.057164233 -0.0032056642
000370 85 b5 8a bb b0 c7 60 3d cc 7b df bc 56 a5 82 bd
       -0.0042330646 0.054877937 -0.02728071 -0.063791916
000380 98 d8 f3 bb 9b 09 d4 3c be a2 78 bc 1b 45 b0 3b
       -0.0074415915 0.025883486 -0.0151755195 0.0053793318
000390 dd 5a 25 bd 02 fc 02 ba 8d 2f 8f bd 1c a0 59 3c
       -0.040369857 -0.00049966585 -0.069914915 0.013282802
0003a0 a8 a5 ba bc b1 be 40 3d 52 d8 13 3d a2 50 f4 3b
       -0.02278407 0.047056857 0.03609497 0.0074559012
0003b0 a6 a7 01 3c de a5 bd 3c bf 50 58 bd 1a 99 1e bd
       0.007913506 0.02315038 -0.05281138 -0.038720228
0003c0 1d 00 88 bc 4e 9a ab bc e7 b0 00 be 4a 4d 2c 3d
       -0.016601617 -0.020947602 -0.12567483 0.042065896
0003d0 c2 62 e4 3b 98 78 0f bc c4 f1 44 bc 74 46 57 bb
       0.0069697807 -0.008756779 -0.012020532 -0.003284839
0003e0 7f cd cc bb 91 da 00 bc dc 8b 24 3d db e3 9b bd
       -0.006250083 -0.00786461 0.040172443 -0.07611819
0003f0 93 3c 8c bd 74 a1 80 bd 07 d8 ce 3b 73 6b e6 bc
       -0.06847491 -0.06280795 0.0063123736 -0.028127408

model.bias f4 [3]
000000 19 7d c0 3c e6 0d d9 bb bf 42 50 bd
       0.023497151 -0.0066239713 -0.050844904
