kaggle_saved_models_balanced_2cores/LinearModel/LinearModel3/LinearModel3.ckpt (torch, 9319 bytes, 2 tensors)

model.weight f4 [3, 512]
0.020358194 0.06575528 -0.022075357 0.00069876976 0.042552173 -0.0071983715 0.030626325 0.009649025
0.031230714 0.005818018 0.036455017 -0.028353944 0.05616631 -0.043055203 0.0071925023 0.029525539
0.016851224 -0.003363054 -0.10565367 0.032326236 -0.008159322 0.042870376 0.028741216 0.00823254
-0.034714855 -0.031660136 -0.001500675 -0.14377305 0.032172963 -0.025860647 0.0713331 0.0010826513
0.063974805 -0.024270711 -0.012017019 0.056334168 0.056643352 0.04744469 0.04275607 -0.042110387
0.01845813 -0.008887928 -0.009797901 0.03523789 0.007773017 -0.015210203 0.01368867 -0.004385646
0.05374283 -0.034816597 -0.08800384 0.030130943 -0.018098073 0.009371823 -0.049669344 0.009145133
0.067939065 0.038396705 0.033909474 -0.06313968 -0.035477646 -0.027317107 0.041031882 0.0159142
-0.013667752 -0.04224754 -0.013458827 0.0027732183 0.04489817 -0.028145738 0.0911105 -0.040555973
0.065746605 -0.096795626 -0.019568838 -0.035657953 -0.03849159 -0.020599956 0.00921305 0.05494305
-0.05827206 -0.03847582 0.076577984 -0.010517655 -0.006110144 0.028730793 0.009873872 -0.021052483
-0.025982779 -0.007598844 0.008355605 -0.03762227 -0.028559491 0.12076834 -0.072360694 -0.019214258
0.07911148 0.02455506 -0.034787104 -0.00850112 -0.06977503 0.08637851 -0.011086206 -0.02048495
0.056116324 0.006189822 -0.032518867 0.07712245 -0.0008627515 0.03615892 0.07216831 0.05234482
0.070304774 -0.009003409 -0.01880549 -0.043941732 0.016276766 -0.093474515 0.012387785 0.045550905
-0.028751662 -0.021851085 0.042862654 0.029326413 -0.019665666 -0.034522332 -0.011236256 -0.005929496
0.097029805 -0.06920384 0.017173635 0.016851505 -0.045576658 0.011434999 0.0033685057 -0.09596898
-0.0010127987 -0.018869579 -0.0035010339 -0.055963553 0.0069323597 -0.074429445 0.06783323 -0.010350688
-0.052111186 0.012490061 0.030173505 0.019414585 0.04765686 -0.02786788 0.049443744 -0.0102826385
0.05534466 -0.053841397 0.04164259 -0.021045927 -0.01820345 0.05607824 0.020712007 0.010180071
0.022972362 -0.038314853 -0.046580438 -0.03295655 0.0017673024 0.060589235 -0.001999516 0.06154053
0.0465657 -0.07206946 -0.043423146 -0.029202579 -0.002167491 0.032205936 -0.0028034972 -0.024788054
-0.06420919 0.0021467998 0.05279745 -0.01690414 0.051019978 0.032264415 -0.0044433577 0.011251607
0.0008375145 0.058460176 0.01949955 0.026786253 -0.06334176 0.04879771 -0.038855482 -0.06764939
-0.013059629 0.006101793 -0.010539007 0.05834545 0.05433463 -0.007675079 0.03743174 -0.015719222
0.0014710771 -0.0040454674 0.019780442 0.04920491 0.00898568 0.01655918 0.0062022666 -0.06566533
-0.030539153 -0.004324226 0.07411884 0.11991243 -0.014351251 -0.10395556 0.03590832 0.04002625
0.006486357 -0.037677534 -0.016426109 0.06339961 -0.033475135 0.02976885 -0.12239768 -0.023113167
-0.033989612 0.03559625 0.06768762 -0.020604372 -0.008818177 -0.050640535 -0.042152025 0.058455102
0.021435436 -0.030564195 -0.021789096 -0.028536148 -0.006621375 -0.059885893 -0.03030877 -0.025730718
0.027694056 -0.027239226 -0.06262246 -0.058254007 -0.024148734 5.455768e-05 -0.021802872 0.04093755
-0.05742408 0.0055907927 0.030357098 0.031836 -0.03347742 -0.03189732 -0.083980165 -0.014348391
00000000: 3ac6 a63c b4aa 863d 61d7 b4bc a52d 373a
00000010: 304b 2e3d 51e0 ebbb 0fe4 fa3c f216 1e3c
00000020: 8ed7 ff3c 13a5 be3b db51 153d 8846 e8bc
00000030: a50e 663d a75a 30bd 15af eb3b 8bdf f13c
00000040: 940b 8a3c af66 5cbb f460 d8bd 8468 043d
00000050: adae 05bc d998 2f3d b372 eb3c c7e1 063c
00000060: 2a31 0ebd 0fae 01bd 4cb2 c4ba 3e39 13be
00000070: ccc7 033d b5d9 d3bc 1717 923d c0e7 8d3a
00000080: 3905 833d 5fd3 c6bc 08e3 44bc a8be 663d
00000090: dc02 683d 5d55 423d fd20 2f3d f17b 2cbd
000000a0: 8135 973c ac9e 11bc 6087 20bc 9b55 103d
000000b0: cbb4 fe3b 3734 79bc 7146 603c 77b5 8fbb
000000c0: 7121 5c3d d99b 0ebd 5b3b b4bd 2bd5 f63c
000000d0: 6942 94bc 468c 193c 1572 4bbd 78d5 153c
000000e0: a323 8b3d dd45 1d3d a9e4 0a3d 604f 81bd
000000f0: 0251 11bd 20c8 dfbc 0c11 283d 7f5e 823c
00000100: b5ee 5fbc c20b 2dbd 6982 5cbc e2be 353b
00000110: 25e7 373d e491 e6bc 2498 ba3d 051e 26bd
00000120: 28a6 863d c93c c6bd d44e a0bc 130e 12bd
00000130: 5ca9 1dbd 3dc1 a8bc 55f2 163c f70b 613d
00000140: afae 6ebd d298 1dbd ebd4 9c3d 3e52 2cbc
00000150: 9a37 c8bb d75c eb3c 05c6 213c 4276 acbc
00000160: d6d9 d4bc b9ff f8bb f3e5 083c cf19 1abd
00000170: 98f5 e9bc 6455 f73d d831 94bd 3867 9dbc
00000180: 3305 a23d b127 c93c ec7c 0ebd 4848 0bbc
00000190: 36e6 8ebd 37e7 b03d eba2 35bc 0ed0 a7bc
000001a0: 3bda 653d fed3 ca3b 8132 05bd 60f2 9d3d
000001b0: 462a 62ba 601b 143d fbcc 933d 8667 563d
000001c0: f3fb 8f3d 0983 13bc f90d 9abc 3ffc 33bd
000001d0: da56 853c 916f bfbd 23f6 4a3c 9693 3a3d
000001e0: 9b88 ebbc 0c01 b3bc c090 2f3d f23d f03c
000001f0: e419 a1bc 4a67 0dbd 4618 38bc 384c c2bb
00000200: 90b7 c63d beba 8dbd b9af 8c3c 2b0c 8a3c
00000210: 97ae 3abd dd59 3b3c 26c2 5c3b 628b c4bd
00000220: e3bf 84ba 6094 9abc 9a71 65bb 0a3a 65bd
00000230: d928 e33b 776e 98bd 26ec 8a3d ef95 29bc
00000240: 8a72 55bd 1da3 4c3c 6d2e f73c 560b 9f3c
00000250: d733 433d 2e4b e4bc 8685 4a3d 8378 28bc
00000260: 15b1 623d cc88 5cbd 6c91 2a3d 8268 acbc
00000270: 671f 95bc 4cb2 653d 3aac a93c 50ca 263c
00000280: 8930 bc3c 09f0 1cbd 21cb 3ebd 73fd 06bd
00000290: d4a4 e73a 6b2c 783d 500a 03bb ec11 7c3d
000002a0: adbb 3e3d 2799 93bd 78dc 31bd 3f3a efbc
000002b0: 770c 0ebb 5fea 033d e1ba 37bb 5110 cbbc
000002c0: 1c80 83bd 53b1 0c3b 2442 583d 8d7a 8abc
000002d0: 53fa 503d b127 043d 9699 91bb a958 383c
000002e0: a68c 5b3a f073 6f3d 85bd 9f3c d86e db3c
000002f0: 53b9 81bd 1ce0 473d ed26 1fbd c38b 8abd
00000300: 0ef8 55bc 8df1 c73b cdab 2cbc a3fb 6e3d
00000310: fd8d 5e3d 3b7f fbbb 0652 193d 99c5 80bc
00000320: 28d1 c03a d78f 84bb 980a a23c 168b 493d
00000330: ac38 133c 1ea7 873c 623c cb3b 8b7b 86bd
00000340: 3f2d fabc 3db2 8dbb 9ecb 973d a694 f53d
00000350: 8221 6bbc a7e6 d4bd 9a14 133d 91f2 233d
00000360: 828b d43b c253 1abd 0c90 86bc a8d7 813d
00000370: 391d 09bd cedd f33c a3ab fabd d357 bdbc
00000380: b138 0bbd 60cd 113d cf9f 8a3d 80ca a8bc
00000390: 1d7a 10bc 736c 4fbd 9aa7 2cbd 9e6e 6f3d
000003a0: 5e99 af3c c361 fabc 0c7f b2bc a4c4 e9bc
000003b0: 1ff8 d8bb e94a 75bd 194a f8bc 3ac9 d2bc
000003c0: a5de e23c cc24 dfbc 3440 80bd c19b 6ebd
000003d0: 91d3 c5bc ddd4 6438 f09b b2bc 22ae 273d
000003e0: 8335 6bbd f832 b73b 73af f83c 7766 023d
000003f0: 9f1f 09bd c4a6 02bd cbfd abbd 8415 6bbc

model.bias f4 [3]
-0.00792894 0.011127517 -0.029784212
00000000: 62e8 01bc 3050 363c 05fe f3bc
