dr_saved_models/LinearModel/LinearModel0/LinearModel0-v6.ckpt (torch, 7271 bytes, 2 tensors)

model.weight f4 [2, 512]
000000 e3 f7 27 3d 77 99 16 3d 08 cb 18 bc 6c a5 3d 3d
       0.041007888 0.03676745 -0.00932575 0.046300337
000010 85 6e b0 bb f0 9a 54 3c 78 3b a4 bc 02 b5 d5 3c
       -0.0053842687 0.012976393 -0.020047888 0.026087288
000020 41 9c 1d 3d 57 8d cf bc f1 fc 25 3d be c4 16 3c
       0.038479093 -0.02533595 0.040524427 0.00920218
000030 ff b3 0e 3d ef d7 c0 3b 15 f1 e1 3c 5c 5c a8 39
       0.034839626 0.0058851163 0.027580777 0.0003211227
000040 a0 17 28 3d 12 75 2e 3c 79 c4 b0 bc 1d 7e 80 3c
       0.041038156 0.010648029 -0.02157806 0.015685135
000050 3a 2e ae bc 49 6f 91 ba 1e fa 45 bc f6 43 0e 3d
       -0.021262277 -0.0011095788 -0.012083558 0.03473278
000060 e0 a7 e1 bc 55 d8 a5 bc 8f e4 3c bc d7 3b d3 bc
       -0.02754587 -0.020244757 -0.011529102 -0.02578537
000070 91 70 47 3c 19 bb 1f bd 4e 27 40 3d d8 e9 0f bd
       0.012172834 -0.03899679 0.046912484 -0.03513512
000080 97 8f 05 3d 05 4f 0d 3c 95 7a dd bb 30 c9 e9 3c
       0.03260764 0.008624797 -0.0067589977 0.028538316
000090 68 e4 76 3c 43 d1 13 3d 25 2b b9 3b 0f f6 57 bc
       0.015069105 0.03608824 0.005650895 -0.0131812235
0000a0 d2 76 9a 3c 64 96 f0 bb c2 c4 a8 3c ae 6c 20 3d
       0.018855486 -0.0073421467 0.020601634 0.039166145
0000b0 34 48 0a 3d fb 2b 9a bc 57 5f ca 3c 70 e2 de 3b
       0.033760265 -0.0188198 0.024703665 0.006801896
0000c0 11 a2 dc 3c d1 ee d9 bc 55 80 38 bd 2f 30 88 bc
       0.026932748 -0.026603134 -0.045044262 -0.016624538
0000d0 50 73 d6 bc d3 48 2f 3d 50 d0 99 3c 55 94 95 3c
       -0.026178032 0.04279406 0.018776089 0.018259207
0000e0 54 f6 52 3c 22 55 cb 3b 36 dc 25 3d 56 8e e0 bc
       0.012876112 0.006205217 0.040493213 -0.027411621
0000f0 d6 e7 eb 3b 10 0b be bc d6 8b 82 3c 40 49 64 bc
       0.007199268 -0.023198634 0.01593582 -0.01393348
000100 24 60 53 3c ea 80 27 bc f6 bc 35 3d fa 0d be bc
       0.01290134 -0.010223607 0.04436966 -0.023200024
000110 34 b4 b7 bc 56 cf c0 bc ed 99 2f 3d 5f fe bc 3c
       -0.022424795 -0.023536365 0.042871404 0.023070512
000120 6c 8c 2d 3d 63 3d 19 bd f3 38 36 bd 53 93 dc bc
       0.042370245 -0.03741206 -0.044487905 -0.026925718
000130 04 eb f8 bc 83 22 b4 3c 09 b7 78 3c 68 40 38 3d
       -0.030385502 0.021989113 0.015180358 0.044983298
000140 2d 58 98 bc aa b2 ea bc 1d 81 d3 3c fa 5d 8f bc
       -0.018596733 -0.028649647 0.025818402 -0.017500866
000150 9b 08 f5 3c c8 d6 57 bb f6 3f ea 3c b5 11 08 bd
       0.02991133 -0.0032934416 0.028594952 -0.03322001
000160 73 3f 9e bc 8f 4e 5f 3c fd ac 17 3c 2d 54 16 bc
       -0.019317364 0.01362957 0.009257552 -0.0091753425
000170 f1 5d f0 3c 22 a7 fb 3c 04 5b f0 bc de 43 7b bc
       0.02934167 0.030719344 -0.029340275 -0.015336005
000180 c7 23 35 3d ac 76 62 bc 72 71 80 bc 3c fe 23 bd
       0.044223573 -0.013822239 -0.015679095 -0.04003738
000190 37 89 d6 bc c3 b3 54 3c c4 2b 5e b9 93 80 e5 bc
       -0.026188476 0.012982312 -0.00021187874 -0.02801541
0001a0 10 c6 6f 3b 36 6e d6 bc e7 f7 1c bd 32 a9 a4 bc
       0.003658656 -0.0261756 -0.038322356 -0.02010021
0001b0 02 95 0a bd 0f 70 eb bc 67 3d 33 3d ec 03 08 3c
       -0.03383351 -0.028739957 0.04375973 0.008301716
0001c0 bf a6 37 3c 99 00 2a bd a6 f8 fa bc 77 4e 1b bc
       0.011209189 -0.041504476 -0.030636143 -0.009479157
0001d0 49 36 e7 3b e5 ae 1d bd 2e 04 53 bc 95 87 a4 bc
       0.007056032 -0.03849687 -0.0128794145 -0.020084182
0001e0 fa 95 84 3b 07 0a 89 bc 01 c0 a3 3b 51 0c b8 bc
       0.004046199 -0.016728414 0.004997254 -0.02246681
0001f0 93 8f ed bc 7d 57 97 bc 71 3e ec bb 34 d6 0e bd
       -0.028999126 -0.018474335 -0.007209592 -0.03487225
000200 ec a0 1f 3d a3 8b e1 bb d8 f9 19 3d 9d 04 8b 3c
       0.038971826 -0.006883101 0.037591785 0.016969973
000210 c8 2a f7 bc 5f 63 f6 3c 0c 1e ef bb 65 5b 8a bc
       -0.030171767 0.03007668 -0.007297283 -0.016889283
000220 aa 0e 1b bd 07 1b 1a bd e0 a5 5a 3c 6d c7 f9 bb
       -0.03785578 -0.03762343 0.013345212 -0.0076226504
000230 09 cf bd 3c db a0 12 bd 29 2c 0f 3d 45 11 e7 bc
       0.023170011 -0.035797935 0.034954224 -0.028206477
000240 af c4 61 bb 48 35 57 3c eb c3 c1 3c 48 aa 0c 3d
       -0.0034449508 0.013135262 0.023652991 0.03434208
000250 15 ee 42 3d 66 42 e4 bc 94 12 44 3c d4 6d 2f bc
       0.047590334 -0.027863692 0.01196732 -0.010707337
000260 35 ef e0 3a bd 35 d1 bc 4f 62 33 3d 9a ac de bc
       0.0017161133 -0.02553832 0.043794926 -0.027181912
000270 39 34 db 3c 15 cd a0 3c 29 6d ac 3c b2 cb ba bc
       0.0267583 0.01962904 0.021048145 -0.022802208
000280 4a 23 34 3d 88 a4 5b 3c b8 e6 16 3c 53 45 24 bd
       0.043978967 0.0134059265 0.009210281 -0.040105175
000290 22 51 92 3c b9 f2 b8 bb 5f 6f 7f bc 19 1d 15 3d
       0.017860953 -0.005644169 -0.015590518 0.036404703
0002a0 fb d5 82 3c e9 76 cc bc 51 e5 ac bc 9f 86 13 bb
       0.015971174 -0.024959045 -0.02110544 -0.002251066
0002b0 bf e1 ed 3c f6 b0 24 bc 0e f2 c3 bc d1 24 5b bc
       0.029038308 -0.010051956 -0.023919132 -0.013375477
0002c0 e9 eb e4 bc a3 55 83 3c f8 5c 10 3d 59 ef 2a bd
       -0.027944522 0.016032046 0.035244912 -0.041732166
0002d0 54 9b 81 3c 5d f4 e3 3c d0 fd 70 3c b6 09 72 bc
       0.015821137 0.027826482 0.014708951 -0.014772823
0002e0 3a 47 01 3d e0 9f c0 3c e2 29 b9 3c 71 00 a2 bb
       0.031562068 0.023513734 0.02260298 -0.0049439003
0002f0 c2 8d 33 bc cf e4 c1 3b 3c b1 8c ba 19 e5 2e bc
       -0.010959091 0.0059171687 -0.0010733972 -0.010674738
000300 50 ee e4 3c 36 ee 36 3d 1f 29 9f bb cd 2d 70 bb
       0.027945668 0.04466077 -0.004857197 -0.0036648393
000310 31 78 78 3b ba 51 5e 3b 1c 0e 72 3c 47 40 89 3c
       0.0037913437 0.0033923225 0.014773872 0.016754283
000320 36 f9 fe bc ae f1 8e bc 7c ef 13 3d 79 bb ba 3c
       -0.031124692 -0.017449226 0.036117062 0.022794472
000330 02 34 34 bb 86 ce ad bc ab 1f a6 bc c9 19 28 bd
       -0.002749682 -0.021216642 -0.020278772 -0.041040216
000340 f1 32 2d bc 45 9a b6 3c a2 b5 f9 3c fa e4 e2 3c
       -0.010571227 0.022290358 0.030482117 0.027697075
000350 cc 66 ff bc 32 4e d0 bc 5e aa 85 bb ba 5a 27 3d
       -0.031176947 -0.025427911 -0.0040791472 0.040858008
000360 14 39 c3 3b 54 e0 23 bb 2c 4c 8e 3c 62 29 3f bc
       0.005957732 -0.0025005536 0.017370306 -0.011667581
000370 9e 63 c6 bc 24 2b fc 3c 3f 11 65 bc 7c 19 0e bc
       -0.024217423 0.03078229 -0.013981163 -0.008673068
000380 2a 29 27 bd f4 e2 10 3d 02 2c 0e 3d d0 f5 7e 3c
       -0.04081074 0.03537269 0.034709938 0.015561536
000390 f3 8a bc bc 60 72 36 bd ce c9 15 bd 22 d0 00 3d
       -0.023015475 -0.04454267 -0.03656941 0.03144849
0003a0 b8 84 c7 3c 20 04 1e 3d e2 16 bc 3c 37 e7 33 3c
       0.024355277 0.038578153 0.02296013 0.010980419
0003b0 9c 42 c2 3b 0d aa 05 bd fd 0a 1f bd 1e 9a 1e bd
       0.0059283506 -0.032632876 -0.03882884 -0.038721196
0003c0 8a e1 b0 3c f1 c2 79 bc f3 d9 25 bc ce 87 92 bc
       0.02159192 -0.015244232 -0.010122764 -0.017887022
0003d0 af ec e9 bb a2 85 e9 bc f4 9c d7 bc 5e 1d 7d 3c
       -0.0071388106 -0.028506104 -0.026319958 0.015448896
0003e0 cc fb 37 bc 1e ea e6 3c c3 d4 3e bc 60 67 00 bd
       -0.011229467 0.028187808 -0.011647406 -0.031348586
0003f0 9e d6 9f ba 20 c3 b5 bc ee b6 f6 bb 5a f8 1f bd
       -0.0012194698 -0.02218777 -0.007529131 -0.039055206

model.bias f4 [2]
000000 8b c9 d7 3c 2e 66 08 bc
       0.02634122 -0.008325143
