dr_saved_models/LinearModel/LinearModel0/LinearModel0-v4.ckpt (torch, 7271 bytes, 2 tensors)

model.weight f4 [2, 512]
0.039666347 0.036141712 -0.008071355 0.043290142 -0.016030459 0.0059590563 -0.018122464 0.0250829
0.036889568 -0.03587807 0.044260122 0.009299584 0.037195984 0.0056356816 0.023253815 0.001620378
0.04691654 -0.0010062046 -0.024226118 0.008847611 -0.02838919 0.0019394523 -0.006679133 0.027583614
-0.016093142 -0.021750567 -0.0097456295 -0.024709437 0.007073069 -0.031716656 0.04874928 -0.049074143
0.029767761 0.005670121 -0.012291831 0.028722359 0.028185865 0.030237835 0.0076208855 -0.013639314
0.016814465 -0.015206341 0.022093283 0.034411266 0.04649349 -0.019763736 0.021266242 0.0038389666
0.017962689 -0.02505591 -0.048145283 -0.017549412 -0.02706493 0.048009716 0.023396216 0.016532063
0.0060072364 0.011719955 0.03717696 -0.038674783 -0.002440359 -0.011535775 0.01896159 -0.013900692
0.011084777 -0.0142246345 0.047169365 -0.03400861 -0.018870216 -0.029386353 0.031925038 0.032904636
0.041523524 -0.039722193 -0.045915645 -0.023042038 -0.032643076 0.02407174 0.01266042 0.041090466
-0.016192267 -0.028481785 0.014448685 -0.01927079 0.030942045 0.0021281333 0.025423104 -0.037423592
-0.021099288 0.011118395 0.0071805594 -0.0066461163 0.03403372 0.03097842 -0.0320627 -0.012661421
0.04299011 -0.013595447 -0.016444592 -0.03971058 -0.028381228 0.009534387 0.001615566 -0.040412284
0.005763833 -0.026354063 -0.042538602 -0.013110949 -0.0260898 -0.031488962 0.04055624 0.0016499192
-0.0008893399 -0.04702477 -0.034371078 -0.0100541515 0.00546115 -0.04142254 -0.025910316 -0.016014678
0.0039000476 -0.018945077 -0.00092374964 -0.018312028 -0.03798104 -0.02067053 -0.012831488 -0.035594776
0.037668347 -0.006346402 0.035573088 0.016894184 -0.02338835 0.027443362 0.0007773635 -0.017173423
-0.04039093 -0.04966945 0.016262688 -0.01700233 0.03276464 -0.037030187 0.035326503 -0.025572676
-0.0031805784 0.012877141 0.024062483 0.020714246 0.03990578 -0.024273325 0.010371585 -0.011066284
0.010246509 -0.02663904 0.046716847 -0.03510207 0.021838672 0.022580115 0.017886741 -0.022602733
0.04700092 0.013242605 0.012797694 -0.04342803 0.014406362 -0.0051920093 -0.013873053 0.030579606
0.011066102 -0.028965091 -0.02217762 -0.011856793 0.03281238 -0.012177738 -0.022560025 -0.011100728
-0.024500111 0.015273217 0.024683682 -0.042573858 0.019600596 0.036009047 0.009142205 -0.01312235
0.03570739 0.022518428 0.03055731 -0.014685465 -0.009606987 0.0011064642 -0.0113804685 -0.011591986
0.026355619 0.045091607 -0.006934937 -0.010194988 -4.4190663e-05 -0.0082554445 0.017276347 0.02242883
-0.020537985 -0.022097263 0.033144806 0.026906887 -0.0067814887 -0.030900342 -0.013003693 -0.044537976
-0.006380905 0.023546454 0.03176698 0.0258729 -0.032955572 -0.025599902 0.00034136642 0.03485439
0.0046564355 0.0050831214 0.014003437 -0.008787719 -0.016260624 0.026622007 -0.014907563 -0.009657185
-0.052791998 0.024414953 0.023449052 0.014232298 -0.029901797 -0.046826422 -0.04076468 0.027677776
0.01777922 0.037636407 0.020853695 0.009439903 0.008169024 -0.03707966 -0.041394662 -0.03551992
0.024730034 -0.014953278 -0.013159839 -0.01797562 -0.0069136247 -0.025335625 -0.031730432 0.007592406
-0.013179038 0.029742016 -0.017254703 -0.029350836 -0.0026190113 -0.027720293 -0.0028412836 -0.034402464
00000000: 2e79 223d 5509 143d b73d 04bc 0151 313d
00000010: 4f52 83bc 3044 c33b 9075 94bc a77a cd3c
00000020: 8419 173d e2f4 12bd 1a4a 353d 485d 183c
00000030: d15a 183d 86ab b83b c97e be3c dd62 d43a
00000040: 8f2b 403d a0e2 83ba da75 c6bc 92f5 103c
00000050: 7290 e8bc 3835 fe3a a1dc dabb 08f7 e13c
00000060: c4d5 83bc 3f2e b2bc 22ac 1fbc 726b cabc
00000070: 34c5 e73b 53e9 01bd 53ad 473d f801 49bd
00000080: 85db f33c 6ccc b93b ad63 49bc 274b eb3c
00000090: 0be6 e63c 56b5 f73c 9fb8 f93b 6e77 5fbc
000000a0: 7dbe 893c 0424 79bc f9fc b43c d4f2 0c3d
000000b0: f56f 3e3d 8fe7 a1bc 8b36 ae3c 2c97 7b3b
000000c0: 7d26 933c 0d42 cdbc fd33 45bd c9c3 8fbc
000000d0: 46b7 ddbc d6a5 443d 6ca9 bf3c 406e 873c
000000e0: 5ad8 c43b 0e05 403c de46 183d 7369 1ebd
000000f0: 6eee 1fbb 8c00 3dbc 5655 9b3c babf 63bc
00000100: ed9c 353c 710e 69bc aa34 413d 9d4c 0bbd
00000110: b695 9abc a6bb f0bc d4c3 023d 03c7 063d
00000120: 9214 2a3d bdb3 22bd 0b12 3cbd a8c2 bcbc
00000130: bfb4 05bd 1932 c53c a66d 4f3c 7a4e 283d
00000140: a5a5 84bc a252 e9bc 2dba 6c3c c7dd 9dbc
00000150: 2c7a fd3c 2778 0b3b 1d44 d03c 7b49 19bd
00000160: 6ad8 acbc ee29 363c e64a eb3b aac7 d9bb
00000170: f166 0b3d 75c6 fd3c 2d54 03bd d971 4fbc
00000180: 6616 303d 70bf 5ebc cfb6 86bc 90a7 22bd
00000190: c07f e8bc 1e36 1c3c 66c1 d33a 5a87 25bd
000001a0: 89de bc3b 7ae4 d7bc f53c 2ebd 4ecf 56bc
000001b0: 47ba d5bc 92fa 00bd 4d1e 263d 1a42 d83a
000001c0: 9722 69ba 0c9d 40bd b0c8 0cbd 2bba 24bc
000001d0: 72f3 b23b aeaa 29bd df41 d4bc 3731 83bc
000001e0: f197 7f3b b532 9bbc ca27 72ba 1b03 96bc
000001f0: 0292 1bbd 3e55 a9bc 293b 52bc d4cb 11bd
00000200: 204a 1a3d 7bf5 cfbb 16b5 113d ac65 8a3c
00000210: ed98 bfbc e7d0 e03c fbc7 4b3a 47af 8cbc
00000220: f670 25bd 3172 4bbd 5439 853c 7848 8bbc
00000230: 3734 063d f7ac 17bd 86b2 103d ca7d d1bc
00000240: 4071 50bb a5fa 523c af1e c53c ecb0 a93c
00000250: 3e74 233d dad8 c6bc 95ed 293c 5c4f 35bc
00000260: f9e0 273c 1e3a dabc 2a5a 3f3d 30c7 0fbd
00000270: 04e7 b23c eff9 b83c 3787 923c 5e29 b9bc
00000280: 0984 403d 83f7 583c 6bad 513c 97e1 31bd
00000290: a908 6c3c bb21 aabb cd4b 63bc 1582 fa3c
000002a0: 994e 353c 3348 edbc d7ad b5bc ff42 42bc
000002b0: 4666 063d 2385 47bc cdcf b8bc d4df 35bc
000002c0: 75b4 c8bc 843c 7a3c 6f35 ca3c ed61 2ebd
000002d0: 6e91 a03c 397e 133d 30c9 153c 20ff 56bc
000002e0: ea41 123d 9178 b83c 5353 fa3c 4e9b 70bc
000002f0: a066 1dbc c706 913a 2575 3abc 50ec 3dbc
00000300: bde7 d73c fab1 383d 783e e3bb e108 27bc
00000310: 5d59 39b8 d841 07bc 2087 8d3c aabc b73c
00000320: 473f a8bc 5205 b5bc d9c2 073d d56b dc3c
00000330: 4037 debb b722 fdbc 710d 55bc 746d 36bd
00000340: e916 d1bb 7ee4 c03c 181e 023d 67f3 d33c
00000350: 6cfc 06bd e3b6 d1bc 6df9 b239 7ac3 0e3d
00000360: 0395 983b 5090 a63b ac6e 653c 5dfa 0fbc
00000370: 0035 85bc 6516 da3c da3e 74bc 2b39 1ebc
00000380: 6c3c 58bd de01 c83c 3a18 c03c 962e 693c
00000390: 9df4 f4bc 10cd 3fbd ddf8 26bd 81bc e23c
000003a0: baa5 913c a228 1a3d 5ed5 aa3c d3a9 1a3c
000003b0: 5fd7 053c d7e0 17bd 738d 29bd 567d 11bd
000003c0: a496 ca3c 98fe 74bc 5e9c 57bc 9c41 93bc
000003d0: b08b e2bb a88c cfbc c5f7 01bd b8c9 f83b
000003e0: e4ec 57bc 87a5 f33c bc59 8dbc 2a71 f0bc
000003f0: b8a3 2bbb ab15 e3bc d434 3abb 99e9 0cbd

model.bias f4 [2]
0.027011827 -0.00899776
00000000: e847 dd3c 576b 13bc
