dr_saved_models/LinearModel/LinearModel4/LinearModel4-v2.ckpt (torch, 7271 bytes, 2 tensors)

model.weight f4 [2, 512]
00000000: b263 0e3d 680b 303d a825 22bc 02f5 423d
00000010: eecd 8bbc aaa4 ad3b ac76 86bc 1c81 973c
00000020: 4399 313d b07e 13bd 65f6 283d d87e 333c
00000030: bfee 173d 8e1a 0b3c 411b b43c da91 83bb
00000040: 36c5 f53c 5dc0 173c cf94 82bc f20d 2b3c
00000050: feb3 b1bc cbbb 413a 2159 a9bc a2d4 f93c
00000060: 68fc 3abd 5028 83bc 48d9 35bc aedc c8bc
00000070: 304e a43c 4729 1ebd 2be7 2c3d f8ba 08bd
00000080: bd83 103d 2a43 203a 17f6 5bbc ec63 003d
00000090: 8fc2 513c ff33 253d 50f5 e23b 2a6a 5cbc
000000a0: 5a45 653c 40f4 31bc 5e21 883c 9844 2b3d
000000b0: a5ff bc3c 829f 48bc 4527 d03c 20e5 ee3b
000000c0: 12b8 ed3c 92ff bebc 77ad 2bbd 3c9a 9abc
000000d0: 2fe7 f9bc 2b57 193d 6a0d 403c 724d 8f3c
000000e0: c613 473c 029b de3a 853d ff3c 180e dbbc
000000f0: 3c21 ac3b b52a 96bc ecb4 673c e03b 0abc
00000100: d2fa a13c 5091 74bb 01ba 1b3d 414d cebc
00000110: 8bcf b8bc 7118 eebc 6721 2f3d 17a2 193c
00000120: 2ab2 473d f737 02bd 6005 28bd 835e ecbc
00000130: 0945 e6bc f56b 7f3c f885 b83c c3c4 2d3d
00000140: 5447 f5bc 1649 b0bc 9bee 083d faeb 9abc
00000150: bedd 023d 533f 16bc ea64 fe3c cb42 f2bc
00000160: 7706 adbc 73a1 5b3c 092d 523c 05ab 18bc
00000170: 1bd0 c23c b0b7 ec3c f21a 14bd 160f c3bc
00000180: a7f0 1b3d 4c03 7ebc 83d9 19bc a69e 29bd
00000190: 9ea7 b6bc d911 453c a51e a0bb b17f 01bd
000001a0: d1c2 193c 9f99 e2bc b48d 34bd 6a1c d1bc
000001b0: b120 10bd 4570 e2bc 3b10 403d d1b9 fc3b
000001c0: b0d5 1f3c b98e 10bd 30d6 e1bc 2e5f 9ebc
000001d0: 3283 ee3b e8df 1cbd a7c8 95bc 532f eabc
000001e0: 2ef7 21bb dd24 43bc a80e fa3a 4f20 04bd
000001f0: a48c dfbc 2f10 d8bc 4024 5ebc b318 10bd
00000200: d6eb 253d dc0a 03bc f612 053d 30ff 933c
00000210: 5d90 02bd f75a 453d 8b39 b7bb 3d5b bebc
00000220: 405a cdbc 1a14 2dbd 2c68 903c 9461 edbb
00000230: 1d03 a33c 4674 03bd 496e 0a3d 6557 fabc
00000240: 0d21 e5bb 8266 063c c236 b53c ebfa 143d
00000250: 524f 223d 2a11 18bd 3ad4 693c 022c a6bc
00000260: a268 aebb 7614 f7bc f6e6 113d 3df5 f9bc
00000270: a200 ee3c 79d1 8d3c 6b77 793c ef00 95bc
00000280: 7633 113d 3bcd fa3b fb28 023c 1d1d 23bd
00000290: c541 503c 41eb f5bb 7544 b6bc 86b7 0f3d
000002a0: bbb0 fd3b 75eb f4bc 799d 77bc 043a aeba
000002b0: d8d0 f33c ebf2 44bc 105e b4bc 5826 8dbc
000002c0: 9044 ecbc 6685 903c 0a30 183d fd48 38bd
000002d0: 9e79 763c 0d60 c03c 12ae 153b 29fa 08bc
000002e0: bd30 cd3c f8c6 bd3c 0a57 6e3c 80b9 85bb
000002f0: 746e e1bb 3f93 ed3b aed1 8ebb d2fa 6cbc
00000300: 13c3 133d 4c27 1c3d 4b73 64bb 53ce adbb
00000310: ac36 cabb 945c 853a 759b 4d3c 0f03 573c
00000320: cce8 4fbd 301e 81bc e60e 1c3d f89e 743c
00000330: ba78 aeb9 4b9e e9bc 08fc 03bd 78d4 18bd
00000340: 149e 59bc 8d0d 173c 305c ee3c 6439 b03c
00000350: 0075 1dbd 9bdf b3bc 6301 5bbc f46a 383d
00000360: df5b 213c 4aa2 1fbc 97ef b23c 46cd 75bc
00000370: 7393 f0bc cf8f 183d a1a5 81bc 500f 24bb
00000380: 3979 2cbd a1ea df3c 14ee 1c3d aba7 c83c
00000390: b52e 13bd 2bdb 2abd 59c3 1cbd 1367 153d
000003a0: 9a74 903c b030 ec3c 3245 e23c b271 883c
000003b0: 46ad 12bb 8dee efbc f9b7 24bd 90a9 20bd
000003c0: fec6 b53c f4d1 2ebc c4f2 b8ba 073d 89bc
000003d0: f97d dbbb 029c 00bd afa0 d7bc d20f 963c
000003e0: 6a8b 31bc 505a e43c 8f53 45bc e3ec ccbc
000003f0: 17e1 6abc 6933 93bc 7f8d 56bc 131c 27bd
0.034763046 0.042979628 -0.009896673 0.04759694 -0.017065968 0.0052991705 -0.016414009 0.018494181
0.043359052 -0.03600949 0.041250605 0.010955535 0.03709292 0.008490218 0.021985652 -0.0040151896
0.030001264 0.009262172 -0.015940098 0.010440337 -0.021692272 0.0007390349 -0.020672383 0.030496899
-0.04565087 -0.016010433 -0.011099167 -0.02451929 0.020056814 -0.038613584 0.042212646 -0.033381432
0.035281885 0.0006113524 -0.013425372 0.031345293 0.012802734 0.04033279 0.006926216 -0.013453046
0.0139935855 -0.010861456 0.016617473 0.041813463 0.02307112 -0.012245061 0.02540935 0.0072904974
0.029018436 -0.023315225 -0.041913476 -0.018872373 -0.030505745 0.037436645 0.011721948 0.017492983
0.01215071 0.0016983452 0.031157264 -0.026740119 0.0052529853 -0.018330911 0.014142256 -0.008437127
0.01977292 -0.0037318058 0.038019184 -0.025183322 -0.022559902 -0.029064389 0.042756464 0.009377024
0.048753895 -0.031791653 -0.04102075 -0.02885366 -0.02810909 0.015589704 0.022524819 0.042423975
-0.029941238 -0.021519225 0.033430677 -0.01891135 0.03194975 -0.009170371 0.031053979 -0.029572865
-0.021121247 0.013405192 0.01282812 -0.009318118 0.023780873 0.028896183 -0.03615851 -0.023810904
0.0380713 -0.015503716 -0.009390238 -0.041411065 -0.022296723 0.012028181 -0.0048864656 -0.031615917
0.009384827 -0.027661143 -0.04408045 -0.025526244 -0.035187427 -0.027641425 0.04689048 0.0077125807
0.009755537 -0.03529236 -0.027567953 -0.019332495 0.0072788233 -0.03829947 -0.018284155 -0.02858702
-0.002471398 -0.011910644 0.0019077854 -0.032257374 -0.027288742 -0.026374904 -0.013558447 -0.035179805
0.040508114 -0.007998195 0.032488786 0.018066019 -0.031875957 0.048182454 -0.0055915765 -0.023236865
-0.025067449 -0.0422555 0.017627798 -0.0072442982 0.019898945 -0.03209331 0.033796582 -0.030559251
-0.0069924654 0.008203151 0.022120837 0.036372107 0.039626427 -0.037125744 0.01427179 -0.020284656
-0.005322532 -0.030161124 0.035620652 -0.030512447 0.029053036 0.017311798 0.015226225 -0.018188922
0.035449468 0.00765386 0.007944341 -0.039822686 0.012710993 -0.007504851 -0.02224944 0.03508713
0.007742015 -0.02989743 -0.015113228 -0.0013292436 0.02976267 -0.012020807 -0.022017509 -0.017230198
-0.028841287 0.017641734 0.03715519 -0.044991482 0.015043644 0.0234833 0.002283935 -0.008360424
0.025047654 0.023166165 0.014547119 -0.004080951 -0.006879622 0.007250219 -0.004358492 -0.014464097
0.03607471 0.038123414 -0.003485876 -0.005304137 -0.006171068 0.0010174685 0.012549271 0.013123288
-0.05075912 -0.015761465 0.038100146 0.014930479 -0.00033277815 -0.028517863 -0.032222778 -0.037312
-0.013282318 0.009219539 0.029096693 0.021511741 -0.038441658 -0.02195721 -0.01336703 0.045023873
0.009848564 -0.009743283 0.021842761 -0.015002554 -0.029367184 0.03724652 -0.015826048 -0.002503354
-0.042107794 0.02733356 0.038312986 0.024494013 -0.035933215 -0.04171292 -0.038272236 0.036475252
0.017633725 0.02883181 0.027620886 0.016655777 -0.002238111 -0.029288555 -0.040214512 -0.039224207
0.022189613 -0.010670174 -0.0014110436 -0.016752733 -0.0066983667 -0.03139878 -0.026321737 0.01831809
-0.010836462 0.027875096 -0.012043848 -0.0250153 -0.014335892 -0.01796885 -0.013095259 -0.040798258

model.bias f4 [2]
00000000: 5d0b e43c c5f5 20bc
0.02783745 -0.009824221
