saved_models/LogisticRegression/LogisticRegression[13 14 15]/LogisticRegression[13 14 15].ckpt (torch, 9255 bytes, 2 tensors)

model.weight f4 [3, 512]
0.058377538 0.059009247 -0.04728708 0.02092992 -0.0144909425 0.030369604 -0.042422373 0.029183254
0.07966417 -0.054315194 0.03973703 0.059465207 0.08771567 0.012384289 0.03363955 0.016663978
-0.011022538 0.02895498 0.027605897 -0.047749132 -0.016935848 -0.031422596 -0.00022360895 -0.015354806
0.01713538 -0.030158835 0.00062399387 -0.03669339 0.018105092 -0.0755858 0.031281326 -0.06404629
0.014040882 -0.006877794 0.039028976 0.010993132 -0.010611111 0.025676053 0.031064846 -0.037427064
0.043842807 -0.016031904 0.073062874 0.0085051255 0.054146472 -0.048829045 0.039213043 -0.039351184
0.04796695 0.020223945 -0.044507813 -0.05272741 -0.028229374 0.08302556 0.050533973 0.028230647
-0.017333344 0.069528736 -0.011197974 -0.0007321087 -0.029558625 -0.021982877 -0.0054457644 -0.008066062
0.06579257 -0.05693256 0.05372095 0.031132588 0.016135957 -0.031507447 0.014765883 -0.0024089152
0.09076578 -0.07370618 -0.026078032 -0.04437034 -0.037325025 0.014511804 0.01404064 0.051556338
0.017199075 -0.007845645 0.053812347 0.035157118 0.00019783196 -0.03540584 0.0035015747 -0.06930299
-0.016074734 -0.016358264 -0.013115701 0.021720627 -0.016962979 0.014793196 -0.060749073 -0.046020404
0.04643692 0.034754425 -0.054937392 -0.052935865 0.0044729314 -0.03323897 0.0040937536 -0.033258367
0.040232763 -0.0114726005 -0.05540126 0.0029228057 -0.06978095 0.01681629 0.055510025 0.024655888
0.038512077 -0.05292837 -0.041881777 -0.00026951957 -0.003469148 -0.010728284 0.021876065 -0.032221336
-0.020378409 -0.027165173 -0.020884402 -0.040237427 -0.042389482 -0.009423897 -0.05370054 -0.011514288
0.0077005588 0.04915215 0.071500175 0.054430127 -0.0770353 0.030427625 0.019197382 -0.019814933
-0.053127654 -0.03974426 0.039210245 -0.038605083 0.047987 -0.03174206 0.06933273 -0.002159739
-0.06754389 -0.0025692172 0.07036964 0.03830708 0.044367097 -0.0017378642 0.0005004517 -0.0056500463
0.026756898 -0.010848312 0.09104806 0.006160863 0.041136898 0.07031247 0.005601891 -0.053317457
0.0075739985 0.026281554 -0.013300398 -0.016142882 0.011556895 0.03611726 0.017736139 0.037313882
-0.019082636 0.018510172 0.006165132 0.024592051 -0.0025753933 0.030923393 -0.04379562 0.0011968225
0.0022418846 0.0067360746 0.045344274 -0.020368308 -0.011789224 0.0081437705 -0.007624168 -0.0014220551
0.014882203 0.031873807 0.06817005 -0.039909914 0.03282747 -0.011959604 0.009847735 0.03375054
0.029125018 0.022693323 -0.008260072 -0.011145646 0.04537327 0.034105796 0.0027949235 -0.028046133
-0.075116344 -0.055049364 0.025590869 -0.02568662 0.030112786 -0.038960647 0.0028513065 -0.009522357
0.00017131153 0.00784178 0.059255674 -0.017491188 -0.040163916 -0.036222838 -0.026961783 0.047631875
-0.033694554 0.0024426926 -0.0035385224 0.012257412 0.0066451794 0.0033094408 0.006201985 0.04807476
-0.040932078 0.0032408088 0.055136368 -0.010367465 -0.06550655 -0.04236264 -0.0327848 0.051301554
0.020395303 0.052778143 -0.0060892864 0.02519693 0.02903465 -0.007318592 -0.038285203 -0.031240309
0.012706836 -0.053683087 -0.026309 -0.028618827 -0.026622491 -0.0010888531 0.03594318 0.07079209
0.008769525 0.06870077 -0.0061427807 -0.043105677 0.017407259 0.011409111 0.008270665 -0.022186115
00000000: 491d 6f3d aeb3 713d 19b0 41bd 3975 ab3c
00000010: 6b6b 6dbc adc9 f83c 15c3 2dbd b811 ef3c
00000020: f826 a33d 9c79 5ebd 4cc3 223d ca91 733d
00000030: 46a4 b33d 79e7 4a3c a0c9 093d e582 883c
00000040: e097 34bc ff32 ed3c c325 e23c 9894 43bd
00000050: 0cbd 8abc fbb4 00bd 9278 6ab9 b992 7bbc
00000060: 7f5f 8c3c a90f f7bc 8593 233a cf4b 16bd
00000070: 2151 943c bacc 9abd d920 003d b42a 83bd
00000080: ba0b 663c 1e5f e1bb d9dc 1f3d 8a1c 343c
00000090: 3ada 2dbc 9656 d23c b47b fe3c 1f4d 19bd
000000a0: 8494 333d 5755 83bc fda1 953d 1559 0b3c
000000b0: b1c8 5d3d f700 48bd db9d 203d b52e 21bd
000000c0: fe78 443d b0ac a53c d34d 36bd b2f8 57bd
000000d0: 4a41 e7bc 4e09 aa3d b6fc 4e3d f543 e73c
000000e0: a8fe 8dbc 1565 8e3d b577 37bc fcea 3fba
000000f0: ee24 f2bc 6f15 b4bc 6272 b2bb 8427 04bc
00000100: 41be 863d 1e32 69bd 800a 5c3d c509 ff3c
00000110: 8e2f 843c f40d 01bd 9aec 713c e4de 1dbb
00000120: 69e3 b93d 44f3 96bd 99a1 d5bc acbd 35bd
00000130: 20e2 18bd ebc2 6d3c b60a 663c bd2c 533d
00000140: 13e5 8c3c 058b 00bc 566a 5c3d e900 103d
00000150: 1d71 4f39 b705 11bd ad7a 653b baee 8dbd
00000160: 29af 83bc c401 86bc 3de3 56bc 75ef b13c
00000170: f2f5 8abc 295f 723c 05d4 78bd e47f 3cbd
00000180: a434 3e3d a85a 0e3d 0806 61bd 47d3 58bd
00000190: ab91 923b 9625 08bd e524 863b ed39 08bd
000001a0: 1ccb 243d 93f7 3bbc 6eec 62bd 8b8c 3f3b
000001b0: 51e9 8ebd 51c2 893c 7b5e 633d 25fb c93c
000001c0: d7be 1d3d 6bcb 58bd 3a8c 2bbd 4e4e 8db9
000001d0: a55a 63bb afc5 2fbc 6f35 b33c 85fa 03bd
000001e0: 9ff0 a6bc 7f89 debc c415 abbc 00d0 24bd
000001f0: 98a0 2dbd b066 1abc 19f5 5bbd 6da6 3cbc
00000200: f854 fc3b c453 493d af6e 923d 20f2 5e3d
00000210: afc4 9dbd 5b43 f93c d443 9d3c ed52 a2bc
00000220: 629c 59bd e1ca 22bd ec9a 203d 5d20 1ebd
00000230: 048e 443d f603 02bd 51fe 8d3d 688a 0dbb
00000240: 7354 8abd 5060 28bb f51d 903d e2e7 1c3d
00000250: 46ba 353d 0cc9 e3ba bf30 033a 0624 b9bb
00000260: 4831 db3c 1ebd 31bc 6877 ba3d 11e1 c93b
00000270: 2a7f 283d fcff 8f3d 1190 b73b 6863 5abd
00000280: 4e2f f83b 6a4c d73c eae9 59bc 143e 84bc
00000290: 2259 3d3c b1ef 133d 614b 913c 71d6 183d
000002a0: 3053 9cbc a5a2 973c e004 ca3b 4575 c93c
000002b0: eec7 28bb 0e53 fd3c 0963 33bd b3de 9c3a
000002c0: 95ec 123b 4aba dc3b ebba 393d 70db a6bc
000002d0: 9727 41bc 736d 053c 28d4 f9bb 4064 baba
000002e0: 7cd4 733c 1c8e 023d bd9c 8b3d 9478 23bd
000002f0: 1976 063d 37f2 43bc 6558 213c 023e 0a3d
00000300: 9797 ee3c 59e7 b93c 4155 07bc 3a9c 36bc
00000310: 52d9 393d 85b2 0b3d 092b 373b 01c1 e5bc
00000320: 99d6 99bd 717b 61bd f1a3 d13c bf6c d2bc
00000330: 17af f63c 3395 1fbd fcdc 3a3b a903 1cbc
00000340: 17a2 3339 cf7a 003c 14b6 723d ae49 8fbc
00000350: eb82 24bd 665e 14bd f5de dcbc a419 433d
00000360: 4d03 0abd 9515 203b 8ee6 67bb 50d3 483c
00000370: cebf d93b 34e3 583b 053a cb3b 0aea 443d
00000380: 65a8 27bd c063 543b acd6 613d 4ddc 29bc
00000390: 4c28 86bd 7384 2dbd 5b49 06bd 9421 523d
000003a0: 0d14 a73c e52d 583d a388 c7bb cb69 ce3c
000003b0: 13da ed3c cdd0 efbb f2d0 1cbd adeb ffbc
000003c0: 5530 503c cce2 5bbd f985 d7bc 0872 eabc
000003d0: 6917 dabc d9b7 8eba 2839 133d 71fb 903d
000003e0: 0eae 0f3c fdb2 8c3d 6149 c9bb 948f 30bd
000003f0: ab99 8e3c 48ed 3a3c af81 073c a8bf b5bc

model.bias f4 [3]
-0.007200974 -0.06955167 0.019426271
00000000: 26f6 ebbb 1b71 8ebd d823 9f3c
