kaggle_saved_models_full_2cores/LinearModel/LinearModel2/LinearModel2.ckpt (torch, 9319 bytes, 2 tensors)

model.weight f4 [3, 512]
00000000: 524d 443d 4b2a de3c 5b23 203c af07 ef3c
00000010: d096 bd3b bba5 fcbc d844 6f3c f4f6 dd3c
00000020: 6238 853c 6450 04bd c9fb 753d e509 c43c
00000030: 9176 573d bdb8 e3bc 33c6 783c a67a bb3c
00000040: a111 7e3c 981f 813b 3bf5 6ebc 9a13 803c
00000050: 29c9 1abc 167b 27bc 3b03 5e3d b95d 0f3c
00000060: 4eff fdbc a1ef b8bc 4237 74bd 8bf6 5abb
00000070: 6d08 27bd 432f 38bd e8d5 df3a 39b7 00bd
00000080: 50eb 3a3d 2e87 42ba 1aa7 6bbc 1976 2d3c
00000090: b8f5 0ebc 49d2 233d 16ce d1bb d14c 59bc
000000a0: 0a32 52bc 671a ad3c f7c5 813c ebd0 333d
000000b0: c586 be3c a03a 50bc caf1 5b3c 9726 b43c
000000c0: 3d61 093c 74be 18bd 1177 13bd e60f 9ebc
000000d0: 32a9 df39 ed29 2a3d 110b 91bb b875 8e3c
000000e0: fa51 813c 9217 a0bc 4afb 9f3c 1603 3abd
000000f0: 445c 313c f73b c03c 11f9 31bc 74bf e2bc
00000100: 23ba c03c 93f0 623c 003a 4a3d a370 943c
00000110: 29b7 95bc a532 91bc 2e03 613c 8c4c b83a
00000120: 586d e53c 0f44 9cbd d6e1 e1bc f81c 3ebd
00000130: faf0 a4bc 5d9e 093d 8267 6b3c 372e 5b3d
00000140: c8c9 20bd b12e bbbc 9d6e 363d cc15 8abc
00000150: 7ffd 62bc b373 e73b 6b12 433d b12a 23bd
00000160: fb74 01bd 7209 4d3c a52c e83b d596 66bc
00000170: 32ca 583d 6372 d93b 73dd 10bc c845 acbb
00000180: 15db 4a3d c5d3 de3b 487f f5ba e04e 59bc
00000190: c243 92bc 78c2 dabb 4cf3 eb3b fd91 2fbc
000001a0: 04f3 a6ba 7af7 c9bb 1ff7 aebc 7eba 3abd
000001b0: 0cf8 36bd 6664 9cbd dc94 8a3c 576d de3b
000001c0: 721f 033d 2c26 4bbd df2c 70bc a1e5 acbc
000001d0: 1725 b43c 17f9 40bd 541d 58bd c0a5 20bb
000001e0: 432f d9b9 d621 fa3c b2d5 06bc 6432 09bd
000001f0: 2289 5dbc 61f0 2bbd 9c8e c73a c2b5 e2bc
00000200: 7cfd 183d 1653 3abd 6ccd 4e3d 1bba 653c
00000210: 2c77 ccbb fdd8 c33c 0d17 02bd 9bec 273c
00000220: 2e7d 29bd 56d4 c5bc 87bd 083d e2b2 fd3c
00000230: e450 5e3c 3285 55bd ac36 c83c eb8a 01bd
00000240: 248f 66bc 9c09 1a3d 2fdd 2dbc efa7 203d
00000250: a334 503c c4b6 c8bc 4579 a93b 461f d43b
00000260: 3f94 a2bc d51e a5bc dd62 2e3d 531c 14bd
00000270: b066 6b3a c836 ad3c 8c80 a53c f52f 91bc
00000280: 9c02 6d3d 4ef0 9437 5753 b0bc 913f afbc
00000290: 3b5c b13b d565 223c cd9c 7fbc a502 7d3d
000002a0: 4d3f e5b9 5f15 7ebc e068 33bd be05 9dbc
000002b0: 718e 283d 0145 e9bc 5644 f3bc 0d7d 093c
000002c0: 95f6 80bb 638e c1bb b434 b23c 3193 cdbc
000002d0: b009 8d3b 25f4 08ba 43a6 9f3b d9e6 39bd
000002e0: a8da 143c 08dc c13c acea c93c 7da5 433b
000002f0: a654 b73c 6c0b 12bc 8155 09bd cd5c 54bb
00000300: 37d6 113d 6a1f 3e3d 910b 5e3c b764 37bc
00000310: 0f56 18bc f9dc ea3b a6e8 2cb9 b9b3 8e3c
00000320: c398 49bc e699 07bc 00a4 433d 2620 3b3c
00000330: 6be4 45bc 8b4b 43bd b6a9 f9bc eb5f a7bc
00000340: 7a38 fdbc 42b9 e7bc fa72 243d cde4 043d
00000350: 88b5 5cbd 5635 81bc 46a1 3f3d 598a ce3c
00000360: 3921 0ebd 1aff 6ebc 4308 663c bfaa d0bc
00000370: 428f a43b f466 fd3c 9185 d8bc d1ab c33a
00000380: 702f 283c a2f7 dd3c 6741 413d d041 c53c
00000390: b0e7 18bc e5b5 0dbd 5988 a8bc 3592 dd3c
000003a0: 6f60 f83c de18 e93c 8394 cd3c b0bd 5ebc
000003b0: fce7 4d3c c1bd 563b 219b f6bc 1dfc e4bc
000003c0: a65a 8b3b 2c22 e3ba f584 a3bc d03c 9f39
000003d0: ea2a e2bc 2b1d 01bd d536 34bc 4ed2 063d
000003e0: 1cca 1bbd 8beb 24bd d032 1fbc 4cc5 593d
000003f0: 9158 33bd 2692 6dbd 75d7 3dbd 5da3 313b
0.0479253 0.027119776 0.009774054 0.029178469 0.0057858005 -0.030840745 0.014603816 0.027095295
0.016262237 -0.03230323 0.060054574 0.0239305 0.052603308 -0.027798051 0.015183973 0.022885632
0.015507133 0.003940534 -0.014584835 0.015634347 -0.009447374 -0.010222217 0.0542023 0.008750373
-0.031005528 -0.022575201 -0.05962301 -0.0033411111 -0.04077952 -0.044966947 0.0017077299 -0.031424735
0.045634568 -0.0007420656 -0.014383102 0.010587239 -0.008725576 0.039995465 -0.006402741 -0.013262943
-0.012829313 0.021130754 0.015841467 0.04390041 0.023257622 -0.01270929 0.013424346 0.021991057
0.008385 -0.037291005 -0.036002222 -0.01929469 0.00042659935 0.04154389 -0.004426368 0.017390117
0.01578616 -0.01954249 0.019529004 -0.0454131 0.0108252205 0.023466093 -0.010862605 -0.027679183
0.023526257 0.013851303 0.04937172 0.018120116 -0.018275814 -0.017724345 0.013733668 0.0014060899
0.02800624 -0.07630169 -0.027573507 -0.046414346 -0.020134438 0.033598293 0.01436794 0.05351087
-0.039254934 -0.022849413 0.044539083 -0.016856097 -0.0138543835 0.007063353 0.047624987 -0.039835636
-0.031605702 0.012514459 0.0070854 -0.014074047 0.052927203 0.0066359504 -0.00884186 -0.005257342
0.04952534 0.0068001472 -0.0018729949 -0.013263434 -0.017854575 -0.0066760145 0.007200634 -0.010715959
-0.0012737219 -0.0061635347 -0.02135807 -0.04558801 -0.04467015 -0.07636337 0.016916685 0.0067879367
0.03201241 -0.04959695 -0.014659136 -0.02110559 0.021990342 -0.04711255 -0.052762344 -0.0024512857
-0.00041424678 0.030533712 -0.00822966 -0.033495322 -0.013521465 -0.04197729 0.0015224996 -0.02767456
0.037351117 -0.045489393 0.050488874 0.014021422 -0.0062397923 0.023907179 -0.031760264 0.010249282
-0.041379146 -0.024149101 0.033383872 0.030969087 0.0135690905 -0.052128978 0.024440132 -0.031626623
-0.014072213 0.03760682 -0.010611816 0.039222654 0.012707862 -0.024501212 0.005171927 0.0064734546
-0.01984608 -0.020156303 0.042574752 -0.036159825 0.000897984 0.021144286 0.020202897 -0.017723063
0.057863817 1.7754875e-05 -0.021524115 -0.021392616 0.005412606 0.009911974 -0.015601349 0.0617701
-0.00043725446 -0.015508025 -0.04380119 -0.019167777 0.041151468 -0.028475286 -0.029695671 0.008391631
-0.003935645 -0.0059068664 0.021753646 -0.0250946 0.0043041334 -0.00052243687 0.004872115 -0.04538617
0.009085335 0.02366449 0.024648033 0.0029853277 0.02237923 -0.008913856 -0.03352881 -0.0032403946
0.03560468 0.046416678 0.013552562 -0.011193446 -0.009297862 0.0071674553 -0.00016489867 0.017419683
-0.012304488 -0.008276438 0.047763824 0.011421239 -0.012078385 -0.047679465 -0.030476432 -0.02043148
-0.03091072 -0.02828658 0.040148713 0.032444764 -0.05388406 -0.015772503 0.04678466 0.025212454
-0.034699652 -0.014587188 0.014040056 -0.025472043 0.0050219605 0.030932881 -0.026430877 0.0014928525
0.010265216 0.02709562 0.047181513 0.024079233 -0.009332582 -0.034597296 -0.020572828 0.027047256
0.03031942 0.02845424 0.02509523 -0.01359503 0.012567516 0.003276691 -0.030103268 -0.027952248
0.0042527495 -0.001732891 -0.01996086 0.00030372152 -0.027608354 -0.031521957 -0.010999401 0.032915406
-0.038034543 -0.040263694 -0.0097167045 0.053166673 -0.043785635 -0.058000706 -0.046348054 0.0027105429

model.bias f4 [3]
00000000: b96c 543c a87a a2bc 4fce e1bc
0.012965375 -0.019833878 -0.027564196
