kaggle_saved_models_balanced/LinearModel/LinearModel21/LinearModel21.ckpt (torch, 9319 bytes, 2 tensors)

model.weight f4 [3, 512]
00000000: 0150 243d 376b 973c fa28 9cbc 46e3 0d3d
00000010: 0134 c439 3e87 d33c b840 73bc bd65 883c
00000020: 864e ea3c 2e1a 40bd a25b f63c a3fe 90ba
00000030: 8a48 933c 92c2 7a3b 15c5 f73c cdc2 bebc
00000040: e4ab 053d b2f4 8e3c ace8 09bd 3ad7 553c
00000050: 5430 ddba c738 003b 463e 39bc 89a0 553d
00000060: fb6c adbc d453 08bb e7ed 3ebc e9f6 d5bc
00000070: 16dc 09bc 3aac 47bd 8c14 343d 3ea2 3ebd
00000080: 53b8 163d 9166 963c d082 2ebb cacb e23c
00000090: c2fe 5dbb b117 4e3d 4d98 103b ebdb 413c
000000a0: ea5e 9c3c 153b b93b 9e2a 1c3c 5086 cc3c
000000b0: 20de 383d 97dd 97bc 5de6 e33c c5f1 8b3c
000000c0: b28e 393d 7e8a 74bc 4c56 01bd 4871 74bc
000000d0: 0e8b 3abd 0a46 113d 3376 503c 349a acbb
000000e0: f1b4 5d3b 6c9e 373c 32b9 1c3d f648 eebc
000000f0: b068 9abb 295f 2abd 608b bd3c 5745 403c
00000100: 64e9 893a 8abb a3bc f27d 113d ecf1 8ebc
00000110: c3d4 afbc bdb9 84bc 78ee c63c 829c d83c
00000120: 51d6 f83c 72a0 95bc 3699 1abd e0f6 c5bc
00000130: 50b5 c9bc 98d9 453c 1568 983c 4f1c f33c
00000140: 5a90 9fbc 0bc3 79bc 8c3b 883c 3905 b8bc
00000150: 72a6 453d ad77 713a 4ef9 0f3d 1137 cbbc
00000160: 22c1 80bc 35b1 81ba 758c 8fbb c14d 81bb
00000170: bc76 0e3d db56 0a3d 0490 dabc bcff c7bc
00000180: a4aa 153d 0ef0 29bd 0331 943a eeba a6bc
00000190: 933e ccbc 2a5a 673c 7ddc 163c 4dd4 64bc
000001a0: be8c d1bb 0d52 00bd 30d3 eebc 015b 5abc
000001b0: fce7 24bd e2fa 07bd 1340 143d f686 5d3c
000001c0: 206e 483b 64c7 2dbd b3da 7ebc a1bc 08bd
000001d0: 3cb9 01bc 14a6 47bd 5519 2ebd 1719 3cbc
000001e0: b52f 4c3b 0de3 0abd b071 183b 6963 8bbc
000001f0: 6e3b 82bc 7713 2ebd 8341 93bc d7c9 00bc
00000200: 4809 c33c de03 143c 2ee1 6d3d 4347 8f3c
00000210: c94c 24bd 14ca 893d bcdd a5bb 81ef 4ebc
00000220: 1bb0 bdbc aacf 0bbd 40ab f5bb 01b8 cbbc
00000230: f6c0 a93c 06e8 1bbd a920 bf3c 83ea 8fbc
00000240: 6f23 2b3c 9daf 803b be77 f63c 455e 233d
00000250: 85c8 083d 486e 18bc 9284 793c 1566 d6bc
00000260: 158f a63b eb0c 0bbd 646c ef3c 6aaa 5cbd
00000270: faa7 493c c0cc f63c 83f5 c93b b658 10bd
00000280: 6001 273d 79a0 febb 19f9 843c d0a8 5cbc
00000290: dc99 133c be74 7ebb 855e 93bb 4148 3f3d
000002a0: 4848 1d3c 06f7 d8bc b0c1 79bc fe88 aa3b
000002b0: 7894 e93c 93bc 6ebb ca8f f3bc 22ec a1bc
000002c0: 2b9e 7fbd 98c9 383c 2510 2f3d d01a 37bd
000002d0: 3844 a83c 6cb0 ff3b f7d9 883c 18d2 bfbc
000002e0: 3d6a f23c caa4 003d 4842 973c b5ef 68bc
000002f0: 1008 05bc 9b87 c43c e9eb bdbb d761 653b
00000300: 9d96 bd3c 8ec2 203d 7b9d 293c 4503 95bc
00000310: e5c2 97bb a279 063c a958 57ba e38c 78bb
00000320: 7815 23bd 4398 44bc f991 753d 1241 a43c
00000330: f2fd 20bc 6331 05bc 823f b6bc 0f28 49bd
00000340: ef08 9bbc c694 c43c cb3c 9c3b 3607 453d
00000350: 3187 2bbd 29e5 07bd e6a7 02bc 1899 613d
00000360: 18fd 973c 8b45 49bc 3be5 ff3c f46d f2bc
00000370: b1a8 00bd 501b 2d3d 7c20 2abd 0c84 f63b
00000380: f582 e9bc 7c04 9b3c 00f1 323d 00e7 f13c
00000390: c717 abbc 8ab0 edbc 2551 06bd f817 de3c
000003a0: 7967 7a39 e95e 063c faee 553c 5656 b5bb
000003b0: 0aad 2cbc f0d8 9abc 9c65 27bd 8822 41bd
000003c0: 25a9 553c 8033 d4bb e4c5 96bc df06 f1bc
000003d0: e610 f2bc a70a 97bc b0e4 bfbc d50c e23c
000003e0: cd30 b6bc 814d 843c e7ba cfbc 190f 04bd
000003f0: bd41 93bb 50ce 8bbc 2ed8 75bc 9940 3cbd
0.04011536 0.018483741 -0.019062508 0.034640573 0.0003742278 0.025821324 -0.014846973 0.016650075
0.028601896 -0.046899967 0.03007299 -0.0011062216 0.017978925 0.0038262946 0.030245343 -0.023286248
0.03263463 0.017450664 -0.03366916 0.013051802 -0.0016875365 0.0019565092 -0.011306351 0.05215505
-0.02117013 -0.0020801919 -0.0116534 -0.026118712 -0.008414289 -0.048748232 0.043964908 -0.046541445
0.03679688 0.018359454 -0.0026628263 0.027685065 -0.0033873771 0.050315563 0.0022063435 0.011832218
0.019088227 0.005652795 0.009531645 0.024966389 0.04513371 -0.01853828 0.027819807 0.017083058
0.0453021 -0.014925597 -0.03157644 -0.0149195865 -0.04554277 0.035467185 0.012723493 -0.005267406
0.0033829773 0.011207204 0.038262554 -0.029087525 -0.0047121868 -0.041594658 0.023137748 0.011735282
0.0010521826 -0.019986887 0.0355205 -0.017449342 -0.021463757 -0.016201848 0.024283633 0.026441816
0.030375632 -0.018264983 -0.03774377 -0.02416557 -0.02462259 0.012075804 0.018604318 0.029676585
-0.019478012 -0.015244256 0.016629957 -0.022463428 0.048254438 0.00092112535 0.035149865 -0.024806531
-0.015717093 -0.0009894731 -0.0043807575 -0.0039460366 0.034781203 0.033774238 -0.02668 -0.024413936
0.03653969 -0.0414887 0.001130611 -0.020352807 -0.024932181 0.014120618 0.009207842 -0.013966632
-0.0063949516 -0.03132825 -0.029153436 -0.013327361 -0.0402603 -0.033198245 0.03619392 0.013520947
0.0030583218 -0.04242648 -0.015555072 -0.033383016 -0.0079176985 -0.04874237 -0.042504627 -0.011480591
0.0031156365 -0.03390794 0.0023261122 -0.017015176 -0.015897479 -0.042499032 -0.017975574 -0.007860622
0.023808137 0.009034125 0.058076076 0.017490035 -0.04011229 0.067279965 -0.005061833 -0.012630344
-0.023155263 -0.03413359 -0.007497221 -0.024868013 0.020721894 -0.03806307 0.023331003 -0.017567879
0.01044546 0.0039271847 0.030086394 0.039884824 0.033394355 -0.009303637 0.015229361 -0.026171723
0.0050829747 -0.033947866 0.02922649 -0.053873457 0.012308115 0.03012693 0.0061633005 -0.03524085
0.040772796 -0.0077705947 0.01623206 -0.013467982 0.009008851 -0.0038826908 -0.0044973516 0.046699766
0.009599753 -0.026484977 -0.015243933 0.005204319 0.028513178 -0.0036428317 -0.02973165 -0.019765917
-0.0624067 0.011278532 0.042740006 -0.044703305 0.020540342 0.0078030135 0.016705496 -0.02341561
0.029591674 0.031407155 0.018464223 -0.014217307 -0.008119598 0.023990443 -0.005795945 0.0035000944
0.023143107 0.03924804 0.010352488 -0.018190036 -0.0046313875 0.00820771 -0.00082148105 -0.0037925772
-0.039815396 -0.011999193 0.059953663 0.02005056 -0.00982617 -0.0081294505 -0.02224708 -0.04911047
-0.018925158 0.023996722 0.0047679893 0.04810258 -0.041876975 -0.03317753 -0.0079746 0.055077642
0.018553302 -0.012284647 0.031237235 -0.029593445 -0.031410877 0.042262375 -0.041534886 0.0075230654
-0.028504828 0.018923037 0.043686867 0.029529095 -0.020885361 -0.029014844 -0.03279223 0.027111039
0.00023880404 0.008201339 0.013057465 -0.0055339737 -0.010539303 -0.018902272 -0.040868387 -0.047152072
0.0130408155 -0.006475866 -0.018404908 -0.029422222 -0.029549073 -0.018437697 -0.023424476 0.02759401
-0.022240067 0.016150238 -0.025357677 -0.03224096 -0.0044939206 -0.01706615 -0.015005155 -0.045960043

model.bias f4 [3]
00000000: 2d55 613b 30d5 b0bc 1a06 8abc
0.0034383044 -0.02158603 -0.016848613
