kaggle_saved_models_full_8cores_acc/LinearModel/LinearModel3/LinearModel3.ckpt (torch, 9319 bytes, 2 tensors)

model.weight f4 [3, 512]
00000000: 80bb 4fbd 6dab 063c 0a68 8ebc 6ab7 313d
00000010: 49a9 453c c3de 573c c639 913c eb17 85bd
00000020: 93d0 973d b6b4 65bd ac3e 333d e5c8 f5bb
00000030: 5627 663d 7af8 04bc bb4e 83bb 27ad 07be
00000040: be35 883d af4e 8e3c ec52 403d f993 8c3c
00000050: b40a 92bb 37a9 ec3b 0df7 db3c bfd5 053d
00000060: ff92 453d 16b3 bcbc f303 803c 94ad adbd
00000070: 8806 6e3c 58b7 92bd c4d4 c13d ac35 5ebc
00000080: e73b ad3a 748a 51bc 86c9 41bd f8e6 093c
00000090: 8c19 32ba a36d 883c 14db 06bc 17ae 233d
000000a0: e0a3 87bd 2804 afbc 58fd 74bd 1c91 39bd
000000b0: 4b29 b53d 7f11 4bbd d9b5 f0bc b295 2a3d
000000c0: af12 7f3d b320 f83b 939e adbd 5a18 413c
000000d0: c858 aabc 6d04 cf3c 61a2 053c e42d 02bd
000000e0: 916b c53a cd49 2cbd d47d f5bc efdf a43c
000000f0: e6e8 643c 3643 91bc 8574 9b3c 59d1 073d
00000100: 6217 733d f3cc a23d 8924 0f3e 7b13 68bd
00000110: ce89 62bd 7d41 613c 5457 96bc bc08 cfbc
00000120: 4349 6c3d 1920 94bd 51d9 75bc bc97 bcbd
00000130: 7104 f7bc 3972 9b3d 9a18 9c3c bd26 fa3c
00000140: 05fe 803d a949 cdbc 594b ac3c 88f7 acbc
00000150: d454 2f3d 74ea 543c 6ada f73c 2139 473d
00000160: 23af f0bc b903 633d 01b8 433d 7331 40bd
00000170: a66a 923c 03d0 c6bb 243e 3cbd c558 17bd
00000180: 466e 183d 15bd 4bbc 2938 c5ba 2509 7bbd
00000190: 7fab 46bc 485c 9e3c e240 1dbc 07d9 2ebc
000001a0: e924 cc3c d908 403c 34ee 41bd 0852 60bd
000001b0: 87b9 063c 2710 4d3b 9590 2a3d 2bb4 023d
000001c0: 5ab2 933d 76ec d1bc 0520 31bd af4d 9abc
000001d0: 63c1 2d3d 5a61 86bd 1695 a6bd 4190 ceba
000001e0: a3c8 463d 798b b43b ae63 343c e962 503b
000001f0: 20b3 773c f395 0fbc b5da babc 7a20 323d
00000200: ef88 d73c acb0 2cbc c610 92bc b162 723c
00000210: 051d 1ebd 045b 213d 8376 683b 085f 3fbd
00000220: a7bb 913c 138d fe3b ec1d c23a 341a 403d
00000230: fb2a e63d a8d2 143a d0fd 293d f614 4f3d
00000240: f48c 44bd 7be3 d5bb 5b96 a5bc 22e1 963d
00000250: 451c a33c 7875 48bc 0b34 6d3d 01e6 28bd
00000260: adae d5bc 8d83 5c3c 8992 d33c e0fe 8a3c
00000270: fb7a cf3b 4e7a 42bc f187 1abd 4cfc debc
00000280: f556 f43c ae5a 633d d17d e7bc 7763 cdbc
00000290: 8bd9 7fbc e14c ee3c 9ceb 4ebd 6d68 933d
000002a0: b13a 17bd de03 423c 69cc 23bd 9367 f5bd
000002b0: 2bbc 613c a899 5fbd 015a 3cbd ec29 2cbe
000002c0: 295f 05bd 8e5b 3f3d 6a6f cb3b bbbb 19bd
000002d0: 738b 80bc 41c4 8dbc 7afa 633c 5de4 6d3a
000002e0: fbb9 563d bef4 07bb e223 d73d 71a5 8abb
000002f0: 8192 513c add1 e73c f4a9 ea3a 6bf8 203d
00000300: bdf1 a83d 8a16 c53c 73dd 93bd f4da efbc
00000310: 0c80 b2bc 0c4a ddbb 4b1e 8d3c 233f d4bc
00000320: a24e 5fbd a972 5f3c 06dd e63c 0eae 6a3d
00000330: 0a3b 4c3d d21d 67bc 82c6 0bbc a865 94bd
00000340: 73bd aabd 64d2 7f3d 9a71 013d e069 c03c
00000350: c613 aebd 813b 42bc a0ed a9bc 9eb7 833d
00000360: be6a 95bc 7586 2abd 4501 463d d4cd b33c
00000370: b534 0bbd aba9 243d f890 9e3b c92e 9a3c
00000380: c731 12bd 5e45 a43c a7d3 b83d 700c 2c3d
00000390: 46de 6dbc adfe 12bc 09e6 d3bc d80a c1bc
000003a0: 2e23 0e3d aa7b 583d 610b 883c 8d16 a03d
000003b0: cbd3 4bbc a995 2abd ce75 86bc 5df9 c7bd
000003c0: 7dcf aa3c f725 91bc 66ee 193d 1ab9 77bd
000003d0: 1ea1 5fbd cef1 cdbc 32ff 6abc 5170 2f3d
000003e0: c5ea e93c 5ab3 943d 51f8 e53c ef1a 5dbd
000003f0: f537 64bd 924f 6ebd 14d1 efbd e20f 373d
-0.050715923 0.008219582 -0.017383594 0.043387808 0.0120642865 0.013175669 0.017727744 -0.064987026
0.07412829 -0.056080543 0.04376094 -0.007500755 0.056189857 -0.008115882 -0.004007188 -0.13249646
0.066508755 0.017371504 0.04695408 0.017160403 -0.0044568423 0.0072223204 0.026851201 0.032674547
0.04823589 -0.023034614 0.015626883 -0.08480373 0.014527924 -0.07163876 0.0946441 -0.013562601
0.0013216705 -0.012789357 -0.04731133 0.008416884 -0.0006793968 0.016653841 -0.008230943 0.039960947
-0.066230536 -0.021364287 -0.05981192 -0.045304403 0.08845767 -0.049577232 -0.029383587 0.041646667
0.062273677 0.0075722574 -0.08477511 0.011785591 -0.020794287 0.025270665 0.00815639 -0.031782046
0.0015061965 -0.04206257 -0.029967226 0.020126311 0.013971543 -0.017732244 0.01897646 0.033158634
0.05934847 0.07949247 0.13978781 -0.056659203 -0.055307202 0.013748524 -0.018352188 -0.02527272
0.057687055 -0.07232685 -0.015005426 -0.092086285 -0.030153485 0.075901456 0.0190547 0.03053605
0.062984504 -0.025059538 0.021032022 -0.021114126 0.042805508 0.012995351 0.030255515 0.048638467
-0.029380387 0.055423472 0.0477829 -0.04692216 0.01787312 -0.0060672774 -0.0459577 -0.03694989
0.03721454 -0.012435217 -0.0015046644 -0.061288018 -0.012125849 0.019331113 -0.009597989 -0.010671861
0.024919944 0.011720859 -0.04734631 -0.05476573 0.008222944 0.0031290145 0.04164179 0.031910103
0.07211752 -0.025625449 -0.043243427 -0.01883587 0.042420756 -0.06561537 -0.08133905 -0.0015759544
0.048531186 0.0055097905 0.011010094 0.0031797236 0.01511839 -0.008763778 -0.022809366 0.043488003
0.026310412 -0.010540169 -0.017830264 0.014794038 -0.038601894 0.03939344 0.003547103 -0.04672149
0.017789675 0.007768282 0.0014809943 0.04689999 0.112386666 0.0005677142 0.04150182 0.0505571
-0.047985986 -0.006527362 -0.020213297 0.073671594 0.01991094 -0.012235038 0.05791096 -0.041234974
-0.026084268 0.0134590985 0.02582671 0.016967237 0.006331799 -0.01186998 -0.0377273 -0.027219914
0.02982662 0.0555064 -0.028258236 -0.025071843 -0.015615831 0.029089393 -0.050517663 0.07197652
-0.036921207 0.011841742 -0.039989863 -0.11982646 0.013777773 -0.054589897 -0.045984272 -0.16812867
-0.032561455 0.046718173 0.00620835 -0.03753255 -0.015691495 -0.017305495 0.013914699 0.00090748613
0.05242346 -0.0020745243 0.10504891 -0.004231148 0.012791277 0.028298223 0.0017903433 0.03929941
0.08249233 0.024058599 -0.072199725 -0.02927921 -0.021789573 -0.006753212 0.017226359 -0.025909012
-0.05451835 0.013638177 0.028181564 0.057294898 0.04986099 -0.014106231 -0.008531215 -0.07245952
-0.08336916 0.062456504 0.03160248 0.023487985 -0.08499865 -0.011855007 -0.020743191 0.064315066
-0.018239375 -0.041632134 0.048341054 0.021948732 -0.033985812 0.04020087 0.004839059 0.018821137
-0.035692003 0.020052608 0.090247445 0.04200405 -0.014518326 -0.008971852 -0.025866525 -0.023564741
0.03470152 0.05285231 0.016606988 0.07816801 -0.012440632 -0.041646633 -0.016413596 -0.09764359
0.020850891 -0.017718298 0.03758087 -0.06047926 -0.054597013 -0.025139716 -0.01434307 0.042831723
0.02855433 0.07260771 0.028072508 -0.053980764 -0.055717427 -0.058181353 -0.117098 0.04469288

model.bias f4 [3]
00000000: 755b 213c 4fa2 bdbc d5ee a2bc
0.009848465 -0.023148684 -0.019889275
