kaggle_saved_models/LogisticRegression/LogisticRegression0/LogisticRegression0-v1.ckpt (torch, 11367 bytes, 2 tensors)

model.weight f4 [4, 512]
0.1023334 -0.012125714 -0.11316326 -0.004964248 0.0021999038 0.06986067 -0.01381447 0.060018044
0.12381483 0.022603272 0.06698874 0.00081968744 0.07690695 0.044781525 0.07801333 0.037817746
0.013681804 -0.15644467 0.022506882 -0.029391157 -0.063738 -0.03405573 -0.023564665 0.09507688
-0.03146115 -0.19653668 -0.09565922 -0.099763796 -0.0010327873 -0.07301091 0.10332421 -0.07894346
-0.14178026 -0.010538655 0.0772957 0.05278808 0.07284927 0.11174499 -0.12205637 -0.071902156
-0.022361018 0.011376123 0.005883272 0.13126235 -0.012594739 -0.011162684 -0.008627182 0.016122824
0.09481632 0.09965131 0.03867416 -0.07949122 0.00025161423 -0.070753336 -0.00079233584 -0.0025654533
0.002174496 -0.027194 -0.051170383 -0.08611805 0.036013886 -0.057907272 0.09692789 0.0040310733
0.0023434984 -0.08710217 0.03781536 0.05046044 -0.051637005 -0.09722524 0.0665898 0.15129337
0.051109094 0.066376425 0.025235651 0.00811647 0.09095019 -0.14174809 -0.0073786965 0.06934094
-0.04128279 -0.02757778 -0.014630911 0.09041533 0.008308167 -0.04842926 0.08000132 -0.0024087436
-0.11456055 0.08564177 0.023165096 -0.11933607 -0.10739286 0.121071726 0.0031501104 -0.0037392052
0.04666737 0.027399391 -0.0037487613 -0.016695932 -0.031500127 0.004850372 -0.04082282 0.007949494
-0.07605875 -0.0033636508 -0.076961845 0.035048988 -0.10940234 -0.07524255 -0.044812955 -0.028943328
0.028237738 -0.073246926 0.022228196 -0.066745296 -0.03871612 -0.07413118 -0.103343606 -0.027229449
-0.062054366 -0.0008078242 0.06221336 0.035821255 0.069559306 -0.12831222 -0.016964266 -0.024431301
0.03556429 0.05373225 0.0841398 0.039964095 -0.066678174 -0.0022041397 -0.20331976 0.011201442
0.013754638 0.031011747 0.050959356 -0.12418098 0.037588287 0.09189788 -0.012596882 -0.034569852
-0.04197142 -0.020139059 0.0503921 0.057583313 -0.06811302 -0.104814865 -0.037039407 -0.054136075
-0.07025683 -0.00735408 0.12480141 0.15186526 -0.064669795 0.08998405 0.071472526 -0.0671284
-0.016590523 0.058969986 -0.009750753 -0.1390218 0.018885454 0.019386789 0.0630742 0.0033865706
0.07194873 0.038800728 -0.05992962 0.1189253 -0.008439014 0.06428356 -0.09945149 -0.010785053
0.021866674 0.080106735 -0.076749444 -0.10055953 -0.098836295 -0.10274834 -0.12810147 -0.11004798
0.052638497 0.13467485 0.14922789 -0.026427425 -0.08222468 0.010379166 0.034731273 -0.012327375
0.021062832 0.04967028 0.002584274 -0.024429003 -0.043699306 0.034747526 0.07346403 0.09742988
-0.024930045 0.00801796 -0.005432758 0.06360539 -0.009402719 -0.06865454 -0.012237515 -0.051072504
-0.048420034 0.038156126 0.041038845 -0.07781404 -0.03918104 0.011994879 0.00957824 0.113361716
0.06362867 -9.3965005e-05 0.019763088 -0.030883024 -0.046358943 0.090868816 -0.03510923 0.092370234
-0.08663226 0.04356184 -0.10061362 -0.013764793 -0.1811701 -0.004264274 0.019324655 0.03872608
0.07835362 0.0642001 0.028400833 -0.057407588 0.04284706 -0.05309517 -0.11422158 -0.008881685
-0.10712261 -0.038508147 -0.0199248 -0.078820415 -0.09167142 -0.098675184 -0.040004645 -0.078712426
-0.003552549 0.013576795 -0.02001686 -0.014260423 0.0534214 -0.06244956 0.009992384 0.03949617
00000000: 2c94 d13d eeaa 46bc 24c2 e7bd 21ab a2bb
00000010: 432c 103b 1c13 8f3d 1656 62bc 7bd5 753d
00000020: a192 fd3d 7f2a b93c 6431 893d 4be0 563a
00000030: 6481 9d3d d56c 373d 74c5 9f3d c8e6 1a3d
00000040: a529 603c 0833 20be 5a60 b83c b9c5 f0bc
00000050: 1289 82bd 057e 0bbd af0a c1bc abb7 c23d
00000060: 68dd 00bd e940 49be fbe8 c3bd f650 ccbd
00000070: 975e 87ba be86 95bd a59b d33d 1cad a1bd
00000080: d82e 11be 53aa 2cbc 354d 9e3d 5038 583d
00000090: 0032 953d 8fda e43d b1f8 f9bd 7041 93bd
000000a0: 742e b7bc eb62 3a3c 76c8 c03b a369 063e
000000b0: 2a5a 4ebc b1e3 36bc 0659 0dbc 0314 843c
000000c0: 0f2f c23d fc15 cc3d cc68 1e3d 4bcc a2bd
000000d0: 17eb 8339 20e7 90bd c2b4 4fba 2a21 28bb
000000e0: fd81 0e3b f4c5 debc 0998 51bd a95e b0bd
000000f0: 4c83 133d 2d30 6dbd 2182 c63d 1817 843b
00000100: 6195 193b 9f62 b2bd 47e4 1a3d 9baf 4e3d
00000110: 5381 53bd 071e c7bd 3c60 883d a6ec 1a3e
00000120: c557 513d 5df0 873d ffba ce3c f1fa 043c
00000130: 1844 ba3d 6926 11be fec8 f1bb 9f02 8e3d
00000140: 2518 29bd ccea e1bc 7db6 6fbc ac2b b93d
00000150: fa1e 083c c25d 46bd bbd7 a33d 03dc 1dbb
00000160: b99e eabd f464 af3d bac4 bd3c 7866 f4bd
00000170: caf0 dbbd 74f4 f73d 1572 4e3b 740d 75bb
00000180: 4926 3f3d b074 e03c c7ad 75bb e8c5 88bc
00000190: 4706 01bd dfef 9e3b d435 27bd 983e 023c
000001a0: b1c4 9bbd b270 5cbb 2c9e 9dbd 878f 0f3d
000001b0: 560e e0bd c418 9abd ca8d 37bd 8f1a edbc
000001c0: d452 e73c 7c02 96bd e817 b63c c2b1 88bd
000001d0: cb94 1ebd 17d2 97bd d0a5 d3bd 4b10 dfbc
000001e0: b82c 7ebd 2ac4 53ba 70d3 7e3d 4fb9 123d
000001f0: 1c75 8e3d 4764 03be a5f8 8abc 2724 c8bc
00000200: dcab 113d 5916 5c3d 7d51 ac3d 64b1 233d
00000210: 918e 88bd 5473 10bb 0e33 50be 4186 373c
00000220: 225b 613c 590c fe3c c2ba 503d 9952 febd
00000230: 2df6 193d f534 bc3d 2763 4ebc 1e99 0dbd
00000240: 39ea 2bbd abfa a4bc f267 4e3d 7bdc 6b3d
00000250: d77e 8bbd 2da9 d6bd a2b6 17bd cabd 5dbd
00000260: d0e2 8fbd 7ffa f0bb e297 ff3d 9182 1b3e
00000270: 9971 84bd 8f49 b83d 3060 923d 9d7a 89bd
00000280: d9e8 87bc 838a 713d 9fc1 1fbc bb5b 0ebe
00000290: abb5 9a3c 0bd1 9e3c 0c2d 813d 3af1 5d3b
000002a0: db59 933d 83ed 1e3d c378 75bd 1c8f f33d
000002b0: ca43 0abc 19a7 833d 39ad cbbd cab3 30bc
000002c0: bd21 b33c 000f a43d d02e 9dbd 28f2 cdbd
000002d0: af6a cabd b96d d2bd 082d 03be d660 e1bd
000002e0: 779b 573d 34e8 093e 32cf 183e 547e d8bc
000002f0: 6a65 a8bd 610d 2a3c 6142 0e3d c2f8 49bc
00000300: f68b ac3c 1073 4b3d ec5c 293b 551f c8bc
00000310: 0bfe 32bd 6c53 0e3d 4f74 963d 5189 c73d
00000320: 183a ccbc c35d 033c 4705 b2bb 8b43 823d
00000330: dd0d 1abc c09a 8cbd dc7f 48bc 6731 51bd
00000340: 1654 46bd 9949 1c3d 5918 283d f85c 9fbd
00000350: 4c7c 20bd 2b86 443c 0dee 1c3c 302a e83d
00000360: c04f 823d 140f c5b8 33e6 a13c 65fe fcbc
00000370: e0e2 3dbd 6e19 ba3d b2ce 0fbd 9b2c bd3d
00000380: 416c b1bd e66d 323d 830e cebd ba85 61bc
00000390: a884 39be 53bb 8bbb bd4e 9e3c 3d9f 1e3d
000003a0: dd77 a03d 587b 833d dda8 e83c 3824 6bbd
000003b0: 6680 2f3d 527a 59bd 01ed e9bd 7d84 11bc
000003c0: 1963 dbbd b8ba 1dbd 5639 a3bc 996c a1bd
000003d0: 3abe bbbd 3716 cabd e9db 23bd fb33 a1bd
000003e0: e2d1 68bb 3571 5e3c 66fa a3bc 8da4 69bc
000003f0: 66d0 5a3d 1ccb 7fbd 19b7 233c bcc6 213d

model.bias f4 [4]
0.05595119 0.10801056 -0.06697797 -0.054439098
00000000: 132d 653d a434 dd3d bf2b 89bd 88fb 5ebd
