saved_models/LogisticRegression/LogisticRegression[1 2 3]/LogisticRegression[1 2 3].ckpt (torch, 9255 bytes, 2 tensors)

model.weight f4 [3, 512]
000000 0c 65 3c 3d aa 2d 2c 3d 51 18 cc 3b e2 77 77 3c
       0.045994803 0.042035736 0.0062284847 0.015104266
000010 39 64 d0 bc d6 a5 87 3c 0c 98 4d bd 40 19 22 3d
       -0.025438415 0.016558569 -0.05019383 0.03957486
000020 8a 01 02 3d 9c 57 5c bc 00 df c6 3c 21 c9 fa bc
       0.03173975 -0.013448622 0.024276257 -0.030613484
000030 38 fd e9 3c 33 94 1a 3d f5 a8 70 3c 84 c9 00 3d
       0.028563127 0.03773899 0.01468872 0.03144218
000040 6b 15 21 3d c2 ad 52 3d 89 1c a4 bc 38 ac e9 bc
       0.039327066 0.05143524 -0.020033138 -0.028524503
000050 97 9e 02 bd ee 82 36 3d f2 4a 18 bd 14 9e 49 3d
       -0.031889524 0.044558458 -0.03718085 0.04922302
000060 67 6b 3a 3c e4 58 c5 bc 8b c1 60 bc ab 49 d7 bc
       0.011378146 -0.024090238 -0.013718019 -0.026280245
000070 fa aa 33 bc 88 64 80 bd 7a 5c 18 3c 70 24 76 bd
       -0.010966057 -0.06269175 0.009299392 -0.060093343
000080 ee 8a 84 3b f3 d4 c3 bc 0c 71 f6 3c 25 cb 3a 3d
       0.004044882 -0.023905253 0.030083202 0.04560389
000090 f8 f5 d0 3c 2f 0d f2 39 ce cb a9 ba c5 3c 52 bd
       0.025507912 0.0004616766 -0.0012954415 -0.051327486
0000a0 3d c8 1a 3c 7f 18 4c bc 3b f5 23 3d e2 6a 0a 3d
       0.009447155 -0.012457012 0.040028792 0.033793338
0000b0 62 59 e3 3c 3e dc 1a bd 10 5b 08 3d 61 3e 2a bd
       0.027752582 -0.037807696 0.03328997 -0.041563395
0000c0 b0 78 f0 3c 41 05 24 3c 2b 18 5e bd 9d 2f 0b bd
       0.029354423 0.010011018 -0.054222267 -0.033980954
0000d0 b1 a1 54 bd bc 0e bb 3d e5 58 19 3c 7a ec e6 3c
       -0.051912013 0.0913367 0.009359573 0.028188933
0000e0 a7 2f 20 3d 1e cd 84 3d 65 d4 fb 3c 81 90 86 3c
       0.039107945 0.064844355 0.030740926 0.016426327
0000f0 66 fd 8b 3d 46 ce 83 bd 69 b8 a1 3b e7 cb c7 bc
       0.06835441 -0.06435828 0.0049353135 -0.02438922
000100 ee f3 d8 bc 6e a3 d2 3b 81 69 e8 3c 8c 4f ef bb
       -0.026483502 0.0064281737 0.02837062 -0.007303184
000110 42 2b 87 bb 97 da 90 bb 15 a5 e8 3c 05 f8 b0 3c
       -0.00412503 -0.004420589 0.02839903 0.02160264
000120 72 57 71 3d e6 44 9d bd ce a5 ad bc 2b 5a e8 bc
       0.058921285 -0.07679157 -0.021197226 -0.028363308
000130 3c 8d d7 bc 74 75 10 3d e1 e5 56 bc 11 50 5a bc
       -0.026312463 0.035268262 -0.013116331 -0.013324753
000140 07 8d be 3c 73 38 3b bd 2f d4 46 3d da bf ab bc
       0.023260606 -0.04570813 0.048542198 -0.020965505
000150 15 72 bf 3c 35 47 5e 3c db 38 87 3c 91 ba 15 bd
       0.023369828 0.013566782 0.016506603 -0.036554877
000160 ed 5a ee 3c 20 2f 74 b7 3f dc f7 bc 31 af f8 3c
       0.029096091 -1.45545055e-05 -0.030256389 0.030356975
000170 f9 a7 4e 3d 16 f3 7c 3b ef d9 0d bd 20 1d 2a bd
       0.05045316 0.003859704 -0.034631666 -0.041531682
000180 6e d4 a1 3d c9 7d 1e bd b4 f2 29 3d 7c 63 48 bd
       0.07901846 -0.038694177 0.041491225 -0.048923
000190 83 9f 5c bd 4f c7 92 3b b3 7a 13 bd 6f 57 e7 3b
       -0.05386306 0.004479326 -0.036005687 0.0070599834
0001a0 95 bf de bc 9b 88 ad bc 59 31 61 bd e0 93 28 bd
       -0.027190963 -0.021183303 -0.054978702 -0.04115665
0001b0 1e c3 57 bc 8d 76 cf ba c9 6e 49 3d bc 46 7a 3d
       -0.013169078 -0.0015828178 0.04917792 0.061102614
0001c0 c3 97 cc bb 72 e3 2c bd 25 f3 35 3d d4 5d 48 3b
       -0.0062436773 -0.042209096 0.044421334 0.0030573504
0001d0 4e 85 03 b9 57 c1 54 bd dd 2f b2 bd 3c d8 72 bd
       -0.00012542793 -0.051942196 -0.087005354 -0.05928825
0001e0 9d 47 7c 3c f0 43 88 3c 19 9a 83 bc a9 b4 65 bd
       0.015397933 0.016633958 -0.01606469 -0.056080494
0001f0 f7 01 8a 3b 68 74 63 3b 56 52 40 bd c2 1f 43 bd
       0.00421166 0.0034706835 -0.04695352 -0.04763771
000200 d9 1e 3c 3d b0 5a 29 3d 86 25 a9 3d 7d c9 8b bb
       0.045927856 0.041346252 0.0825911 -0.0042659626
000210 a2 cb 59 bd 7e 9a 04 3d 8e f1 1c bd 27 08 33 bc
       -0.053172715 0.032373898 -0.038316302 -0.010927237
000220 52 1e 04 bd ee 38 20 bd b5 f6 12 3c 6c 28 b2 bc
       -0.03225548 -0.039116792 0.008969952 -0.02174779
000230 5e 37 43 3d 8a c0 73 bd 35 bf a1 3d 46 69 cb bb
       0.047660224 -0.05950979 0.07897798 -0.006207618
000240 10 67 f6 3c 4d b2 49 3c b3 34 e6 3c 4c 1c 98 3d
       0.03007844 0.012310577 0.0281013 0.07427272
000250 a8 7f 0a 3d 4d 53 5b bd 65 23 53 3c ef 32 61 3c
       0.03381315 -0.05354624 0.012886857 0.013745054
000260 79 a7 c1 3c 7c e9 58 bc 30 66 b9 3c 63 59 f7 bc
       0.023639427 -0.013239261 0.022631735 -0.03019399
000270 15 34 5f 3d d8 79 f0 3c 48 f8 0d 3d 7c 73 82 bd
       0.05449303 0.029354975 0.034660608 -0.06369683
000280 f5 1b 82 3d e2 8c 03 3d 0e 97 2c 3c a2 18 b3 bd
       0.06352989 0.03211678 0.010534061 -0.08744933
000290 1d bf f0 3c 52 ef 70 3d 89 6e e7 bc f0 f5 57 3b
       0.029388005 0.058821984 -0.02825095 0.0032952987
0002a0 1f 0e f6 3c e1 4e a3 3c fe b1 09 bd 38 48 32 3d
       0.03003603 0.019935073 -0.033617012 0.043525904
0002b0 a4 1d 05 3d 16 bf 1e 3c 8e 6e 21 bd 71 cc 66 3c
       0.03249897 0.009689113 -0.039412074 0.014086829
0002c0 5a 76 21 bd b3 b7 70 3c 51 0d 99 3d 32 9a be bd
       -0.03941951 0.014692235 0.07473243 -0.09306754
0002d0 78 5b cc bb 5f 2f d1 3c 93 92 0a 3d fb 5a d6 bc
       -0.00623649 0.025535284 0.03383119 -0.02616643
0002e0 0d 88 76 3d 9a fc f0 3c 0b cb 36 3d 80 ce 74 3b
       0.060188342 0.029417325 0.04462723 0.003735453
0002f0 94 48 49 3b 7e 52 1b bb 3b 23 40 bc 1d f9 6f 3d
       0.0030713426 -0.0023700292 -0.01172715 0.058587182
000300 8b f5 d8 bc 0a e2 f1 3c 5a de 31 bc b6 28 1c 3d
       -0.026484272 0.02952673 -0.010856235 0.038124762
000310 4e 78 d7 3b d3 72 cf 3c 84 1f 69 3d 23 25 e2 3c
       0.0065756207 0.025323307 0.05691482 0.027605599
000320 39 90 60 bd 5d 0c 08 bd 81 09 aa 3d a1 8b 95 3c
       -0.05482504 -0.033214916 0.08302594 0.018255057
000330 7b b6 38 bd 96 37 0a bd 01 2c 79 bd ce 21 34 3d
       -0.045095902 -0.033744417 -0.06083298 0.04397755
000340 fe ad 01 bd a0 60 22 bc c8 f5 63 3c ea ca f2 3c
       -0.031660073 -0.0099107325 0.013913579 0.029637773
000350 5b ac b9 bc 82 c1 c6 bc 27 b6 4d bd 22 c9 97 3d
       -0.022665193 -0.024262194 -0.050222542 0.0741141
000360 bb db 37 3d 55 1b a1 bc 10 fa a4 3c c9 2a 26 bb
       0.044887286 -0.019666353 0.02013877 -0.0025355092
000370 2a 48 25 bc 7a 50 d3 ba ef c5 6c bc 6e b6 d4 3c
       -0.010088006 -0.0016122006 -0.014451488 0.025965896
000380 29 34 81 3a 2e fb ca 3c d0 b1 96 3d 0d c4 a7 3c
       0.0009857464 0.024777975 0.07358134 0.020479226
000390 ed ce 81 bd 7f df 1b bd 0b 18 bf bc 77 d1 6d 3d
       -0.06338296 -0.03805494 -0.023326894 0.05806109
0003a0 a4 5d 11 3d a9 7c 6d 3d 6a 8a 89 3d 45 14 b5 3c
       0.035489693 0.057980213 0.067158535 0.022104392
0003b0 13 da b4 3c d4 a0 1c bb 9b a5 2b bd 98 dc ae ba
       0.022076642 -0.0023899572 -0.04190598 -0.0013340889
0003c0 6c e1 91 3c 21 0e 16 bb c0 a4 38 bd 54 dd 75 bd
       0.017807685 -0.0022896605 -0.045078993 -0.060025528
0003d0 d0 88 13 3d b2 08 59 bd 7c 44 e8 3c 53 9d b7 3c
       0.036019146 -0.052986808 0.028352968 0.022413885
0003e0 da df 01 3d 5e 4e bb 3c 09 bf a9 bc 62 03 b8 bb
       0.031707622 0.022864517 -0.020720975 -0.0056156376
0003f0 ef 83 df 3c ca e0 79 bc d0 b0 35 bc 6a aa 67 bc
       0.02728459 -0.015251348 -0.011089519 -0.014139751

model.bias f4 [3]
000000 8c b7 66 3c b7 63 69 bd a6 47 6d bc
       0.014081847 -0.05697986 -0.014482414
